raw_numDet/weights/weight_22_0.001.npz (npz, 109572 bytes, 3 tensors)

filter f8 [8, 3, 3]
000000 69 61 22 b5 b2 13 e5 3f 11 28 3c cd 39 32 e3 3f
       0.6586545503405833 0.5998810776229694
000010 42 f1 46 53 8a d6 d4 3f be 28 ae d8 ba a0 cb 3f
       0.3255945027592767 0.21584258632748815
000020 d9 92 7c 69 45 34 c4 bf be 10 84 d8 e6 e3 b0 3f
       -0.15784518862451227 0.06597750459701765
000030 bc a4 f3 59 5b 88 c5 3f 61 0c 28 ba c2 e0 b5 3f
       0.16822378055738862 0.08546082539400991
000040 d1 2e b1 ba 77 6c b6 3f cb 0a 80 d8 e1 ea e1 3f
       0.08759258563912488 0.5599221447485773
000050 72 66 df e7 64 fb c8 3f 63 02 94 fb d7 bf cd 3f
       0.19517194101245 0.23241710456933892
000060 fe 8d 41 fc f8 f9 c4 3f b6 c7 b6 b8 a6 f7 a2 bf
       0.16387855832282122 -0.0370456791382731
000070 c2 eb ba 61 83 ca b8 bf 5a fa 85 61 e1 81 b3 3f
       -0.0968401063536666 0.07620056754056162
000080 90 a0 2e 06 93 a7 a7 bf e1 7b 49 69 52 02 c9 3f
       -0.04620036554780527 0.19538335934609477
000090 54 ad 40 32 f0 d8 6a bf 9d cf cc d7 d4 f1 c6 3f
       -0.003277272351643804 0.17925510918723556
0000a0 17 00 e8 0a 5e 20 94 3f b1 9e 82 11 6a e4 a7 3f
       0.019654721656479603 0.046664538037757615
0000b0 77 a4 9a c5 a9 95 ae bf f1 32 ed f4 ea 58 b0 bf
       -0.05973558938178141 -0.06385677795078572
0000c0 08 2e 65 72 88 b2 55 3f e1 04 5d bc bb ff c7 3f
       0.0013243038643676614 0.1874918622725437
0000d0 a4 37 b7 b3 6d 60 bc 3f 1d ff 0d 14 10 5e da 3f
       0.11084638249960094 0.4119911380621362
0000e0 cf 03 1e 7c 8d 96 de 3f 73 75 d3 2a ed b1 85 3f
       0.47793900605034606 0.010593273992010243
0000f0 32 99 a5 18 0c 87 b4 3f 5e ab 7a 07 d5 5b c7 3f
       0.08018565751772114 0.18248999467081267
000100 8f 71 d1 0f 0d a7 a0 3f 46 e5 51 3e 1d f2 b0 3f
       0.032524498158383534 0.066194369997807
000110 63 76 47 ca b3 0b bb 3f 02 49 13 48 d0 f3 97 3f
       0.10564731300788703 0.023391012572411725
000120 02 1d 72 15 eb 0c b0 3f c3 34 22 eb a2 3f d0 3f
       0.06269711755350119 0.25388405763881056
000130 78 c2 c1 49 44 f4 b0 3f fe 2c ee f9 51 78 b4 3f
       0.06622721481995508 0.07996094085517666
000140 a4 d8 8d f7 49 7f c3 bf b3 76 d7 0d a6 b8 ba 3f
       -0.152322049976367 0.10438001478129415
000150 a2 ac 4c b5 4e 66 b2 3f 53 46 de 61 33 e7 b1 3f
       0.0718735878587489 0.06993409289705114
000160 38 56 28 c1 5a d0 94 bf f5 08 bd a9 77 fd e3 3f
       -0.020326059379007527 0.624690848846767
000170 9d 7c 41 6f ad 2c e7 3f b6 f2 64 10 b8 fe 98 bf
       0.7242037938084597 -0.02440917587340393
000180 f6 6e 03 97 a5 8e d9 3f 12 ff 36 0a 55 d1 a7 3f
       0.3993314718952513 0.046518952843596875
000190 f8 54 ba a3 f4 9d 62 3f 65 f8 f8 f5 a6 d1 b1 3f
       0.0022725847355312655 0.06960528855504007
0001a0 70 1b d5 a5 aa 24 b5 3f 4e ae 22 ff 49 64 cc 3f
       0.08259073780673787 0.22181057889734962
0001b0 a8 03 bc 81 a3 65 cf 3f fd ec 3f 71 4a 46 c6 3f
       0.24528926691712383 0.17402010469218246
0001c0 ea b3 f5 94 26 65 c8 3f db ce 70 61 72 47 a6 3f
       0.19058687470842922 0.04351384582005632
0001d0 a4 9e 7e 74 f7 94 ba bf a3 7a 8b 5b bb e0 b4 bf
       -0.10383555025202412 -0.08155413613301703
0001e0 ed 7e 43 ae bb 8a 94 3f b7 02 83 f9 00 44 9a 3f
       0.020060474883279267 0.02565003893755843
0001f0 72 81 9b e5 d0 80 c9 3f 58 e2 70 1f f3 b8 ce 3f
       0.19924365245152448 0.24001921687319583
000200 c6 20 f3 2d bd ef d7 3f 60 4a 70 a5 e4 f0 9c 3f
       0.37400750624921064 0.028262684438298158
000210 a6 6d 25 c7 71 41 c0 3f 15 72 b4 1b 0c d8 66 3f
       0.12699720596252212 0.0027885662544930947
000220 60 21 40 b8 31 e0 af bf 20 93 a7 0d 74 02 a0 bf
       -0.06225734113837933 -0.03126871744806281
000230 92 c8 db ff f7 7f b5 3f 9b 75 79 92 4f cd b0 3f
       0.08398389812990306 0.0656327946284904

weights f8 [1352, 10]
000000 b1 5a 83 88 a6 0b 8a bf 09 ec e3 91 41 2c a1 3f
       -0.01271753410439422 0.033540772494198796
000010 02 1f 34 7f b2 0e 9e bf 75 ea a4 11 91 04 a7 bf
       -0.029352940572635162 -0.04495671596892673
000020 51 79 13 a4 9a f0 8b 3f dc 34 ad ab cc 99 80 bf
       0.013642509586529046 -0.00810584925570839
000030 58 40 8c 32 8d 8a 5f 3f 82 9d 19 e6 f2 28 9c 3f
       0.0019251231080410682 0.027499957365220158
000040 80 23 8b 1f 5b 5d 83 bf 6b 0c 38 7a f6 49 9d 3f
       -0.009455406093722862 0.028602458200122898
000050 6b 0f db 9a cb d1 81 bf 3b 5e 18 8c a8 dc 93 3f
       -0.008700934089013143 0.019396432448131256
000060 0f 5f 5b 34 b4 02 91 bf d8 8d 1d 4b 50 29 9c bf
       -0.016611877151119944 -0.02750134905308052
000070 5d 9c cf 7b f3 f1 81 3f 43 a8 ac d4 ef e2 73 bf
       0.008762266364966626 -0.004855095709709603
000080 9d 71 6c c2 b0 55 60 3f 49 14 6c da 21 61 91 3f
       0.0019939853986114657 0.016972092586929475
000090 46 c7 ca cb 08 b6 78 bf 88 81 94 f9 f2 1a 93 3f
       -0.006032976493473735 0.01865749023738908
0000a0 7c f0 94 01 df 6e 55 bf 05 97 8f 58 0e 62 7a 3f
       -0.001308172015639846 0.006441169775802673
0000b0 46 18 22 c3 13 22 72 bf 6c 98 a5 5b 7a f2 7f bf
       -0.004427029796835019 -0.007799604378624019
0000c0 da d5 17 05 8e 56 72 3f 52 b5 eb 7e b3 43 54 bf
       0.0044770763065477785 -0.0012368443382756067
0000d0 88 5b 5d 46 9e a3 4b 3f c2 b1 8f a6 31 18 78 3f
       0.0008434794260477755 0.005882448146604382
0000e0 e7 b7 dc fa d6 40 6d bf 80 2a 12 2d 94 66 74 3f
       -0.0035709570719495323 0.004980639279106414
0000f0 30 80 07 43 45 a3 7f bf c8 a2 95 de 72 65 92 3f
       -0.0077240663090095 0.017965121112328203
000100 58 d7 ce 06 ae 42 8f bf 35 f6 87 0c d2 75 9a bf
       -0.015263900358927593 -0.025840074553334886
000110 92 09 86 f7 98 07 7d 3f d9 51 2c 05 c4 db 5a bf
       0.0070873236912824145 -0.001639310289367582
000120 36 6e 32 34 fb f5 52 3f fb 5c 10 ef 6a 6f 91 3f
       0.00115727931623767 0.017026587334922443
000130 25 e0 ca a6 51 71 7f bf 29 0c 88 dd ee ed 8a 3f
       -0.00767642874841815 0.013149133811571971
000140 3b 1b e9 d5 c5 8b 46 bf bf 63 13 4a 6a 16 77 3f
       -0.0006880489343722215 0.005636611168676474
000150 1e bc 0f b2 b8 c4 6e bf 0e e5 9d aa b0 6b 81 bf
       -0.003755913480282937 -0.008506183821497728
000160 20 cf c7 f8 28 aa 69 3f 60 76 9a 99 8c 67 23 3f
       0.0031328964453169045 0.00014804450329546342
000170 0d 38 d5 1a 94 c6 4e 3f 40 72 cd 07 79 ae 79 3f
       0.0009391997497603125 0.0062699058297224775
000180 4f db 71 ec 1c 82 6f bf 79 68 f6 df 30 67 5a 3f
       -0.003846222392492583 0.0016115166944019861
000190 55 94 67 dd 7e 7b 85 bf d2 6c f4 3e b3 78 9d 3f
       -0.010489455348713298 0.028780747144179504
0001a0 1f 3c 8e 71 42 86 97 bf c9 ce f0 8a 99 26 a4 bf
       -0.022973097020038687 -0.03935699292233392
0001b0 39 71 a7 16 df 28 87 3f ba 01 27 4b 08 1b 75 bf
       0.011308424834105867 -0.005152733227476275
0001c0 82 b5 42 c9 6a 1c 5e 3f 7f 51 d9 6b ae f6 9b 3f
       0.0018378298600894853 0.027308202107023668
0001d0 74 30 9f d2 69 83 88 bf 25 d0 9f 9d 47 d3 94 3f
       -0.011969401111763235 0.020337218280431685
0001e0 9b c9 ba 0a 64 87 59 bf bc a9 ac da f4 db 83 3f
       -0.0015581585857203709 0.00969687740651614
0001f0 3c 28 09 f9 55 b0 7d bf 5f 62 09 79 2c 34 8d bf
       -0.007248245078310286 -0.014259669727082867
000200 85 e4 82 32 cc a9 75 3f af ee 0b 09 c0 10 6a bf
       0.00528888477872969 -0.003181815213222659
000210 9a b1 0e 46 e3 dc 50 3f e1 93 6d 28 89 58 80 3f
       0.0010292262524941088 0.007981368585840034
000220 26 f4 4f a1 4f 9e 71 bf cc b1 2c 39 1a 8b 76 3f
       -0.00430136781232896 0.005503752169527986
000230 5c c3 8b 17 71 2a 70 bf 38 b4 df 31 2d 83 87 3f
       -0.003946725621731453 0.01148066814854519
000240 38 1a 17 75 3b 59 83 bf cd f2 7e cc 08 9d 8b bf
       -0.009447540770350135 -0.013483113041610118
000250 f8 04 72 c3 10 5c 71 3f 1c 52 cc cb 08 a6 46 3f
       0.004238191110858873 0.0006911795568123632
000260 a5 8a 3c 05 8c ea 53 3f fa 10 e1 1c 80 5b 84 3f
       0.0012155883204704534 0.009940148240396674
000270 63 e8 42 27 6a 45 75 bf b6 41 2a 5f 1d cb 7a 3f
       -0.005193152104931628 0.006541361554483085
000280 0d 28 4e 09 db 6f 89 bf 79 19 a4 2f e0 f3 a0 3f
       -0.012420378896212747 0.033110624137452534
000290 62 42 4b 75 c6 c1 9d bf 73 9a 6f 51 9f 6d a7 bf
       -0.02905950632959032 -0.045758227053558274
0002a0 41 fd 03 16 04 41 8b 3f ec 7d 64 aa 39 89 82 bf
       0.013307601854192998 -0.009050798904865119
0002b0 f5 39 1a 8e f7 af 72 3f 3e 52 24 33 46 28 9c 3f
       0.004562346469937574 0.027497383948757774
0002c0 f7 e1 e3 60 25 2c 83 bf 63 66 2b c4 97 ee 9d 3f
       -0.00936154558120082 0.029230471943128566
0002d0 f2 fb 65 c9 bc fe 7d bf 21 d8 a3 ad 7b ef 93 3f
       -0.007323014686675388 0.019468243096490426
0002e0 50 0d 1e 83 01 ea 91 bf 60 bd 72 06 6b f4 9b bf
       -0.017494224193354058 -0.027299568432395005
0002f0 a9 0b a7 e8 90 5c 80 3f 5b 4b f4 25 0c 83 79 bf
       0.007989055728904253 -0.00622849221624019
000300 fe af f5 a3 cc 29 53 3f fa 04 74 f5 31 1e 91 3f
       0.0011696337167803601 0.01671674786212394
000310 76 a9 e3 33 28 79 7a bf 3d 3d 77 4e 00 89 91 3f
       -0.006463200608985855 0.017124180592700034
000320 fa 59 ff 01 b2 fc 62 bf 78 b0 5e 4f 5b 7b 75 3f
       -0.0023177601542372335 0.005244595222318897
000330 ad 99 61 88 20 58 78 bf bb b5 42 f6 5b f4 81 bf
       -0.005943419533741706 -0.008766859486366898
000340 c8 bf e3 7d 16 9a 64 3f 17 e6 de f8 53 52 5e bf
       0.002514881066524286 -0.0018506832161463477
000350 30 e0 27 09 3a f8 4b 3f 61 65 49 3b a9 84 76 3f
       0.0008535655381924964 0.005497609196561144
000360 40 aa b1 54 c4 11 71 bf ea 3f 96 68 7b f0 71 3f
       -0.004167334477737372 0.004379732193584099
000370 57 69 aa c2 5e 84 7d bf da 88 f7 05 d8 b2 93 3f
       -0.007206316144812006 0.019236922611420272
000380 f3 58 3f 4c d8 4d 90 bf 11 e3 37 7a 3c 32 9b bf
       -0.01592195477845677 -0.02655882354699474
000390 0a 55 be e3 a9 5f 7e 3f c9 51 12 b3 9a 14 5c bf
       0.007415450698222923 -0.0017138968217170639
0003a0 83 f2 56 a3 c6 fb 3f 3f 62 73 8b 0d b5 ce 92 3f
       0.0004880294758001018 0.01836665053530185
0003b0 ab 4f 9f 94 95 7b 7e bf d7 32 bf 01 67 59 8d 3f
       -0.007442077921911687 0.01433067773896239
0003c0 3a f3 91 85 6d af 5c bf bd 8c fb 21 1e 38 79 3f
       -0.0017508096264286636 0.006157033639939855
0003d0 7c 97 f8 10 96 37 6b bf 8d cb 84 a6 be 7a 82 bf
       -0.0033224040014542804 -0.009023179489849454
0003e0 d0 23 d1 cc 40 6e 63 3f 60 c5 5a 3d e4 d1 4d bf
       0.002371908724431361 -0.0009100307895179398
0003f0 5e ea a1 f2 64 e3 4a 3f 02 46 1d 30 51 c9 7b 3f
       0.0008205645474526726 0.006783787861267767
000400 7a f5 93 55 be 4f 71 bf bb f6 f9 fa be d9 56 3f
       -0.004226439946476085 0.001394688133501117
000410 77 16 c2 a0 98 06 86 bf 6e 2d ab b5 03 b4 9d 3f
       -0.010754768758725703 0.029007013285803955
000420 5d 0e d5 ec 34 5b 97 bf 95 d5 c4 a5 dd 0d a4 bf
       -0.02280886359700528 -0.03916828774019191
000430 dd 91 3f c0 12 c3 85 3f a3 f2 60 a1 58 90 68 bf
       0.010625978939011677 -0.0029985171377389804
000440 e1 c3 f8 8e 30 af 62 3f 7d a1 84 16 cc a9 9c 3f
       0.002280802574909022 0.027991474985499466
000450 58 c7 9e c9 58 29 86 bf 2b ba 4b b6 16 3d 93 3f
       -0.01082105031295881 0.018787722469762052
000460 b5 e9 aa c0 5e a5 64 bf db 09 73 29 3b 23 82 3f
       -0.0025202608715890426 0.008856260492739068
000470 00 3c e7 28 e7 8b 7d bf 9d 76 97 95 7c e9 8a bf
       -0.007213499992260175 -0.013140652957129456
000480 a3 ed 07 d2 74 35 72 3f 4c 7e ae ae 60 04 6d bf
       0.004445511178797021 -0.0035421264960431628
000490 fa 11 9e 8c 61 61 56 3f 71 ee d5 4b 37 38 7e 3f
       0.0013659908895259352 0.0073778305062394
0004a0 40 df 37 59 e9 62 74 bf 1b 11 52 f1 75 55 79 3f
       -0.004977141873943769 0.00618501731253598
0004b0 d8 7a 9c 39 fd 09 74 bf f2 81 54 f1 3b 33 87 3f
       -0.004892338905647185 0.011328190138159198
0004c0 59 ec df 28 da f5 82 bf b3 df 16 33 30 78 8e bf
       -0.009257988331219534 -0.014877678450701958
0004d0 06 3b 7e 13 a1 04 70 3f a1 76 2f c6 83 89 5b bf
       0.003910664752665443 -0.001680735288338488
0004e0 93 2c de 92 75 3a 4e 3f 1e d8 cd 28 83 83 87 3f
       0.0009224962320656553 0.01148130863451163
0004f0 c5 9e 36 90 ee e8 75 bf 62 96 17 eb 25 e0 78 3f
       -0.005349094284077875 0.006073139303656912
000500 0e e8 2d 17 4a 18 8a bf eb 36 b3 f6 7a 4d a1 3f
       -0.012741640884758734 0.03379425298190405
000510 39 1c d9 f6 01 27 9f bf 97 16 03 0d 86 e1 a6 bf
       -0.030422239962970308 -0.044689358795534755
000520 50 06 c5 13 27 96 89 3f f4 c3 d9 b0 c0 5b 80 bf
       0.012493424692937044 -0.007987504384091772
000530 8b 83 8f 39 0e d3 69 3f 1d 52 1f 74 ec e6 9c 3f
       0.0031523969487214413 0.02822465380434568
000540 c9 c8 8c 39 41 fe 82 bf 12 13 03 ab 66 70 9c 3f
       -0.009274015015396835 0.027772525966400848
000550 00 9d 57 5e ff 4b 7f bf 91 a7 b3 ad e9 39 94 3f
       -0.0076408362706168464 0.019752169825472846
000560 02 9a 27 60 1b 31 91 bf 4f e1 a7 af 26 fc 9c bf
       -0.016788890594307666 -0.028305630179575044
000570 c5 1a 30 c4 95 64 7b 3f 54 4c 69 df bb 41 77 bf
       0.006687722229804909 -0.005677923085914822
000580 55 af a7 16 d4 43 76 3f 1f a9 dd 5d 26 a1 8e 3f
       0.00543578002041641 0.014955806483801624
000590 eb 4a 71 63 b4 c7 7c bf 34 27 9e e8 ed a8 91 3f
       -0.007026390688298116 0.017245976755965134
0005a0 14 15 ce 6a 9a 61 54 bf ff d1 a2 73 70 55 72 3f
       -0.001243973539403702 0.004476012482133473
0005b0 93 d3 25 09 05 c5 70 bf 42 ef 16 42 07 fa 7a bf
       -0.004094142599900946 -0.006586101867863738
0005c0 39 37 66 3c 34 33 61 3f f9 e2 2f 16 e0 42 60 bf
       0.0020996113045787215 -0.001985013646386921
0005d0 97 0b 7e dc 61 79 63 3f f4 21 37 68 4d 9b 73 3f
       0.0023772155145151508 0.004786779757929061
0005e0 e7 74 03 bc c2 c5 68 bf 3f ca 31 f4 16 3c 75 3f
       -0.003023987141303242 0.005184259093868492
0005f0 ec 81 eb 65 54 7d 79 bf 9d fc 55 95 d5 51 93 3f
       -0.006223039322066342 0.01886686061834252
000600 8f c8 fc 39 c9 04 8e bf 4a 6d 35 2b 3d 04 9b bf
       -0.014657566148887717 -0.026383357774972617
000610 7c 44 cb 00 18 31 77 3f 13 88 4b e2 65 39 57 bf
       0.00566205383502549 -0.0014174933395954034
000620 41 7e 74 08 0b 46 45 3f 1e 2a a7 59 1d 8d 91 3f
       0.0006492189285473641 0.01713987216661838
000630 d8 f9 e7 c9 ae 16 81 bf 52 5a a5 7f 02 63 8b 3f
       -0.008344045197188274 0.013372439880794538
000640 de f7 e1 57 93 07 4c bf 0d 08 b0 96 e9 e5 7e 3f
       -0.0008553952645937687 0.0075434803538900865
000650 10 05 e3 2b 34 1b 6c bf 33 4e 53 c6 77 97 81 bf
       -0.003430940530137712 -0.008589683284674887
000660 62 4f 6c f8 82 07 69 3f 34 50 68 92 d5 fd 2c 3f
       0.003055339623992668 0.0002211878974810469
000670 2f 9c e6 ab ae 60 51 3f dc 1b a1 0a 5f 86 7b 3f
       0.0010606485153432756 0.00671994329065392
000680 7d 41 18 44 a5 5f 6b bf 63 fc 75 97 6d ad 68 3f
       -0.0033415057994334294 0.003012384458713367
000690 3a b8 38 3d 75 71 88 bf ca 31 29 86 df 71 9d 3f
       -0.011935153895219586 0.028754704059154958
0006a0 2b d3 8c 0f 18 82 98 bf de 4e 99 80 a5 90 a4 bf
       -0.023933769177534685 -0.040166065166571605
0006b0 8a 11 93 82 95 0b 89 3f 6b 5e b5 55 60 de 67 bf
       0.012229126021687593 -0.002913654474166629
0006c0 cb 92 2b 6b 2e 73 6e 3f 55 30 cc 27 35 30 9b 3f
       0.0037170321096361195 0.026551085046819207
0006d0 e8 79 f0 b4 93 ef 85 bf 4d bb 1d 1a 13 61 95 3f
       -0.010710863074618396 0.020878122776987685
0006e0 91 57 34 c7 13 ff 65 bf 32 99 af 0f 6a 28 82 3f
       -0.002685106877502848 0.00886614666337646
0006f0 ad b8 be 8c 8d 5f 7c bf 57 75 16 6a 2e 43 89 bf
       -0.006927063874100065 -0.012335169422665144
000700 ba b8 f7 da ce 6e 6e 3f 13 03 c2 e0 f1 7a 66 bf
       0.003714946760502516 -0.0027441715411104044
000710 a8 0b e0 e6 b1 55 70 3f bc 5f 14 b2 d9 4b 7d 3f
       0.0039879750529533756 0.007152414678124271
000720 38 62 10 2d 22 45 71 bf fb 2b 58 9c 4c 64 7a 3f
       -0.004216321468469668 0.00644330907881407
000730 5d 01 67 88 de 27 70 bf 02 4f 65 74 60 f4 85 3f
       -0.003944272297701748 0.010720017959705345
000740 7a d3 45 4e ea 9c 82 bf 79 7d bd e9 03 bb 8f bf
       -0.009088354600615512 -0.015493422098812758
000750 88 7e e0 a5 0a cc 72 3f 5b aa 7b 8c 32 ae 5a 3f
       0.004589120477276894 0.0016284459724668274
000760 00 da bb ce d7 99 46 3f b3 62 c3 b0 73 3f 85 3f
       0.0006897262332746235 0.010374931175122759
000770 90 8e 09 02 b9 77 73 bf b0 ea c0 a6 53 c3 78 3f
       -0.004752848327004636 0.0060456531173779665
000780 46 4d 09 df fb b3 8c bf 0f d4 9b 3e 07 58 9f 3f
       -0.014015166992214955 0.0306092388118096
000790 40 f1 38 42 bf 6c 94 bf d4 f4 b7 dd c3 b2 a5 bf
       -0.019946087281128344 -0.04237949449086789
0007a0 be 97 f4 5e c1 92 88 3f 29 1d 28 02 aa 98 8c bf
       0.01199866362601287 -0.013963058653657061
0007b0 7b 00 4c d2 21 e9 73 3f 11 62 73 20 b6 bd 9a 3f
       0.00486100398552491 0.026114316683420628
0007c0 ca 2f c3 36 4b ef 88 bf 68 ee f2 57 2b 5e 9c 3f
       -0.012175166710583957 0.02770297741220276
0007d0 7c c6 05 b5 ea 2e 81 bf 4b cc 48 ff d9 b2 91 3f
       -0.008390267991418947 0.0172838270247662
0007e0 aa c4 91 fb ca cc 86 bf 8b d7 79 c4 23 a3 99 bf
       -0.011132798960007701 -0.025036391131343854
0007f0 ad 67 8c 0a c1 c2 79 3f 7e c6 f0 b6 ae 4f 81 bf
       0.006289247576910667 -0.008452763517286185

biases f8 [10]
000000 44 d2 c7 7d 62 81 94 3f 1e cc 88 eb 9a 27 a3 bf
       0.02002481358245435 -0.03741153836417531
000010 d0 15 b6 b5 35 20 a3 3f 64 ed cb b1 d0 d1 ac 3f
       0.03735511630206256 0.05628826303833526
000020 7f c8 9a 63 aa d5 83 bf d2 88 33 04 7c 39 74 bf
       -0.009684878506366566 -0.004937633933169221
000030 19 a9 c3 f5 9d e2 6d bf 52 0f 46 aa 6a 12 9f bf
       -0.003648098483712958 -0.030343691485099918
000040 0f a0 bb 79 10 b9 73 3f 9f 2e 28 7c 45 9e a0 bf
       0.004815162999626934 -0.03245751514995487
