raw_numDet/weights/weight_16_0.013.npz (npz, 109572 bytes, 3 tensors)

filter f8 [8, 3, 3]
0.5810221704471642 0.5712803680238179 0.36305308428618527 0.21052819971181216 -0.11298350524871432 0.11227916293308846 0.199014840017271 0.10627409074098358
0.04843210799898008 0.5251033088765126 0.1845856252404361 0.2493701451637212 0.18054208520858273 -0.018216007340387252 -0.08129657854371893 0.12707734943139765
-0.040851546793822434 0.15261838334497915 -0.005243378024767825 0.1825285277953617 0.024911915983752534 0.04600175997845892 -0.051331578860343126 -0.054815688247368814
0.006908501297081401 0.19028376886830858 0.11306368740705659 0.3836945627274746 0.4719145255218751 0.06719440770245272 0.07413486927037954 0.20510283705822638
0.06769362792785158 0.09002015338727833 0.1176449999428425 -0.0012311937454457722 0.053447985832892814 0.257784055939732 0.08307045288348121 0.08165886688369339
-0.14148368494236585 0.10573011555002601 0.07368694206275801 0.07115277661238037 -0.04066934341067688 0.5679398586475548 0.7099699579566051 0.03976069166551086
0.3862432331398799 0.07389115664544083 0.030241569423301 0.08680789600590426 0.06552079039135482 0.14631874504133588 0.21849318953536875 0.17204739064345448
0.19836410159332063 0.042588350622995395 -0.09555108570717279 -0.08530753619896328 0.023428532915326292 0.019050602975357708 0.17706704558461003 0.21467396374372455
0.363600481610658 0.050949794305118375 0.12143448884759757 0.010731406692149701 -0.04537440949525063 -0.022931685188986955 0.09442411968335897 0.055087759670227804
00000000: cb49 8ace bb97 e23f e44a 30c4 ed47 e23f
00000010: 7526 ee00 433c d73f 55f1 528a 96f2 ca3f
00000020: 25da 07ac 7cec bcbf 06e3 d1c4 53be bc3f
00000030: 247c a57a 5179 c93f 7f08 2560 c734 bb3f
00000040: ca29 dddf 17cc a83f 19ac 5474 a5cd e03f
00000050: d014 dc73 80a0 c73f aad9 0965 5ceb cf3f
00000060: 8ce1 c2c7 001c c73f 90a2 298f 37a7 92bf
00000070: 4d39 1f42 dacf b4bf 4663 ef11 1244 c03f
00000080: e3e2 f072 7eea a4bf fd16 9eca ff88 c33f
00000090: 06eb 3092 147a 75bf e1ea bb44 185d c73f
000000a0: 4142 b961 8282 993f d3f3 54ed 8a8d a73f
000000b0: 9118 eaf8 2148 aabf 6f0d a948 cd10 acbf
000000c0: 6358 2ab2 164c 7c3f 81df 1ff2 375b c83f
000000d0: 254a c7e7 bdf1 bc3f 5052 a4a3 738e d83f
000000e0: 84ec 67fb d833 de3f 345e 8e17 a733 b13f
000000f0: 9c6f 02b7 80fa b23f dfae bd4c cf40 ca3f
00000100: d603 199e 5e54 b13f d97d c78e 8f0b b73f
00000110: b8dc 4a93 fb1d be3f dc69 ca37 002c 54bf
00000120: f4f1 60ce 885d ab3f a13f 6cb2 887f d03f
00000130: 8501 66ee 1a44 b53f 28a2 b172 98e7 b43f
00000140: 1c5d df2b 231c c2bf 8a5a 7dfc 2011 bb3f
00000150: 4542 4dbe 25dd b23f 46dc 9180 1137 b23f
00000160: e41b ccb7 9cd2 a4bf 388e df35 902c e23f
00000170: 9b1d d2ea 12b8 e63f 7d4a bd6c 835b a43f
00000180: 0bc6 a889 35b8 d83f e47a 41e5 87ea b23f
00000190: 5875 9c5e a5f7 9e3f f342 61d2 0a39 b63f
000001a0: 5f5e f073 f8c5 b03f 3745 5f98 92ba c23f
000001b0: 6f00 bab7 95f7 cb3f be7f 161e a605 c63f
000001c0: 1099 85b0 fe63 c93f c391 3bea 23ce a53f
000001d0: 5ba8 3534 0976 b8bf a2ae 13f6 b6d6 b5bf
000001e0: 3989 a83a a6fd 973f 0f33 fe52 0082 933f
000001f0: 631c fe08 22aa c63f 8a7e caba 6f7a cb3f
00000200: d1f7 54f4 3a45 d73f d18b 8e68 1716 aa3f
00000210: f1f7 34a6 5416 bf3f 524b 4306 59fa 853f
00000220: e1fe b689 503b a7bf cb28 b757 677b 97bf
00000230: a95d fed9 2d2c b83f 2c17 637c 7634 ac3f

weights f8 [1352, 10]
-0.014037226794134884 0.03265095235142626 -0.02745233793999479 -0.03913865016149638 0.008422270499238868 -0.003988957837825605 0.0006116097355865197 0.027870547131697895
-0.007100487255443525 0.022784655029669847 -0.00945110584143778 0.018813587846124878 -0.015669044118424173 -0.023708600416329655 0.005449350511107915 -0.0022695164502576142
0.001266875273055009 0.016917976478805 -0.004287169877232683 0.015017681134219724 -0.0015980250716286955 0.006046653804839747 -0.003929241293500007 -0.0065591965748803705
0.003212438182443009 -0.0005511665275692539 0.0005563458715553742 0.005680389098717804 -0.0025819537570863763 0.004005961599893766 -0.008568459605661723 0.017142485206722187
-0.014182684944176401 -0.02161580848088167 0.0033843289812217846 0.0005085932542702718 0.0004289649353049611 0.016740880349899432 -0.005461295832771608 0.009864661143357654
-0.001087585526183721 0.004990031895837513 -0.0033659374140551494 -0.006679612748201946 0.0017422242738428233 0.0008156354286627621 0.0006943439124765355 0.006095467406592608
-0.002844348859083131 0.0005815873926399139 -0.011750028535395095 0.027477037601830817 -0.021561057782539503 -0.03324612811386663 0.006315483408729247 -0.001997345240537172
0.00034772987620181983 0.02667862087030367 -0.008716685103533043 0.016083115614310434 -0.0019374629667169832 0.008788036730766072 -0.0066425375760358705 -0.01179008233310222
0.003051043660134691 -0.001394599335703278 0.00037115916781053844 0.007771455323845809 -0.0029690414013752693 0.0037028815068193247 -0.0044738627593791346 0.010795196250490902
-0.008916892279173335 -0.011088405848266718 0.0021600567550690616 0.0016597504762487507 0.0007576547702316808 0.009440359662264605 -0.003543783402749512 0.005246531768207042
-0.013740071585953412 0.03222080399468007 -0.027158903696949947 -0.039940161246127925 0.008087362766902858 -0.004933907486982372 0.0032488330974830486 0.027867973715235504
-0.0070066267429214745 0.0234126687726755 -0.00807318643910005 0.018885398494484056 -0.0165513911606583 -0.02350681979564414 0.00467613987504553 -0.0036429129567881794
0.00044252359122389564 0.01666263175399946 -0.004717393992744803 0.013484371489530658 -0.0026076132102260826 0.0048500792513559736 -0.0054456310304066636 -0.007526451682623227
0.0012502429424195295 -0.0011650054054400012 0.0005664319837000959 0.0052955501486745635 -0.0031783311628742184 0.0034050545143714554 -0.008050709441464224 0.01841428670581426
-0.014840739363705635 -0.022334557474541526 0.0037124559881622954 0.0004340067219207871 -0.00024028490513260312 0.018080943550278776 -0.0052269450062651605 0.011046205070748097
-0.0021503462182401595 0.005510454367100889 -0.002932427935226489 -0.007196608416553653 0.0009812365529572739 -0.00024243986415064186 0.0005757087101688958 0.006609349438137897
-0.003224566413066632 0.00036475883173903867 -0.0120153419454075 0.027703303743455268 -0.021396824359506104 -0.03305742293172464 0.00563303751363505 0.0001568708492001253
0.0007907025910213603 0.027361893748779467 -0.0075683343047286316 0.0145336198036409 -0.002899565252585651 0.007947419816988974 -0.00660779248998576 -0.010671065563148806
0.0022076700602020392 -0.0017549106185237866 0.0007079238048423653 0.007167917244245162 -0.0036448154629900773 0.004384146649827333 -0.005419476043294867 0.01064271824010491
-0.008727339840042718 -0.012482971257358573 0.0018325303968756348 -0.0007121643689020952 0.0004645626818268838 0.010981520056379571 -0.0036997255818957565 0.004778309517380877
-0.01402249146597452 0.032910864751708686 -0.02843131388263838 -0.03886749099425092 0.0073279094923957054 -0.0038451278457467437 0.0015621488585150385 0.028650591443283746
-0.006918740369718505 0.02195614536398227 -0.00827233486559967 0.01919099848579867 -0.015590764615927788 -0.0245012036085704 0.003545672061420703 -0.0030193546454010877
0.003889029072965462 0.015064641218750497 -0.005279282764969506 0.013610384158281228 -0.0014560825483749523 0.004096083598178354 -0.0034442943381291437 -0.005337463505157295
0.0009476747009324304 -0.0012521715781271914 0.0015662344981558145 0.0046924135331510046 -0.002034106414757586 0.004212371412294924 -0.0070634755932077395 0.018045210814767197
-0.01356763166150685 -0.022158636621818478 0.001965104471775891 0.0007335290058352148 -0.00010794851143151448 0.01685950737094768 -0.006128874767225729 0.010088159138482204
-0.0012549318547287 0.006896901081099737 -0.0030409765105131495 -0.006763111795840581 0.0016646675928714244 0.0008887788233573055 0.0008158040815839318 0.006545504867559696
-0.0023396322659611966 0.0019824552418061785 -0.013078240896370264 0.027472266381589065 -0.02226413779779627 -0.03404365566190551 0.007406505323511989 0.00031662110730241674
0.001407703694957896 0.026082137463478056 -0.007456882240453297 0.01662824685186031 -0.0029330548911370574 0.007981629598541658 -0.006048037489284523 -0.009852360163118055
0.0016675379510868327 -0.0008766845505195534 0.0024310442587004016 0.007122305289910218 -0.0028825240271119186 0.004647103072854518 -0.00443431655474376 0.01004111845557125
-0.008480589555049113 -0.013094947002136868 0.0025634240178165086 0.0026194681281569033 -2.059485086318372e-05 0.009926375349610172 -0.0031030864262787295 0.004752146049006694
-0.01521031982751468 0.0298876368884914 -0.018001140223035325 -0.03674070916948073 0.006962178516861559 -0.009622685000138237 0.002797886966151313 0.026660913719055372
-0.009816767284534813 0.02189023180466263 -0.009069719039776793 0.016873160404572877 -0.010245084463172759 -0.021505745119660722 0.0030819844809660568 -0.005620329640798014
00000000: 810a 0fb0 8cbf 8cbf e4b4 1029 a0b7 a03f
00000010: 5ea4 9a36 771c 9cbf 6a0b e82c fb09 a4bf
00000020: d880 d102 b23f 813f 045c 56b7 b956 70bf
00000030: f11c f8e7 8d0a 443f 9f1f cfc1 188a 9c3f
00000040: 6ac4 c388 6615 7dbf 9bf2 cf50 dc54 973f
00000050: 2705 00f4 195b 83bf 86ff 1382 de43 933f
00000060: be5e 31c0 8b0b 90bf 8e32 b03d 1147 98bf
00000070: d4a4 ace3 0e52 763f ce96 cf5d 8597 62bf
00000080: bc9d 6af7 a8c1 543f 418c c32e f252 913f
00000090: 204b a466 6c8f 71bf 7074 aa0a 97c1 8e3f
000000a0: d0ee ee5a 9a2e 5abf adea 7845 60c4 783f
000000b0: 66a7 a8ad 1b18 70bf 1231 6fec d0dd 7abf
000000c0: 2d72 e39d f850 6a3f db9f f31a 850f 42bf
000000d0: 2d8f 6ba9 f73a 423f ee50 85d6 5144 773f
000000e0: 1d7c 49de bf26 65bf 151e f820 8e68 703f
000000f0: a46e 442e 578c 81bf 9213 57b5 cc8d 913f
00000100: fea4 09c0 cf0b 8dbf ad08 025a 7422 96bf
00000110: 3353 62c9 73b9 6b3f f475 70b2 63aa 403f
00000120: e8a6 465e d61c 3c3f 49af 6f76 8524 913f
00000130: 42b6 ed6f 955e 76bf df88 f967 ec33 843f
00000140: 345a 0f11 aad1 51bf b724 c77c 6d70 743f
00000150: 5dd6 a3e3 e192 6bbf 8005 dbe4 145c 7bbf
00000160: 7d29 d211 6b8b 5c3f 529e ebbe 0bba 4a3f
00000170: 61c2 b832 94c0 463f 7973 a492 8ff7 783f
00000180: f86c 802a 084d 67bf f543 636a b50e 433f
00000190: 06ef 4a22 6610 88bf 9834 90c7 f022 9c3f
000001a0: a935 2c18 1a14 96bf 3174 eff1 a205 a1bf
000001b0: 96c9 2eab 43de 793f e2ea 948f bc5c 60bf
000001c0: ac81 3572 f0c9 363f 96b4 8ff0 a351 9b3f
000001d0: aff8 97ab 0dda 81bf 4533 539e 1778 903f
000001e0: f79a 1205 4fbe 5fbf 2866 d652 76ff 813f
000001f0: aaa5 6c9a 3435 7bbf 5075 4d10 6625 88bf
00000200: 6b73 a597 80fe 683f b271 6ca2 5fd9 56bf
00000210: f36a c37c 0453 383f 71f6 5427 f6d4 7f3f
00000220: 7a22 05f7 8752 68bf 39c9 205f 8155 6e3f
00000230: 9c2e d063 2f53 72bf 1a4f ccb6 ca1b 863f
00000240: f19d c405 0543 82bf 6959 dda3 84b5 86bf
00000250: 4c58 dba3 f7b1 613f 82e7 f580 7f31 5b3f
00000260: 03d7 da3a abd3 483f 2b61 18a0 7755 833f
00000270: e790 343a da07 6dbf b43c ca25 637d 753f
00000280: ddd7 d930 c123 8cbf 5ee2 d0c6 3e7f a03f
00000290: bec7 b12c 8bcf 9bbf 68bb b26c 0973 a4bf
000002a0: de04 c274 1b90 803f 50ee c4b4 9335 74bf
000002b0: 2f5b ecfc 4b9d 6a3f 59d4 d90e 6c89 9c3f
000002c0: 4e41 750b fbb2 7cbf 8f4c c39a 7df9 973f
000002d0: c3f3 d7bd ac88 80bf 6e79 9fa3 b156 933f
000002e0: 030d f40e d9f2 90bf 1662 05f9 2b12 98bf
000002f0: 5e83 5bbd 4927 733f cbdc 5e00 bed7 6dbf
00000300: 71a9 1d5a 5000 3d3f f17c cb49 0210 913f
00000310: 502d bdce 8b52 73bf ceeb 6fb4 b19d 8b3f
00000320: 2359 acae 8f5c 65bf 2304 483c addd 733f
00000330: a928 e872 284e 76bf 0204 4f7d 0ed4 7ebf
00000340: be0c 2f23 e67b 543f d000 6d07 6316 53bf
00000350: dd13 366c 938f 423f 8a04 3f6b c9b0 753f
00000360: bb18 d08c 7109 6abf 0667 f8b8 eae4 6b3f
00000370: 35e3 15ee e37c 80bf a5f9 b8dc 31db 923f
00000380: ad7f b951 d264 8ebf 89f5 b1c7 dede 96bf
00000390: 29ea d2a1 9569 6e3f f5eb 48ad 6c71 3c3f
000003a0: 493e 589e 9f7e 2fbf 9ec5 ea94 cf83 923f
000003b0: da25 c25d d968 75bf 9baf 308c 649f 863f
000003c0: e05f d655 9a9d 61bf b04d af54 2192 763f
000003d0: b3b1 8c42 bf05 68bf 68d2 a8dc 307a 7dbf
000003e0: c1d2 e4b9 9a13 503f b312 5793 eec6 2fbf
000003f0: b474 850a 65dd 423f 3b47 f4ba 6712 7b3f
00000400: 9a7c 36e9 676a 6abf 83c0 d440 a3e7 373f
00000410: 2771 a5e5 7f9b 88bf 34f5 463e 415e 9c3f
00000420: e907 7393 0ce9 95bf ff7a c30c e7ec a0bf
00000430: d60a 5ffe aa12 773f 485f 8255 b68f 243f
00000440: 7965 78e2 e4e8 493f 9404 3b9b c104 9c3f
00000450: 351f 2f45 f9ff 7ebf cf3a fe6d cdc3 8d3f
00000460: 5ad2 d63d d4c0 67bf 38c6 9ca1 bc46 803f
00000470: 6eb9 4aca c510 7bbf 8c89 db2c b6da 85bf
00000480: cf85 afd6 d115 623f 0291 b1ed a0c0 5cbf
00000490: 3e76 80cb 7e32 473f 10bd 4f22 1b5c 7d3f
000004a0: abf8 d466 bbdb 6dbf fcc3 b567 1cf5 713f
000004b0: 18e6 e085 bb32 76bf d41c 4176 d9cb 853f
000004c0: 0970 8db9 a3df 81bf 5746 750a ac90 89bf
000004d0: dd88 e787 3006 5e3f 2a70 3f56 1156 47bf
000004e0: addc 7f86 1172 3e3f 5528 05ac 7a7d 863f
000004f0: a4fd 1b0c e34e 6ebf 6a91 b7b1 6b92 733f
00000500: 67d4 09f2 d2b7 8cbf 8155 955f b1d9 a03f
00000510: f4a3 3b2d 191d 9dbf d250 6595 70e6 a3bf
00000520: 05de e2b9 de03 7e3f e8e1 154b d17f 6fbf
00000530: 4b46 9090 2098 593f 4033 0aa5 9456 9d3f
00000540: 7819 e139 d356 7cbf c05a 23f9 ab7b 963f
00000550: 51ab acfd 15f1 80bf a911 7f1b cea6 933f
00000560: c00c 2901 0dee 8fbf 9485 d8f0 d716 99bf
00000570: 8300 7a31 d00b 6d3f 6eef 9fae 0bbc 68bf
00000580: 8f80 cf95 e2db 6f3f 7a51 e2ea 35da 8e3f
00000590: 266c 26ad ba9f 75bf 523a c4d6 c2df 8b3f
000005a0: 7828 3cbb 40db 57bf 6fa2 8811 0ec7 703f
000005b0: 7131 4871 3537 6cbf 0402 2c73 bcdc 75bf
000005c0: eb1d 83ec ab0d 4f3f 2ec6 87fe fc83 54bf
000005d0: 5ef5 a27c 43a9 593f 2387 a02a 5a38 733f
000005e0: 661c e590 d4a9 60bf 8d45 45d7 fd40 713f
000005f0: f8e6 b34a 97ee 7cbf e605 3299 717a 923f
00000600: 32ab 29b2 58c9 8bbf fb68 75ee c0b0 96bf
00000610: ff63 106e 1f19 603f 6407 9d8b 4909 483f
00000620: c68a 144e 4d4c 1cbf 87ba 2363 9e43 913f
00000630: 3bf6 fb4a 971a 79bf 5ced 9ccc 19a9 843f
00000640: 28ce 95d1 908f 54bf f2a3 64c9 ec3f 7c3f
00000650: e74a 23d5 63e9 68bf a69c b7ff a2b3 7bbf
00000660: f39d af37 1f46 5b3f feb5 66fd 9d1f 4d3f
00000670: cd25 d8ec 75bb 4a3f 9dbd 7895 75cf 7a3f
00000680: ab9d 2482 902a 63bf fc29 bd8d 823d 603f
00000690: 5a51 83c7 c3c8 8abf e1aa 9f96 b021 9c3f
000006a0: 2a56 dcfe 68cc 96bf e488 6887 2b6e a1bf
000006b0: 302e 46a2 4856 7e3f c40c 144d 05c0 343f
000006c0: ce71 4455 5610 573f 7562 a99d 46b5 9a3f
000006d0: 235b a595 1b8b 7ebf ae99 acc1 fe06 913f
000006e0: 20bc b6da 0f07 68bf c494 c130 ac58 803f
000006f0: 9118 8bb3 d3c5 78bf 3215 8365 792d 84bf
00000700: 4893 be3d 2952 5b3f a70a 98bc 29ba 4cbf
00000710: a088 c2f2 44ea 633f 923a ad44 472c 7d3f
00000720: 7ae7 a44d 179d 67bf e53b 813b d708 733f
00000730: d2e2 52c9 b729 72bf d936 0e1b 7090 843f
00000740: a760 5176 455e 81bf ffad ef08 86d1 8abf
00000750: 044e 50ca e3ff 643f a4e8 2f3e 6c75 653f
00000760: 652f f15f 6398 f5be 0686 f48b 4754 843f
00000770: a9fe f5d6 a46b 69bf b95c dc7d fc76 733f
00000780: 975a c491 9626 8fbf a492 f65b dd9a 9e3f
00000790: 7cd0 3112 e46e 92bf 2629 a1a0 adcf a2bf
000007a0: 9710 9f90 5f84 7c3f 1d9f 00eb 0eb5 83bf
000007b0: a48f 8f20 98eb 663f aeef 04a2 ff4c 9b3f
000007c0: ee22 8433 d01a 84bf 1ac1 cf96 646a 963f
000007d0: ee2a 4715 2593 82bf 41a1 78a0 3247 913f
000007e0: 0c72 b6f5 5ffb 84bf 3937 dc1f 9a05 96bf
000007f0: c550 aed1 633f 693f 4add ffbf 5705 77bf

biases f8 [10]
0.020468210392071782 -0.03697790849086839 0.03521964168432878 0.04884865650513819 -0.0041003931438760195 -0.006654491751253928 -0.003608922013856783 -0.029487931626861984
0.002880652034867803 -0.026587513589689464
00000000: d964 f758 9ef5 943f e617 49b7 c4ee a2bf
00000010: 2f0c 6c12 4f08 a23f 3745 49ec b002 a93f
00000020: 9450 42e7 92cb 70bf 3b17 1787 bd41 7bbf
00000030: 2d1d bf40 7590 6dbf 9331 db97 1532 9ebf
00000040: 663d fd48 2a99 673f 5e10 66d5 c139 9bbf
