Quadrant/weights/epoch150000loss0.7436685562133789.pt (torch, 4959 bytes, 6 tensors)

weight f4 [10, 2]
00000000: bbe1 ab3e fccf db3e f2f7 3b3e 6c26 363f
00000010: 9f48 263f 4f4a 2bbd ae57 223f b019 333e
00000020: ef27 05bf ff96 5fbf 6a0a 1fbf 37e2 90be
00000030: e8f9 5ebf 7fa7 903e 2ed8 253f a091 a73b
00000040: e8c7 5ebf a6f8 3c3c 8830 f73e 8eff 41bf
0.33570656 0.42932117 0.18356302 0.7115238 0.6495456 -0.041818913 0.6341504 0.17490268
-0.5201406 -0.87339777 -0.62125266 -0.28297588 -0.87100077 0.2825279 0.6478299 0.0051137954
-0.8702378 0.011533892 0.48279214 -0.7578057

bias f4 [10]
00000000: 783b 263f 3a05 0a3f fdc3 a53e d570 563e
00000010: ef06 ae3d a7be c83e a06d 99bd 651c 143e
00000020: 5759 423f ea90 d03e
0.6493449 0.53914225 0.3237609 0.2094148 0.08497416 0.39207956 -0.074916124 0.14463957
0.7591757 0.4073556

weight f4 [20, 10]
00000000: 3d97 82bd 77c9 a6be 2037 e83e aeca 37bc
00000010: e8d3 ac3b 98fc 2bbe 47ea 7abe 0488 7f3e
00000020: 315d a7be 1016 e23e 2c98 403e ecf8 b93e
00000030: 915e 663e b3dc 9c3e 5c69 d53e 3a2f b93e
00000040: bcff 9ebe bd1c 373e 27d0 34bc d86b f0be
00000050: 88de 81be 69ee 08bd 66fa 72be f832 90bd
00000060: af02 48be e21e 2abe 7ee9 d53d 47b9 20be
00000070: 7f7b 113e ecb8 1d3e 46e0 29be 0051 ce3b
00000080: 508a f5bc b09d 31bd e0c5 29bd 306f 863d
00000090: 3f11 16be 9698 303e b531 26be 7dbe 16be
000000a0: 6efd 28be ee95 d8bd 401e 183e 30e4 1e3e
000000b0: ca6b dabd ac1e e1bd 1980 0abe ec2b 00be
000000c0: 444c 8e3d 94fa 69be 37bf b83d 16f6 0dbe
000000d0: 78f8 843d 93c0 2d3d 1990 44be d51c 0fbe
000000e0: 0cd3 5a3e 4196 e3bc 82e5 883e dc01 673e
000000f0: 45f5 0e3e 6aba 063f 9613 ab3e efa6 8ebd
00000100: 35f7 ccbe 1f14 1abe 03f2 d13e eab7 f23d
00000110: 9866 323e a5f6 0a3e b522 ca3d d2c6 823c
00000120: bdf8 0ebd 8e05 dabd 2611 493e fa5d ad3e
00000130: 090a df3e 2744 74be 12dc df3e b1d1 8bbc
00000140: 2875 4c3d 44c6 89bd 02e5 9e3c 10b9 b83d
00000150: d78f 183e a9f3 a6bd 585a b9bd 0186 91be
00000160: f3dd 6fbe e786 60bd 08b2 7ebe aaf1 923e
00000170: d7d8 32bd 1c14 2cbe 90c3 a73e e59f adbd
00000180: adfd 4ebe 5eac bdbd 02f5 34be 38a5 973e
00000190: 2883 29be 1e1e 42be a3b9 22be 177e 65be
000001a0: c17a 2dbb 8878 04bd 7624 7f3d dca6 62bd
000001b0: 2229 46be 16a6 983d 0b75 b2be 0b6f 263d
000001c0: f1a6 353e fed2 c7bd 330a a33e 6d30 163e
000001d0: 3dd5 8dbd 5e32 303e 37b2 833d e1cf 423e
000001e0: 25fa 8ebe bb10 90be 0bb0 9c3e 8eff 2f3e
000001f0: 837b 043e 43fe 143e 8b13 e4bd 0422 4fbe
00000200: 2024 643e 9d56 f13e 67b6 033e 1777 483d
00000210: 7a75 cf3e 2486 8f3e 7b9d 03bd c8f3 15be
00000220: ac6c b2be 16fe 133e c3ae f43d cf05 8f3d
00000230: d528 1a3d 6dd0 533e c396 86be 956d 73bd
00000240: d0b8 5cbd ea44 88be 9d01 debd 8ae7 123d
00000250: ecfb 5ebe 1a21 973c 9b9f 243d 7a10 103e
00000260: 9f96 603e fb43 583e 9f40 d33e 9970 0b3e
00000270: 571c d93d 3632 053d 9e73 623d 5191 a0be
00000280: 1aa9 8cbd c0aa 703e 0c9d 5a3e 9e89 ecbd
00000290: b66c dd3d 456f 293d d015 ed3d c460 f9bb
000002a0: f004 f03e 522b 0bbe e75e 9d3d 3bc8 a03c
000002b0: 40ec 1bbe 4741 7e3e bd36 d0bc 0aae 983d
000002c0: 1235 6ebe b652 8ebe 5db6 d73d bc9a 293e
000002d0: e2e6 54be 84f3 e43d 3595 89be 54be 69be
000002e0: c24c 53be 0081 d83d f88c bf3d 0c15 31be
000002f0: 97a6 6cbe f01f 6bbd 8fa4 393e 0afd 6a3e
00000300: b498 79be ead6 9c3c b652 bdbe ea40 a03b
00000310: b00f aa3e 4a17 97be 96a2 323e 531b 9cbe
-0.06376503 -0.3257558 0.45354557 -0.011217756 0.0052742846 -0.16795576 -0.24503432 0.2495423
-0.32688287 0.44157457 0.18808049 0.36322725 0.22497012 0.3063713 0.41681945 0.36168844
-0.31054485 0.17882057 -0.0110359555 -0.46957278 -0.2536509 -0.03343049 -0.23728332 -0.070409715
-0.19532274 -0.16613343 0.10444926 -0.15695678 0.14207266 0.15402573 -0.1658946 0.006296277
-0.02997318 -0.043363273 -0.041448474 0.06564176 -0.14655016 0.17245707 -0.16229899 -0.14721103
-0.16502926 -0.10575472 0.1485529 0.15516734 -0.106650904 -0.10992178 -0.13525428 -0.12516755
0.0694814 -0.22849494 0.09020846 -0.13863406 0.06492704 0.04241998 -0.19195594 -0.13975842
0.2136957 -0.027781608 0.267376 0.22559303 0.1396075 0.52628195 0.3341338 -0.06965434
-0.40032354 -0.15046738 0.41004953 0.11851485 0.17421949 0.1357065 0.09869901 0.015963946
-0.034905184 -0.10645591 0.19635448 0.3386076 0.43562344 -0.23854123 0.43722588 -0.017067762
0.049916416 -0.06727269 0.019396309 0.09019673 0.1489862 -0.08151943 -0.09050435 -0.2842255
-0.2342451 -0.054816153 -0.24872601 0.287 -0.043663826 -0.16804546 0.3276639 -0.08477763
-0.20213957 -0.09261392 -0.17671588 0.2961824 -0.16553938 -0.18956801 -0.15891127 -0.2241138
-0.0026470872 -0.03234151 0.06229063 -0.05533491 -0.19351628 0.074535534 -0.34854922 0.040633243
0.17739464 -0.097570404 0.3184372 0.1466691 -0.069254376 0.17206714 0.06430476 0.19024612
-0.2792522 -0.28137764 0.3060306 0.1718733 0.12937741 0.14550118 -0.1113654 -0.2022782
0.22279406 0.47136393 0.1286255 0.048941698 0.40519315 0.2803203 -0.032132607 -0.14643776
-0.34848535 0.14452395 0.11947396 0.0698353 0.037636597 0.20684977 -0.26286897 -0.059430677
-0.05388719 -0.26615077 -0.108401515 0.035865344 -0.21775788 0.018448401 0.040191274 0.14068785
0.21932457 0.21119682 0.4126024 0.13617171 0.106011085 0.032518588 0.055286042 -0.31360868
-0.06868191 0.23502636 0.21348971 -0.11549686 0.108117506 0.04136588 0.11576426 -0.0076104123
0.46878767 -0.13590744 0.07684117 0.019626727 -0.15226841 0.24829589 -0.025416726 0.0745507
-0.23262432 -0.27797478 0.1053283 0.16562933 -0.207912 0.111792594 -0.26871648 -0.2282651
-0.2063475 0.1057148 0.093530595 -0.17293185 -0.23110424 -0.057403505 0.1812918 0.22948089
-0.24374658 0.019145448 -0.36977166 0.004890551 0.33215094 -0.29509956 0.17444834 -0.30489597

bias f4 [20]
00000000: 8f09 a73e a009 a7bd beb1 773e 927d 1fbe
00000010: 5a5e 84be 5130 8ebc fd89 0c3e 7f8d 6e3d
00000020: 1af8 52be 782c 783e fa44 99be 9a5d ac3d
00000030: f1f9 a53c ba76 5f3e 6d72 15bd 4d17 7cbe
00000040: 8fdc bbbd f9fa 19be c496 103e 0df7 b8bb
0.3262448 -0.08156133 0.24188897 -0.15575245 -0.25853235 -0.017357023 0.13724513 0.05824041
-0.20602456 0.24235713 -0.29935437 0.084162906 0.020260783 0.21822634 -0.036486078 -0.24618264
-0.091729276 -0.15037145 0.14120013 -0.005644685

weight f4 [4, 20]
00000000: 4a1d 57bd 5c07 043f 015d 42be 2813 b9bc
00000010: e48f b83d d379 98be ff04 8d3e 4468 aabe
00000020: 1180 1abd d0b0 5cbc 7da9 aebc 86ac 66be
00000030: 0a8a b0be 7296 9b3e a237 873e 14c9 e13d
00000040: 05f9 ccbd a3cf d13d a0c3 50be 08c6 eb3d
00000050: aecc 48be 4f4d 93be 40d7 17bd 2844 14be
00000060: e8fb b6bd 34a6 f73d c288 d73e 3d5a a83e
00000070: 8465 33be 91ea 86be db0c 51bd f1d5 5cbe
00000080: ed9b 94be 8783 a7be 76b6 0dbe cfb1 42be
00000090: a56a bd3e 701b dd3a ee1b 8cbd 51c0 f73e
000000a0: 6549 9ebe 4779 633e a900 9cbd 00df 653d
000000b0: bb20 28be d10b 62be a67f 05bf dc4c e93e
000000c0: c155 19be 5ac2 933d 5e6f e9bb 5a26 643e
000000d0: d9d2 a03d cde1 21be 0c95 343e 3387 2d3e
000000e0: dc40 203e 0a87 2a3e dc68 cc3d b540 84be
000000f0: 7499 1f3f 9158 adbe ab29 dc3d a0bc 87bd
00000100: 968b 3c3e e65b b23d 1e2f a4bc f30a 00be
00000110: 2cda 1cbe 043e 6f3d 872b 013e c43e 123e
00000120: b794 4a3e f4d5 033e ee8a 453e 807f afbe
00000130: 7244 91be f78a 86bd a82c 9a3d f446 37bd
-0.052518167 0.5157373 -0.1898079 -0.022592142 0.0901182 -0.29780445 0.27542874 -0.33282673
-0.03771979 -0.01346989 -0.021321053 -0.2252675 -0.34480315 0.30388218 0.26409632 0.11024681
-0.10008434 0.10244682 -0.20387125 0.11512381 -0.19609329 -0.2876992 -0.037070513 -0.14479125
-0.08934766 0.120922476 0.42096525 0.32881346 -0.17519194 -0.26350835 -0.05103765 -0.21565987
-0.29025212 -0.32717535 -0.13839135 -0.19013141 0.36995426 0.0016869139 -0.06841265 0.48388913
-0.3091537 0.22214232 -0.076173134 0.056120872 -0.16418736 -0.2207482 -0.521479 0.45566452
-0.14974119 0.07214804 -0.0071238717 0.22280255 0.07852716 -0.15808792 0.17634982 0.16946106
0.15649742 0.16653076 0.09980938 -0.25830618 0.62343526 -0.33856633 0.10750135 -0.06627774
0.18412623 0.087089345 -0.020041998 -0.12504177 -0.15317601 0.058408752 0.1261426 0.14281756
0.19783293 0.12874585 0.19291279 -0.34276962 -0.28372532 -0.06569474 0.07528049 -0.0447454

bias f4 [4]
00000000: 149b cabd 7d33 0dbe 97be 54bc 996f 8bbd
-0.0989286 -0.13789172 -0.012984893 -0.06808395
