Quadrant/weights/epoch1000loss0.0.pt (torch, 3151 bytes, 4 tensors)

weight f4 [12, 2]
00000000: c2bc 56be d6f5 a9bd e269 bc3e 0b69 dc3b
00000010: d2a5 a6bc d404 d4be b614 33bf 69c5 523e
00000020: 7eda dd3e a3ba 49bf fe9c 98be 17a4 e43e
00000030: bf4d 5cbf d6dd 373e 9b4c 3c3f a872 10bc
00000040: 6445 243f 7fdf 4abf fdae 453f ea2f 8e3d
00000050: 8a1f aabe 905b 0cbf ab49 14be 18c0 dd3e
-0.20970443 -0.082988426 0.36799532 0.0067263893 -0.020342741 -0.41409934 -0.6995348 0.20583118
0.4333076 -0.7880041 -0.29807276 0.4465644 -0.8605613 0.17955717 0.7355439 -0.008816399
0.6416838 -0.7924728 0.77220136 0.06942733 -0.33227187 -0.54827213 -0.14481227 0.43310618

bias f4 [12]
00000000: 524a 923e b2a9 87be 705e c13e 0964 ab3e
00000010: d283 8c3e f6ec 043e f637 8abe 36be 173f
00000020: 0a64 033e 7adb ad3e 1c64 5f3e 0796 1dbf
0.28572327 -0.26496655 0.37767363 0.33474758 0.2744432 0.12981018 -0.2699582 0.59274614
0.1283113 0.3395651 0.21815532 -0.6155705

weight f4 [4, 12]
00000000: 8ca1 583d 2aaf 943e 4363 9bbe 6cf8 203c
00000010: 5cbc 38be de48 573e e7de 82be d712 5a3d
00000020: 6b54 80be b9d3 783e 8e2e aebc 3eca 443e
00000030: 018e 933a bb93 3ebe 2601 b4be db76 723e
00000040: bfcf 11bd fb72 983e 1681 49bd 2259 ecbe
00000050: 5bbf aabd 586d 5bbe c61f b5be 2b59 763d
00000060: 89d4 6bbd a283 c13d 6fca 5b3e 5212 443e
00000070: 2b01 153d 62e3 cfbd 5d70 d73c c8d5 9fbe
00000080: f2c7 00bd a653 53be 7b85 a23d b793 a4be
00000090: d3f2 01be 9f40 07be b39b 7a3e 171d c73d
000000a0: 3c92 f43d 518d 8ebe d740 c8be e166 573e
000000b0: f5d1 f23d 21bf 7dbe 37a9 9dbe 14c0 fa3c
0.052888438 0.2903989 -0.30349168 0.009824853 -0.18040603 0.2102389 -0.25560686 0.053240623
-0.25064406 0.24299516 -0.021262433 0.19217774 0.001125753 -0.18611042 -0.35157126 0.23678152
-0.035598513 0.29775223 -0.04919537 -0.46161753 -0.083372794 -0.2142843 -0.35375804 0.06014363
-0.057575736 0.09448935 0.21463941 0.19147614 0.036378067 -0.10150792 0.026298696 -0.3121779
-0.031440683 -0.20637378 0.07935616 -0.32143947 -0.12690286 -0.13208245 0.24473457 0.09722345
0.119419545 -0.2784219 -0.3911197 0.21035339 0.118564524 -0.24779941 -0.30793163 0.030609168

bias f4 [4]
00000000: 5a17 ecbd 33f5 203e c83f 3c3e 8d66 45be
-0.115278915 0.15718536 0.18383706 -0.19277401
