Quadrant/weights/epoch166000loss0.8168821334838867.pt (torch, 4959 bytes, 6 tensors)

weight f4 [10, 2]
00000000: 1b3e ac3e 765d df3e eafc 3c3e d557 393f
00000010: c5f1 273f e1ca 12bd 689b 233f 861c 373e
00000020: 4d7e 06bf 7b91 63bf ba77 20bf 94c1 94be
00000030: ed1c 61bf 6f69 983e 13e6 263f 776f 9d3b
00000040: 511a 61bf bcd0 d53b 7dde f93e 7277 45bf
0.33641133 0.43625993 0.18455854 0.72399646 0.65603286 -0.03583801 0.63909006 0.17881975
-0.5253647 -0.8889386 -0.6268269 -0.29053938 -0.8793476 0.2976794 0.65194815 0.0048045474
-0.8793078 0.006525127 0.48802558 -0.77135384

bias f4 [10]
00000000: 2859 263f 6db5 0a3f 9495 a73e 300e 573e
00000010: c145 b23d e827 c93e effb 95bd afc9 173e
00000020: d333 433f ed0d d13e
0.6497979 0.54183084 0.32731307 0.21001506 0.08704711 0.3928826 -0.07323443 0.1482303
0.7625095 0.40830937

weight f4 [20, 10]
00000000: 0193 86bd 84be a8be 9be5 ea3e 7176 3bbc
00000010: 83fe 383b 6ffd 2fbe 2afb 7abe aa85 813e
00000020: e6df a9be 2a0f e73e a385 473e 6890 bd3e
00000030: 4311 683e 7e7b a03e f14d d93e 4f50 bb3e
00000040: 8b61 a2be 8278 3a3e 70b5 44bc f985 f3be
00000050: cec4 81be 9e8a 07bd b6f7 72be e428 90bd
00000060: 394d 48be 2b10 2abe fb26 d73d 08b7 20be
00000070: 10eb 113e 2fa4 1d3e 46e0 29be 0051 ce3b
00000080: 508a f5bc b09d 31bd e0c5 29bd 306f 863d
00000090: 3f11 16be 9698 303e b531 26be 7dbe 16be
000000a0: 6efd 28be ee95 d8bd 401e 183e 30e4 1e3e
000000b0: ca6b dabd ac1e e1bd 1980 0abe ec2b 00be
000000c0: 444c 8e3d 94fa 69be 5cca b83d 5fae 0cbe
000000d0: a220 853d 9ba3 273d 2433 45be dfaf 0fbe
000000e0: 4c4f 5f3e ab1d e9bc 67c1 893e 0f1c 6d3e
000000f0: 346c 133e 9a8b 083f 8994 ab3e b5ec 8abd
00000100: d230 d1be 943a 1cbe ba0b d53e 5e98 f43d
00000110: ad2b 353e c66b 093e 01d3 c83d 3928 853c
00000120: 699d 1dbd 8eac debd 70ff 4e3e 0811 b03e
00000130: 4851 e13e 95a7 77be c271 e43e 0aa0 92bc
00000140: 2875 4c3d 44c6 89bd 6fd3 9e3c 10b9 b83d
00000150: aa8d 183e b7f2 a6bd 585a b9bd bb86 91be
00000160: 31dc 6fbe 019a 60bd c785 7dbe 0580 933e
00000170: 04e9 2ebd 22c4 2abe a399 a83e 2d64 abbd
00000180: 8823 4fbe 1c7d bbbd 0082 34be 6263 983e
00000190: 2883 29be 1e1e 42be ea83 22be 177e 65be
000001a0: 4571 fbba 12ca 03bd 7624 7f3d 4d2c 62bd
000001b0: ab42 46be 4d6a 9a3d 5e3a b3be e300 1b3d
000001c0: 4075 353e 8160 c9bd b29b a63e e55b 193e
000001d0: 1ab1 90bd 32d4 2f3e d8f9 863d 58bc 463e
000001e0: 27dd 8fbe 70cc 91be 8f44 9d3e b658 2f3e
000001f0: a30c 0a3e 5dd4 163e 6796 e6bd ad91 4ebe
00000200: de75 643e f368 f43e 44ae 073e 8086 563d
00000210: c6d0 d13e 1502 923e f161 06bd 4d5d 17be
00000220: e319 b4be 80b6 183e 212c eb3d feb8 913d
00000230: d73c 1e3d 416b 543e 1711 86be c3b4 6cbd
00000240: d0b8 5cbd 6a45 88be affe e1bd f740 183d
00000250: adb4 60be 6a2d 973c de27 313d 501c 133e
00000260: ca76 603e f37c 5b3e d69c d63e 1cb7 0f3e
00000270: 5d53 d33d bda5 083d e6c7 6a3d f205 a2be
00000280: 6c18 8abd 13d2 723e 0d07 5a3e 27d0 ebbd
00000290: 969d de3d c719 333d 8eb9 f63d d1a7 03bc
000002a0: 7147 f33e 7db5 0abe 8948 9e3d 5228 a53c
000002b0: 1ec9 1cbe 9993 7e3e 6ae6 c4bc b99b 9b3d
000002c0: 4243 6ebe 1e8d 8ebe 0ea8 da3d a6f7 283e
000002d0: e2e6 54be 84f3 e43d 3595 89be 54be 69be
000002e0: c24c 53be 0081 d83d f88c bf3d 0c15 31be
000002f0: 97a6 6cbe f01f 6bbd 4e26 3b3e 9b85 6e3e
00000300: a516 7abe 3df3 963c 3cb7 c0be 147e 633b
00000310: 8952 ad3e 4d7e 97be 898b 363e 1e23 9cbe
-0.065710075 -0.32957852 0.458783 -0.011441813 0.0028227873 -0.17186521 -0.24509874 0.2529729
-0.33178633 0.45128757 0.19484572 0.37024236 0.22662835 0.31344217 0.42442277 0.36584708
-0.31715044 0.18210033 -0.012006149 -0.4756315 -0.25345463 -0.03309118 -0.23727307 -0.07039049
-0.19560708 -0.1660773 0.10505482 -0.15694821 0.14249825 0.15394662 -0.1658946 0.006296277
-0.02997318 -0.043363273 -0.041448474 0.06564176 -0.14655016 0.17245707 -0.16229899 -0.14721103
-0.16502926 -0.10575472 0.1485529 0.15516734 -0.106650904 -0.10992178 -0.13525428 -0.12516755
0.0694814 -0.22849494 0.09022972 -0.13738392 0.06500365 0.04092751 -0.1925779 -0.14031933
0.21807593 -0.02845653 0.26905367 0.23155235 0.14396745 0.53338015 0.3351176 -0.067834295
-0.4085756 -0.15256721 0.4161051 0.11943124 0.17692442 0.13420019 0.09805871 0.016254531
-0.038480196 -0.10872756 0.20214629 0.34387994 0.44007325 -0.24185021 0.4461804 -0.017898578
0.049916416 -0.06727269 0.019387929 0.09019673 0.1489779 -0.08151763 -0.09050435 -0.28423104
-0.2342384 -0.05483437 -0.24758063 0.2880861 -0.04270269 -0.16676381 0.32929716 -0.083687164
-0.20228398 -0.09154722 -0.17627716 0.29763323 -0.16553938 -0.18956801 -0.15870634 -0.2241138
-0.0019183537 -0.03217513 0.06229063 -0.05521803 -0.1936137 0.075398065 -0.35005468 0.037842643
0.17720509 -0.0983286 0.3254066 0.14976461 -0.070650294 0.1717079 0.06590623 0.19407785
-0.28098413 -0.28476286 0.3071637 0.17123684 0.13481383 0.14729448 -0.11259156 -0.20172758
0.22310588 0.4773632 0.13250071 0.052374363 0.40979594 0.28517213 -0.032808248 -0.14781685
-0.35176 0.14913368 0.11483026 0.071153626 0.03863224 0.20744039 -0.26184914 -0.057789575
-0.05388719 -0.2661546 -0.11034905 0.03717133 -0.21943922 0.018454272 0.04325091 0.14366269
0.21920314 0.21434383 0.4191653 0.14034694 0.10318635 0.033361185 0.057319544 -0.3164516
-0.06742939 0.2371295 0.21291752 -0.11514311 0.10869901 0.043725755 0.120471105 -0.008035616
0.47515443 -0.13545795 0.07728679 0.020160828 -0.15311095 0.24860992 -0.024035651 0.07598061
-0.23267844 -0.2784204 0.10676585 0.1650072 -0.207912 0.111792594 -0.26871648 -0.2282651
-0.2063475 0.1057148 0.093530595 -0.17293185 -0.23110424 -0.057403505 0.18276331 0.23293154
-0.244227 0.018426532 -0.37639797 0.00347126 0.33852032 -0.29588547 0.17826666 -0.30495542

bias f4 [20]
00000000: 9ba0 a73e 9b94 a4bd b0c3 773e 927d 1fbe
00000010: 5a5e 84be 578f 87bc d7ad 0d3e a56e 743d
00000020: 99f8 52be ee22 793e c53a 99be 8720 af3d
00000030: d4e4 b23c 9b63 603e d080 14bd 8eca 7abe
00000040: 199b b9bd d4a8 19be c496 103e 6f44 9cbb
0.3273972 -0.08036157 0.24195743 -0.15575245 -0.25853235 -0.016547842 0.13835846 0.05967583
-0.20602645 0.24329731 -0.2992765 0.08551126 0.02183763 0.21912996 -0.036255658 -0.24491331
-0.09062786 -0.15005809 0.14120013 -0.0047689

weight f4 [4, 20]
00000000: 2e3a 67bd c7cd 073f 46a9 42be 2813 b9bc
00000010: e48f b83d 7469 9abe 4d0c 903e 2b6b aebe
00000020: 8d81 1abd 50fa 6dbc 7da9 aebc 89c6 6abe
00000030: 4e1d b4be e22d a03e b9ec 873e 39cc eb3d
00000040: 01ee d0bd b27d d23d a0c3 50be c154 e53d
00000050: 123f 4bbe d6e0 98be f7b6 0cbd 2844 14be
00000060: e8fb b6bd 4616 013e 6056 dc3e 4b04 ab3e
00000070: 8465 33be 93ee 87be db0c 51bd 6bbf 62be
00000080: 0520 97be 4784 aabe 76ad 0ebe 3d59 47be
00000090: d84b bf3e 89c8 7f3a ee1b 8cbd 4b4e fd3e
000000a0: 8b0e a2be 6d44 6b3e 168d a0bd 00df 653d
000000b0: bb20 28be 1598 65be 5b2d 08bf 9792 ee3e
000000c0: e560 19be 8bbe 953d 58df ecbb f933 6b3e
000000d0: ba92 ab3d d1ea 26be d151 343e 3a34 343e
000000e0: 7150 243e d685 2c3e dc68 cc3d 9183 87be
000000f0: d61a 233f 5d34 b3be 6dbf db3d a0bc 87bd
00000100: 968b 3c3e 3db2 b63d 6d9a cbbc 84e1 07be
00000110: 80ce 1cbe 7dbd 773d 1047 013e 7136 153e
00000120: 5d66 513e 22b4 053e 545b 453e 4f01 b3be
00000130: 512e 94be abc0 89bd a82c 9a3d e9b8 3cbd
-0.05645197 0.53048366 -0.19009885 -0.022592142 0.0901182 -0.3015858 0.28134385 -0.34066138
-0.037721206 -0.014525011 -0.021321053 -0.22927298 -0.35178608 0.31285006 0.26547793 0.11513562
-0.10201646 0.10277881 -0.20387125 0.11197806 -0.19848278 -0.29859036 -0.034354176 -0.14479125
-0.08934766 0.12606153 0.4303465 0.33401713 -0.17519194 -0.26549205 -0.05103765 -0.22143333
-0.29516616 -0.33304045 -0.13933358 -0.19467635 0.37362552 0.000975736 -0.06841265 0.49473795
-0.3165172 0.22975321 -0.0783941 0.056120872 -0.16418736 -0.22421296 -0.53194207 0.46596214
-0.14978369 0.07311734 -0.007228773 0.22969045 0.08377595 -0.16300513 0.17609335 0.17598048
0.16046311 0.1684793 0.09980938 -0.26467565 0.63712823 -0.35000888 0.10729871 -0.06627774
0.18412623 0.08920715 -0.02485391 -0.13269621 -0.15313148 0.060483444 0.12624764 0.14571549
0.20449205 0.13056996 0.1927312 -0.34961936 -0.28941587 -0.067262016 0.07528049 -0.04607478

bias f4 [4]
00000000: d16d c9bd 764d 0ebe a87a 48bc a5ee 8bbd
-0.09835399 -0.13896737 -0.012236275 -0.06832627
