Quadrant/weights/epoch100000loss0.7470042109489441.pt (torch, 4959 bytes, 6 tensors)

weight f4 [10, 2]
000000 9d 55 ab 3e b0 c1 cd 3e 70 e4 3b 3e a9 33 2a 3f
       0.33463755 0.40186834 0.1834886 0.6648508
000010 00 77 1f 3f b3 86 61 bd b3 96 1d 3f 2c 00 21 3e
       0.62290955 -0.0550601 0.61558074 0.15722722
000020 f1 2c 00 bf ed e8 50 bf 83 03 1a bf a8 9d 82 be
       -0.50068575 -0.81605417 -0.6016161 -0.25510907
000030 18 c1 56 bf ed d8 62 3e b2 f9 21 3f b9 13 81 bc
       -0.8388839 0.22153063 0.6327163 -0.015756475
000040 96 35 56 bf f3 cd eb 3c 23 ac eb 3e 0d 6f 34 bf
       -0.83675516 0.028784728 0.46029767 -0.7048195

bias f4 [10]
000000 72 ce 25 3f d9 91 07 3f 03 60 9f 3e 06 10 54 3e
       0.64768136 0.5295692 0.3112794 0.20709237
000010 42 1d a4 3d fd f7 c7 3e b2 6f ac bd 72 61 07 3e
       0.08013393 0.39056388 -0.08419742 0.13220766
000020 9d ba 3e 3f 49 64 ce 3e
       0.745035 0.40310887

weight f4 [20, 10]
000000 d8 f9 6e bd b8 36 a0 be 3b b9 dc 3e df 16 5b bc
       -0.05834374 -0.31291747 0.4311007 -0.013372152
000010 73 19 33 3c 66 52 1e be 86 9b 7a be dc ff 6e 3e
       0.010931361 -0.1546112 -0.2447339 0.2333979
000020 c7 dd 9e be a6 55 cd 3e 3c 95 25 3e af c8 ab 3e
       -0.31028578 0.40104407 0.1617021 0.33551547
000030 d6 ac 61 3e 78 3e 8f 3e 0c e1 c7 3e 23 1a b2 3e
       0.22038588 0.27977347 0.39038885 0.34785566
000040 32 d3 92 be 0a 73 2c 3e bf 92 8a bb 03 16 e4 be
       -0.28676754 0.16840759 -0.0042289193 -0.44548044
000050 9f 38 82 be 91 cb 0d bd f2 00 73 be 0b 4f 90 bd
       -0.25433823 -0.034617964 -0.2373083 -0.07046326
000060 07 7a 47 be 7b a3 2a be 25 84 d1 3d fb bf 20 be
       -0.19480143 -0.16663925 0.10230283 -0.15698235
000070 71 9f 0f 3e 68 f3 1d 3e 46 e0 29 be 00 51 ce 3b
       0.14025666 0.15424883 -0.1658946 0.006296277
000080 50 8a f5 bc b0 9d 31 bd e0 c5 29 bd 30 6f 86 3d
       -0.02997318 -0.043363273 -0.041448474 0.06564176
000090 3f 11 16 be 96 98 30 3e b5 31 26 be 7d be 16 be
       -0.14655016 0.17245707 -0.16229899 -0.14721103
0000a0 6e fd 28 be ee 95 d8 bd 40 1e 18 3e 30 e4 1e 3e
       -0.16502926 -0.10575472 0.1485529 0.15516734
0000b0 ca 6b da bd ac 1e e1 bd 19 80 0a be ec 2b 00 be
       -0.106650904 -0.10992178 -0.13525428 -0.12516755
0000c0 44 4c 8e 3d 94 fa 69 be fd a6 a3 3d e9 59 22 be
       0.0694814 -0.22849494 0.07990835 -0.1585461
0000d0 74 e1 81 3d c8 58 30 3d 8a ac 3e be d7 7d 0c be
       0.0634183 0.04305342 -0.18620506 -0.13719879
0000e0 de c2 46 3e fe bd de bc d9 1e 84 3e 77 1a 53 3e
       0.19410273 -0.027190205 0.25804785 0.20615564
0000f0 ef 58 fb 3d c3 48 ff 3e 62 2f a9 3e a0 40 9c bd
       0.12272822 0.498602 0.33043963 -0.07629514
000100 4f 5d bd be 84 af 13 be 42 47 c6 3e a6 90 eb 3d
       -0.3698525 -0.14422423 0.3872624 0.11502199
000110 8c 6b 24 3e fa 10 10 3e 29 e9 ce 3d 71 db 70 3c
       0.16056651 0.14068976 0.101030655 0.014700756
000120 02 eb bd bc bd 25 c8 bd 92 8e 33 3e 0e 53 a3 3e
       -0.02318335 -0.09772823 0.17534855 0.31899303
000130 93 de d5 3e ae c4 68 be d9 a2 ce 3e aa 4a 65 bc
       0.41771373 -0.22731277 0.40358618 -0.013994852
000140 28 75 4c 3d 44 c6 89 bd 7f 32 9f 3c 10 b9 b8 3d
       0.049916416 -0.06727269 0.019433258 0.09019673
000150 21 a0 18 3e 43 f2 a6 bd 58 5a b9 bd fc 82 91 be
       0.14904834 -0.081516765 -0.09050435 -0.28420246
000160 73 e4 6f be 54 1f 60 bd 4b 84 82 be 3a 49 8f 3e
       -0.2342699 -0.054717377 -0.25491557 0.27985555
000170 cf d2 3f bd 41 83 31 be 3b 46 a4 3e b7 ca b6 bd
       -0.046831902 -0.17335226 0.32084832 -0.089253835
000180 c7 ed 4f be 17 00 c5 bd 04 9f 37 be 7b cc 94 3e
       -0.20305549 -0.09619158 -0.17931753 0.29062256
000190 28 83 29 be 1e 1e 42 be 6c 61 23 be 17 7e 65 be
       -0.16553938 -0.18956801 -0.15955132 -0.2241138
0001a0 79 5d a8 bb b9 e1 06 bd 76 24 7f 3d d7 2e 64 bd
       -0.005138096 -0.03293011 0.06229063 -0.055708732
0001b0 1b e3 45 be 63 e1 92 3d 98 bb af be b7 96 50 3d
       -0.19324915 0.07171895 -0.3432281 0.050924983
0001c0 92 2c 35 3e a0 a2 c3 bd 70 2e 95 3e 10 8a 0a 3e
       0.17692783 -0.09552503 0.29136992 0.13529229
0001d0 b2 a4 84 bd 93 8d 30 3e c0 4f 73 3d 97 d3 32 3e
       -0.06476726 0.17241506 0.059402227 0.17463528
0001e0 50 4f 8c be 39 20 8a be 6c 65 99 3e cf 72 30 3e
       -0.2740426 -0.2697771 0.2996019 0.17231296
0001f0 76 e5 db 3d 34 f6 0d 3e 00 f6 db bd b0 68 53 be
       0.107371256 0.1386345 -0.1074028 -0.20645404
000200 6c 6b 63 3e b2 bf e4 3e 4c 04 e5 3d e3 39 09 3d
       0.22208947 0.44677502 0.1118246 0.03350247
000210 04 98 c6 3e 64 32 85 3e 90 6b fc bc 88 23 11 be
       0.38787854 0.26015007 -0.030813009 -0.1417371
000220 2e 49 ac be 99 ec 01 3e fd dd 0b 3e fb 9a 82 3d
       -0.33649582 0.12687911 0.136589 0.063772164
000230 0b 10 07 3d 70 6a 50 3e 5e 6f 88 be 66 04 88 bd
       0.032974284 0.20353103 -0.26647466 -0.06641464
000240 d0 b8 5c bd 3d 43 88 be 4b b9 ce bd 92 14 ff 3c
       -0.05388719 -0.266138 -0.100939356 0.031137738
000250 99 0d 58 be 35 fb 96 3c dc 66 e9 3c 79 3e 04 3e
       -0.21098937 0.018430332 0.02849143 0.12914456
000260 63 0c 62 3e cc 8f 4c 3e 3c 64 c7 3e c7 ad f8 3d
       0.22075038 0.19976729 0.3894366 0.121425204
000270 38 18 ed 3d 45 98 fa 3c 84 a9 4a 3d cd 57 9a be
       0.11576885 0.030590186 0.04947807 -0.30145112
000280 fc 8f 93 bd 97 a1 69 3e 24 e4 5c 3e 68 7d eb bd
       -0.07205197 0.22815548 0.21571404 -0.11498529
000290 33 92 da 3d 59 3e 04 3d 9d b0 c6 3d 66 69 b7 bb
       0.106724165 0.03228602 0.09701655 -0.0055972813
0002a0 f6 15 e3 3e b0 20 0d be 17 64 99 3d 0c 71 8d 3c
       0.44352692 -0.13782 0.07489794 0.017265819
0002b0 00 a5 18 be 6a ed 7c 3e 45 0a f5 bc c1 49 8e 3d
       -0.14906693 0.24699941 -0.029912123 0.06947661
0002c0 0b 03 6e be d8 5e 8d be 6a b3 cd 3d 5f 81 2c 3e
       -0.23243348 -0.27611423 0.10043986 0.16846226
0002d0 e2 e6 54 be 84 f3 e4 3d 35 95 89 be 54 be 69 be
       -0.207912 0.111792594 -0.26871648 -0.2282651
0002e0 c2 4c 53 be 00 81 d8 3d f8 8c bf 3d 0c 15 31 be
       -0.2063475 0.1057148 0.093530595 -0.17293185
0002f0 97 a6 6c be f0 1f 6b bd 40 ba 33 3e c6 17 5d 3e
       -0.23110424 -0.057403505 0.17551517 0.215911
000300 1a 42 78 be 29 98 b3 3c 89 8a b0 be c4 99 14 3c
       -0.24243966 0.021923142 -0.34480694 0.009069864
000310 24 ec 9d 3e 7a df 95 be 32 33 21 3e 34 03 9c be
       0.30844223 -0.29272062 0.15742186 -0.30471194

bias f4 [20]
000000 4f 67 a4 3e 8e 1f ad bd 4d 51 77 3e 92 7d 1f be
       0.32110068 -0.08453284 0.24152108 -0.15575245
000010 5a 5e 84 be d4 36 bf bc 5d a7 05 3e 56 ae 56 3d
       -0.25853235 -0.023341574 0.13052125 0.052412353
000020 91 f5 52 be e2 24 74 3e 0a 62 99 be 36 e4 a3 3d
       -0.20601489 0.23842195 -0.2995761 0.08002512
000030 6e 12 71 3c b6 c4 5b 3e 55 19 19 bd d9 f5 7f be
       0.014713867 0.21461758 -0.037377674 -0.24996127
000040 8b 10 c6 bd cc 24 1b be c4 96 10 3e 3e 12 32 bc
       -0.09671124 -0.15150756 0.14120013 -0.010868607

weight f4 [4, 20]
000000 6d 39 11 bd 94 b4 ea 3e c7 19 41 be 28 13 b9 bc
       -0.035455156 0.45840895 -0.1885749 -0.022592142
000010 e4 8f b8 3d fb 27 91 be 15 2d 81 3e d0 8a 9a be
       0.0901182 -0.28350815 0.25229707 -0.3018403
000020 99 75 1a bd 1c a8 08 bc 77 a9 ae bc 39 aa 55 be
       -0.037709806 -0.008340862 -0.021321042 -0.20865716
000030 e0 f6 a1 be 0e ad 8a 3e 69 17 84 3e 6f 85 bb 3d
       -0.31633663 0.27085155 0.2579911 0.0915631
000040 c9 76 bc bd f1 54 cd 3d a0 c3 50 be 26 f9 00 3e
       -0.09202344 0.10025967 -0.20387125 0.12595043
000050 3f fb 3d be 74 1c 7a be 0f 53 46 bd 28 44 14 be
       -0.18552874 -0.24424917 -0.048419055 -0.14479125
000060 e8 fb b6 bd 06 0d d0 3d 90 61 c5 3e 9b 01 9d 3e
       -0.08934766 0.10158734 0.38550997 0.30665287
000070 39 65 33 be 65 e5 82 be db 0c 51 bd 1f 29 46 be
       -0.17519082 -0.2556564 -0.05103765 -0.19351624
000080 03 1a 8b be 2b 4f 9b be f7 6f 09 be 40 8f 2f be
       -0.27168283 -0.30333838 -0.13421617 -0.1714449
000090 49 6c b5 3e b6 19 a9 3b ee 1b 8c bd 7f 7e e2 3e
       0.35434178 0.0051605357 -0.06841265 0.44237134
0000a0 b2 cf 8f be 1d 4d 47 3e b0 05 89 bd 00 df 65 3d
       -0.28088146 0.1946301 -0.06690538 0.056120872
0000b0 bb 20 28 be 0d 12 54 be e7 5d f5 be 61 4b d6 3e
       -0.16418736 -0.20710011 -0.47923204 0.41854385
0000c0 a7 3e 19 be a2 57 8d 3d ff d3 df bb be 00 4b 3e
       -0.14965306 0.0690148 -0.006830692 0.19824502
0000d0 94 db 77 3d fe ce 0d be a6 b6 35 3e 0a 57 14 3e
       0.06051214 -0.13848493 0.17745456 0.14486328
0000e0 5a 52 12 3e 9c a0 23 3e dc 68 cc 3d 47 f9 6e be
       0.14289227 0.15979236 0.09980938 -0.2333728
0000f0 aa 48 11 3f 01 30 98 be 79 e2 dd 3d a0 bc 87 bd
       0.567515 -0.29724124 0.10834212 -0.06627774
000100 96 8b 3c 3e b7 a9 a0 3d 14 50 76 bb 13 35 c6 bd
       0.18412623 0.078448705 -0.0037584351 -0.09678092
000110 bf f4 1c be bf d6 46 3d 97 de 00 3e 46 ae 03 3e
       -0.15327738 0.04854464 0.12584911 0.12859449
000120 ff d2 2c 3e ed 4a f2 3d a9 61 46 3e 63 ec a2 be
       0.16877364 0.11830697 0.19373192 -0.31820974
000130 f8 74 86 be e7 c6 76 bd a8 2c 9a 3d 8e bc 1f bd
       -0.26261115 -0.06024828 0.07528049 -0.03899818

bias f4 [4]
000000 c1 6f ce bd b8 61 0b be e1 73 57 bc f6 f0 8a bd
       -0.10079909 -0.13611495 -0.013150186 -0.06784241
