Quadrant/weights/epoch194000loss0.7542994618415833.pt (torch, 4959 bytes, 6 tensors)

weight f4 [10, 2]
00000000: d839 ad3e 91b9 e43e a323 3f3e 255e 3e3f
00000010: ea72 2a3f 5526 dbbc c5a7 253f 64cd 3e3e
00000020: c2e8 07bf 97ab 68bf 726f 22bf da1c 98be
00000030: 97e3 64bf ac43 a23e 7288 283f 7edc 9f3b
00000040: 1e02 65bf 94eb b83b 359b fd3e 6a7a 4cbf
0.33833194 0.44672826 0.18665938 0.74362403 0.66581595 -0.026751677 0.6470912 0.18633038
-0.53089535 -0.90886825 -0.634513 -0.29709512 -0.89409775 0.31692255 0.658332 0.0048785796
-0.89456356 0.0056433175 0.49532476 -0.7987429

bias f4 [10]
00000000: 7b72 263f 0eaa 0b3f 7b93 aa3e a8dd 573e
00000010: dace b63d 2a78 c93e 4afb 8fbd c2c5 1d3e
00000020: 8263 443f 6a01 d23e
0.65018433 0.5455636 0.33315644 0.21080649 0.089261726 0.3934949 -0.070303515 0.1540747
0.76714337 0.41016704

weight f4 [20, 10]
00000000: dcd3 8cbd 51cd abbe 3aed ee3e 4469 48bc
00000010: 6474 9b3b b537 34be 520f 7bbe fafc 833e
00000020: 8ddf adbe 3e4e f13e 1d05 533e 9cda c33e
00000030: d81a 6b3e c371 a63e 4a65 dd3e 4ab4 bd3e
00000040: b6dd a7be c603 403e 5277 6fbc cdd1 f9be
00000050: 7b9c 81be e861 05bd adf0 72be 3f18 90bd
00000060: fbbd 48be e2e6 29be 7951 d93d 1bb2 20be
00000070: 3db9 123e 3f8f 1d3e 46e0 29be 0051 ce3b
00000080: 508a f5bc b09d 31bd e0c5 29bd 306f 863d
00000090: 3f11 16be 9698 303e b531 26be 7dbe 16be
000000a0: 6efd 28be ee95 d8bd 401e 183e 30e4 1e3e
000000b0: ca6b dabd ac1e e1bd 1980 0abe ec2b 00be
000000c0: 444c 8e3d 94fa 69be 8536 b63d 12c6 0cbe
000000d0: d95d 843d 0fe4 1a3d 634b 46be 1950 10be
000000e0: 2e5c 663e 9d9f f4bc 4b61 8b3e 2f05 763e
000000f0: fba0 193e ce11 0b3f 3767 ac3e d27f 85bd
00000100: c756 d7be 2c62 1ebe 8b8a da3e b291 f73d
00000110: 361e 3b3e 5a2b 073e 0ad4 c43d d106 783c
00000120: b50f 36bd 73d3 e6bd 69e7 533e 275f b33e
00000130: 8e57 e43e a8f8 7cbe 9f63 eb3e 619a babc
00000140: 2875 4c3d 44c6 89bd 25b9 9e3c 10b9 b83d
00000150: dd84 183e 87f5 a6bd 585a b9bd 8b87 91be
00000160: d8d9 6fbe 4ac9 60bd db4d 7bbe 8ea2 943e
00000170: a0e3 27bd ff72 28be eec0 a93e e737 a8bd
00000180: 2436 4fbe 20c5 b7bd bdf7 33be d08a 993e
00000190: 2883 29be 1e1e 42be 2a16 22be 177e 65be
000001a0: 805a c736 c6c5 01bd 7624 7f3d 4941 61bd
000001b0: 5978 46be 64d4 9e3d a17c b4be db06 093d
000001c0: 2bcb 343e ed54 ccbd af7e ab3e 284c 1d3e
000001d0: ccf6 96bd 90fe 2e3e cff1 893d d9ed 4b3e
000001e0: c950 91be 428a 94be b0f5 9d3e 03f3 2d3e
000001f0: 5bbc 123e 8a3f 193e 73ff ebbd 8f12 4ebe
00000200: 3106 643e f94b f93e 4d7e 0e3e c015 713d
00000210: 8097 d53e d0ff 953e 765b 02bd cdd5 18be
00000220: 3a6f b6be f6fb 1f3e 9e21 dc3d 3dcb 993d
00000230: bcee 253d a10d 563e ae42 85be 47e4 61bd
00000240: d0b8 5cbd eb45 88be 907a e7bd f72c 203d
00000250: 9172 63be ef3e 973c 4033 463d de74 183e
00000260: a97f 603e 30df 603e 1cfe d93e feb8 143e
00000270: bb33 c93d e717 0f3d bdb8 743d 7da9 a5be
00000280: ae4f 87bd ab06 753e 8f33 593e e6bf eabd
00000290: e000 dc3d e564 3f3d 9f85 023e 6466 09bc
000002a0: 5b76 f83e b007 0cbe dfe2 9f3d 5b83 ad3c
000002b0: 2624 1ebe 9622 7f3e e45e bfbc 071a 9f3d
000002c0: 1241 6ebe 56e3 8ebe 9c32 df3d 9aaa 263e
000002d0: e2e6 54be 84f3 e43d 3595 89be 54be 69be
000002e0: c24c 53be 0081 d83d f88c bf3d 0c15 31be
000002f0: 97a6 6cbe f01f 6bbd cb95 3c3e 378b 723e
00000300: 59ff 7abe 49a7 8a3c f6aa c5be f383 0d3b
00000310: 41dc b23e 9329 98be affd 3d3e a030 9cbe
-0.068763465 -0.3355508 0.46665365 -0.0122321285 0.0047440995 -0.17599376 -0.24517563 0.25778943
-0.33959618 0.47130007 0.2060742 0.38252723 0.22959459 0.32508668 0.4324134 0.37051612
-0.3278634 0.1875144 -0.0146158505 -0.48792878 -0.25314698 -0.032564074 -0.23724623 -0.070358746
-0.19603722 -0.16591981 0.10611243 -0.15692942 0.14328475 0.15386675 -0.1658946 0.006296277
-0.02997318 -0.043363273 -0.041448474 0.06564176 -0.14655016 0.17245707 -0.16229899 -0.14721103
-0.16502926 -0.10575472 0.1485529 0.15516734 -0.106650904 -0.10992178 -0.13525428 -0.12516755
0.0694814 -0.22849494 0.088971175 -0.13747433 0.064632125 0.03781515 -0.19364695 -0.14093055
0.22496101 -0.029861266 0.27222666 0.24025415 0.15002815 0.5432404 0.33672497 -0.065185204
-0.42058393 -0.15467137 0.42683825 0.12088336 0.18273243 0.13200131 0.09610756 0.015138344
-0.044448573 -0.112707995 0.20693745 0.35033533 0.4459805 -0.2470423 0.45974442 -0.022778692
0.049916416 -0.06727269 0.019375393 0.09019673 0.14894433 -0.081522994 -0.09050435 -0.28423724
-0.23422945 -0.054879464 -0.24541418 0.2903027 -0.040988564 -0.16450118 0.33155006 -0.082137875
-0.20235497 -0.089731455 -0.17574973 0.29988718 -0.16553938 -0.18956801 -0.15828767 -0.2241138
5.9411977e-06 -0.031682752 0.06229063 -0.0549939 -0.19381846 0.07755354 -0.35251334 0.033453804
0.17655627 -0.09977136 0.3349509 0.15361083 -0.073712915 0.17089295 0.067355745 0.1991495
-0.28381947 -0.29011732 0.30851507 0.16987233 0.14329664 0.14965644 -0.115233324 -0.20124267
0.22267987 0.48690775 0.13915367 0.058858633 0.41717148 0.29296732 -0.031825505 -0.14925309
-0.35631734 0.15623459 0.107485995 0.07509468 0.040510878 0.20903637 -0.26027435 -0.055149343
-0.05388719 -0.26615843 -0.11302674 0.03910538 -0.22211672 0.018462626 0.04838872 0.14888331
0.21923698 0.2196014 0.42576683 0.14523694 0.0982432 0.034934904 0.059746493 -0.32355872
-0.066069946 0.23928325 0.21211074 -0.11462383 0.107423544 0.04672708 0.12746285 -0.008386228
0.48527798 -0.13674808 0.07806944 0.0211808 -0.15443477 0.24915537 -0.023360677 0.07768636
-0.2326701 -0.2790782 0.10898325 0.16276017 -0.207912 0.111792594 -0.26871648 -0.2282651
-0.2063475 0.1057148 0.093530595 -0.17293185 -0.23110424 -0.057403505 0.18416516 0.23685919
-0.2451147 0.01692547 -0.38606995 0.002159354 0.34933665 -0.2971922 0.18553804 -0.30505848

bias f4 [20]
00000000: d2c2 a83e 307a a2bd 30ee 773e 927d 1fbe
00000010: 5a5e 84be 0e83 7abc 2bb5 0f3e ff28 7c3d
00000020: b8f9 52be 99a5 7a3e 0824 99be 99aa b23d
00000030: 6040 c53c 46cc 613e 988f 13bd c02e 79be
00000040: 5b36 b6bd c343 19be c496 103e 9863 50bb
0.32961136 -0.07933462 0.24211955 -0.15575245 -0.25853235 -0.015290035 0.14033954 0.061562534
-0.20603073 0.24477233 -0.29910302 0.08723945 0.024078548 0.2205058 -0.036025614 -0.2433424
-0.08897086 -0.14967255 0.14120013 -0.0031797644

weight f4 [4, 20]
00000000: 2265 7dbd 4fcd 0d3f 6917 43be 2813 b9bc
00000010: e48f b83d 765b 9dbe 0549 953e 184b b4be
00000020: c582 1abd 8324 82bc 7da9 aebc 3fa2 70be
00000030: 5e4a b9be 0970 a73e cd27 893e 9ea0 fc3d
00000040: 3e41 d6bd cf9d d33d a0c3 50be 22c5 dc3d
00000050: 0dee 4ebe 08e2 a1be 9d0b f6bc 2844 14be
00000060: e8fb b6bd 53b4 093e eb08 e33e a604 b03e
00000070: 8465 33be 2c75 89be db0c 51bd b425 6bbe
00000080: 4e9f 9abe ee3c afbe 3993 10be 6d6b 4ebe
00000090: ba8b c23e e422 0eb9 ee1b 8cbd f7c7 023f
000000a0: 2229 a9be f47b 763e b7f6 a7bd 00df 653d
000000b0: bb20 28be 78a6 6bbe 6d4e 0cbf 0a69 f43e
000000c0: ade4 19be f0f8 903d 6b88 fabb c9b7 713e
000000d0: 0161 b23d fd8f 2ebe 33fc 333e 27a3 3c3e
000000e0: 0f40 293e 8fba 2e3e dc68 cc3d cbbd 8cbe
000000f0: 77f7 283f 16ca bbbe 952e db3d a0bc 87bd
00000100: 968b 3c3e 7e65 bd3d ab11 03bd 47ca 11be
00000110: 4a4a 1cbe 9f8d 893d 5bb4 013e 2df8 1c3e
00000120: f45c 5f3e e34b 083e 5d21 453e 47e2 b7be
00000130: 398e 98be 1002 8dbd a82c 9a3d 8bce 43bd
-0.061864026 0.553914 -0.19051899 -0.022592142 0.0901182 -0.30733842 0.29157272 -0.35213542
-0.037722368 -0.01588655 -0.021321053 -0.23499392 -0.3618955 0.32702664 0.26788178 0.12335323
-0.10461663 0.10332834 -0.20387125 0.107797876 -0.20207997 -0.3161776 -0.030034835 -0.14479125
-0.08934766 0.13447694 0.4434274 0.34378546 -0.17519194 -0.26847208 -0.05103765 -0.22963601
-0.30199665 -0.34226173 -0.14118661 -0.20158167 0.37997228 -0.00013555173 -0.06841265 0.5108637
-0.33039194 0.24070722 -0.08201354 0.056120872 -0.16418736 -0.23012722 -0.5480717 0.47736388
-0.15028639 0.07078731 -0.007645657 0.23605265 0.08709908 -0.17047115 0.17576675 0.18421613
0.16528343 0.17063354 0.09980938 -0.2748855 0.660026 -0.36677617 0.10702244 -0.06627774
0.18412623 0.09247874 -0.03199927 -0.14237319 -0.15262714 0.06716465 0.12666456 0.15329047
0.21812803 0.13310198 0.19251008 -0.35914823 -0.29796007 -0.06885159 0.07528049 -0.047804397

bias f4 [4]
00000000: 647a c8bd e172 0fbe f883 43bc 5631 8bbd
-0.09788969 -0.14008667 -0.011933319 -0.067965195
