Quadrant/weights/epoch108000loss0.7436684370040894.pt (torch, 4959 bytes, 6 tensors)

weight f4 [10, 2]
00000000: 67c5 ab3e e995 d03e 6e56 3d3e 6d9c 2c3f
00000010: 77cb 203f 0628 5abd 7e8f 1e3f acf3 253e
00000020: 587c 01bf c69f 53bf f522 1bbf c245 85be
00000030: 9007 58bf 7d52 6c3e 0bbb 223f 34a9 33bc
00000040: bebb 57bf e52a c03c 32fb ec3e 9f27 37bf
0.33549044 0.40739372 0.18490002 0.67426187 0.6281046 -0.053260826 0.619377 0.16206235
-0.5058036 -0.8266567 -0.60600215 -0.26029783 -0.8438654 0.23078342 0.63566655 -0.010965634
-0.84270847 0.023457954 0.46285397 -0.7154483

bias f4 [10]
00000000: 31e1 253f 4c01 083f c096 a03e 7d9e 543e
00000010: ba4b a63d 641d c83e a1bf a9bd 0fbc 093e
00000020: 0157 3f3f cee8 ce3e
0.6479674 0.5312698 0.31365013 0.20763583 0.081199124 0.39084923 -0.082885034 0.13450645
0.7474213 0.4041199

weight f4 [20, 10]
00000000: a467 74bd 038f a1be 7ebc de3e b709 5cbc
00000010: 761a 253c 51cd 20be ffad 7abe e5e2 713e
00000020: 845b a0be 614b d13e 9e16 2c3e 9154 af3e
00000030: e032 633e 2c60 923e ad75 ca3e 3c95 b33e
00000040: bc7d 94be 00e6 2e3e be53 9dbb f13e e6be
00000050: fe29 82be c5fe 0cbd 5600 73be e44b 90bd
00000060: 838e 47be b293 2abe 7e21 d23d 57bf 20be
00000070: e5e1 0f3e 03eb 1d3e 46e0 29be 0051 ce3b
00000080: 508a f5bc b09d 31bd e0c5 29bd 306f 863d
00000090: 3f11 16be 9698 303e b531 26be 7dbe 16be
000000a0: 6efd 28be ee95 d8bd 401e 183e 30e4 1e3e
000000b0: ca6b dabd ac1e e1bd 1980 0abe ec2b 00be
000000c0: 444c 8e3d 94fa 69be 1acb a83d 3272 1dbe
000000d0: bed0 813d e4cd 2f3d f51e 40be fa4c 0dbe
000000e0: 903f 4a3e 3773 e1bc 88e6 843e 8687 563e
000000f0: 0403 013e faf8 003f b4b0 a93e ba28 99bd
00000100: 6f7c c0be 6587 15be 31ed c73e 6293 ed3d
00000110: 6d0e 263e 2d55 0f3e 9f8b cc3d 997a 623c
00000120: fd4e cfbc 7bf7 cbbd 7edf 373e e453 a53e
00000130: aa87 d73e 7ac7 6abe 5be0 d13e 015b 6ebc
00000140: 2875 4c3d 44c6 89bd 5422 9f3c 10b9 b83d
00000150: 269c 183e 29f3 a6bd 585a b9bd 9d83 91be
00000160: 57e3 6fbe 8c36 60bd 68bd 81be fa43 903e
00000170: 898d 3dbd bf64 30be e102 a53e 32d8 b4bd
00000180: 8179 4fbe dfcd c3bd 15e1 36be 935c 953e
00000190: 2883 29be 1e1e 42be 3c48 23be 177e 65be
000001a0: bd08 9bbb 0d78 06bd 7624 7f3d 7eed 63bd
000001b0: 8ceb 45be 98c9 933d e05c b0be c503 483d
000001c0: 8bf7 343e 7823 c5bd daff 973e a026 0d3e
000001d0: 5a2f 85bd f42b 303e 6a4f 793d 03d4 353e
000001e0: f0f0 8cbe c053 8bbe 91d9 993e d1f3 2f3e
000001f0: d430 e53d 01a3 0f3e 6e91 dcbd bbee 52be
00000200: b405 643e 321d e73e 5356 ed3d a740 1a3d
00000210: 465d c83e 5067 873e 53e4 febc f306 12be
00000220: 6e32 adbe b971 053e 28e7 083e 2f3d 853d
00000230: 2249 0c3d 89b5 513e 851f 88be 0809 85bd
00000240: d0b8 5cbd b243 88be 3c1a d1bd 539e 023d
00000250: dd46 59be 7800 973c 2e38 003d 2a37 073e
00000260: 4f14 623e 7550 4f3e 6ab2 c93e e1ef fe3d
00000270: b9d1 ea3d 5949 ff3c d111 513d 7878 9bbe
00000280: 550e 93bd a642 6a3e ffbb 5c3e 1fa6 ebbd
00000290: d940 db3d 20ee 0a3d 3514 cd3d cf66 b9bb
000002a0: 535b e53e a774 0cbe 5063 9a3d a2a4 923c
000002b0: f04e 19be 2c37 7d3e 3f43 eebc 7639 903d
000002c0: 4ff9 6dbe 9397 8dbe f891 cf3d f8e5 2b3e
000002d0: e2e6 54be 84f3 e43d 3595 89be 54be 69be
000002e0: c24c 53be 0081 d83d f88c bf3d 0c15 31be
000002f0: 97a6 6cbe f01f 6bbd 1088 343e e738 5f3e
00000300: 2e77 78be aaa7 ae3c c31a b3be afbf ff3b
00000310: 56ad 9f3e 6e0a 96be 97a1 233e cb07 9cbe
-0.059669152 -0.31554422 0.43503183 -0.013430051 0.01007711 -0.15703322 -0.24480437 0.2362171
-0.3131982 0.40877822 0.16805503 0.34244207 0.22187376 0.28588998 0.39542904 0.35074794
-0.29002178 0.17079926 -0.0048012426 -0.44969895 -0.25422662 -0.034422655 -0.23730597 -0.07045725
-0.19487958 -0.16657904 0.102602944 -0.1569799 0.14051016 0.15421681 -0.1658946 0.006296277
-0.02997318 -0.043363273 -0.041448474 0.06564176 -0.14655016 0.17245707 -0.16229899 -0.14721103
-0.16502926 -0.10575472 0.1485529 0.15516734 -0.106650904 -0.10992178 -0.13525428 -0.12516755
0.0694814 -0.22849494 0.082418635 -0.15375593 0.063386425 0.042920962 -0.18761809 -0.13798895
0.1975081 -0.027520759 0.2595713 0.20950136 0.12598807 0.5037991 0.33142626 -0.07478471
-0.37594935 -0.1460243 0.3904815 0.11600377 0.1621644 0.13997336 0.09987568 0.013823175
-0.02530622 -0.099593125 0.17956349 0.32290566 0.4209569 -0.22927657 0.40991482 -0.014548064
0.049916416 -0.06727269 0.019425549 0.09019673 0.14903316 -0.08151848 -0.09050435 -0.28420725
-0.23426567 -0.05473952 -0.25339818 0.28176862 -0.046277557 -0.17225932 0.3222876 -0.088302985
-0.20261194 -0.09560751 -0.178593 0.2917219 -0.16553938 -0.18956801 -0.15945524 -0.2241138
-0.0047312663 -0.032829333 0.06229063 -0.055646412 -0.19328135 0.07216185 -0.34445858 0.04883172
0.17672555 -0.09625906 0.29687387 0.13784266 -0.06503172 0.17204267 0.06086675 0.17756657
-0.2752757 -0.27212334 0.30048802 0.17182852 0.11190954 0.14027025 -0.10769926 -0.20598881
0.222678 0.45139462 0.11588731 0.037659314 0.39133662 0.2644601 -0.031114733 -0.14260463
-0.33827537 0.13031663 0.13369429 0.065058105 0.034249432 0.20479406 -0.26586547 -0.06495863
-0.05388719 -0.26614147 -0.10210082 0.03188927 -0.21218438 0.01843284 0.031303577 0.13204637
0.2207806 0.20245536 0.39393932 0.12448097 0.11465783 0.031162905 0.05104238 -0.30365348
-0.07180468 0.22876987 0.2155609 -0.115062945 0.10705728 0.0339185 0.1001362 -0.0056580077
0.44796237 -0.13716374 0.075384736 0.017900769 -0.14971519 0.24728078 -0.0290848 0.0704221
-0.23239635 -0.27654704 0.10135263 0.16786945 -0.207912 0.111792594 -0.26871648 -0.2282651
-0.2063475 0.1057148 0.093530595 -0.17293185 -0.23110424 -0.057403505 0.17630029 0.2179905
-0.24264213 0.021320183 -0.34981355 0.007804833 0.31186932 -0.29304832 0.1597961 -0.30474696

bias f4 [20]
00000000: dd0a a53e a6b0 abbd ab5d 773e 927d 1fbe
00000010: 5a5e 84be 1ddd b4bc 69ae 063e ee76 5a3d
00000020: 47f6 52be 0705 753e 725d 99be c1c2 a53d
00000030: 3070 823c c8ae 5c3e dd43 18bd 2933 7fbe
00000040: de88 c4bd f1f3 1abe c496 103e b690 25bc
0.3223485 -0.083833024 0.24156825 -0.15575245 -0.25853235 -0.022078091 0.1315247 0.053336076
-0.2060176 0.23927699 -0.29954106 0.08093787 0.015922636 0.21551049 -0.037174094 -0.2492186
-0.09596418 -0.15132119 0.14120013 -0.010105303

weight f4 [4, 20]
00000000: 203f 1cbd ccf8 f03e 9d58 41be 2813 b9bc
00000010: e48f b83d 5a57 92be 7b8c 843e 2f54 9dbe
00000020: 9d78 1abd 5153 1bbc 7aa9 aebc 55fe 58be
00000030: a0c8 a4be b45d 8e3e f6d0 843e aa43 c43d
00000040: 219e bebd 9a8d ce3d a0c3 50be 07d6 ff3d
00000050: f539 40be 2fb4 81be aedf 3dbd 2844 14be
00000060: e8fb b6bd 6631 d63d b3ef c73e 0e28 9e3e
00000070: 5965 33be feb5 83be db0c 51bd 41db 4abe
00000080: df1b 8dbe a5bc 9dbe aa7a 0abe a50f 34be
00000090: ec56 b63e 9f28 8e3b ee1b 8cbd b0dd e53e
000000a0: e3ab 92be 79df 4c3e fa68 8cbd 00df 653d
000000b0: bb20 28be 2d59 56be a05a f9be 97bd da3e
000000c0: 1c29 19be 7a98 8e3d 22ab e0bb 000f 503e
000000d0: 3291 833d 72d1 11be 157b 353e 82c0 193e
000000e0: 6dca 153e 92f6 243e dc68 cc3d 6f76 73be
000000f0: f7f6 133f 0796 9cbe 4a8a dd3d a0bc 87bd
00000100: 968b 3c3e f9d3 a33d 7721 f7bb f36e d1bd
00000110: 4c09 1dbe 5f87 4f3d 55e5 003e 74a7 063e
00000120: fba9 323e 8245 f53d 0035 463e 988f a5be
00000130: ef90 88be e830 7bbd a82c 9a3d f386 24bd
-0.03814614 0.47064817 -0.1888146 -0.022592142 0.0901182 -0.2858227 0.25888428 -0.3072829
-0.037712682 -0.009480313 -0.021321047 -0.2119077 -0.32184315 0.27805865 0.25940675 0.095832184
-0.093075044 0.10085602 -0.20387125 0.12491994 -0.18772109 -0.25332782 -0.046355896 -0.14479125
-0.08934766 0.10458641 0.39050063 0.30889934 -0.1751913 -0.25724787 -0.05103765 -0.19810201
-0.27560326 -0.30807987 -0.13523355 -0.17584093 0.3561319 0.0043383385 -0.06841265 0.44895697
-0.28646764 0.20007123 -0.0685596 0.056120872 -0.16418736 -0.20932455 -0.48701954 0.4272277
-0.14957088 0.06962676 -0.006856338 0.20318222 0.06424178 -0.14240053 0.17722733 0.15014842
0.14628 0.16109684 0.09980938 -0.23775648 0.57798713 -0.30583212 0.10817392 -0.06627774
0.18412623 0.07999415 -0.007541831 -0.1022624 -0.15335578 0.05066621 0.12587483 0.13149816
0.17447655 0.11976148 0.19356155 -0.32336116 -0.26673076 -0.061325938 0.07528049 -0.04016776

bias f4 [4]
00000000: b582 cdbd 8d4b 0cbe f0a7 54bc 7162 8abd
-0.10034696 -0.13700695 -0.012979493 -0.067570575
