Quadrant/weights/epoch114000loss0.7447214126586914.pt (torch, 4959 bytes, 6 tensors)

weight f4 [10, 2]
000000 9c 8a ab 3e 95 5b d2 3e a6 54 3c 3e 37 e3 2d 3f
       0.33504188 0.41085497 0.18391666 0.6792483
000010 3b b2 21 3f bc 8b 52 bd 2e 1b 1f 3f ed d7 26 3e
       0.63162583 -0.051402792 0.6215085 0.16293307
000020 4e d1 01 bf e2 cf 55 bf 65 9a 1b bf e7 c0 87 be
       -0.5071 -0.8352033 -0.6078246 -0.2651436
000030 86 41 59 bf f6 52 78 3e 12 31 23 3f 96 3e e8 bb
       -0.84865606 0.24250397 0.6374675 -0.007087539
000040 2f de 58 bf 8e 05 bd 3c 86 2a ef 3e 24 6a 38 bf
       -0.84714025 0.023073938 0.4671213 -0.7203696

bias f4 [10]
000000 6f eb 25 3f e2 3e 08 3f b4 63 a1 3e 3d ca 54 3e
       0.6481237 0.5322095 0.3152138 0.20780273
000010 62 83 a7 3d ce 37 c8 3e 5d f4 a6 bd 04 32 0b 3e
       0.08179356 0.39105076 -0.08152077 0.13593298
000020 27 d3 3f 3f d7 54 cf 3e
       0.7493157 0.40494415

weight f4 [20, 10]
000000 47 2b 75 bd aa 2f a2 be 33 6e e0 3e ec ef 4c bc
       -0.059855726 -0.3167699 0.43834075 -0.012508374
000010 e3 2a 04 3c ac eb 22 be 22 b9 7a be 02 a1 74 3e
       0.008066866 -0.15910214 -0.24484685 0.23889545
000020 36 63 a1 be a2 75 d3 3e 51 2d 2e 3e 73 3c b0 3e
       -0.31521004 0.41300684 0.17009474 0.3442112
000030 b9 3d 63 3e 82 9f 93 3e 8c 72 cc 3e 12 70 b4 3e
       0.22191514 0.28832632 0.39931142 0.35241753
000040 8c 84 96 be cd 8a 2f 3e b2 99 cf bb 1f b0 e7 be
       -0.29398 0.17142792 -0.0063354606 -0.45251557
000050 e1 1d 82 be cd 5d 0c bd b8 fe 72 be 2f 47 90 bd
       -0.2541342 -0.034269143 -0.2372998 -0.07044827
000060 95 97 47 be 07 7d 2a be 37 b7 d2 3d ff bd 20 be
       -0.19491418 -0.16649257 0.10288852 -0.15697478
000070 6f 25 10 3e 9f e5 1d 3e 46 e0 29 be 00 51 ce 3b
       0.1407678 0.15419625 -0.1658946 0.006296277
000080 50 8a f5 bc b0 9d 31 bd e0 c5 29 bd 30 6f 86 3d
       -0.02997318 -0.043363273 -0.041448474 0.06564176
000090 3f 11 16 be 96 98 30 3e b5 31 26 be 7d be 16 be
       -0.14655016 0.17245707 -0.16229899 -0.14721103
0000a0 6e fd 28 be ee 95 d8 bd 40 1e 18 3e 30 e4 1e 3e
       -0.16502926 -0.10575472 0.1485529 0.15516734
0000b0 ca 6b da bd ac 1e e1 bd 19 80 0a be ec 2b 00 be
       -0.106650904 -0.10992178 -0.13525428 -0.12516755
0000c0 44 4c 8e 3d 94 fa 69 be 1f 51 ae 3d 16 df 18 be
       0.0694814 -0.22849494 0.08511566 -0.1492885
0000d0 30 08 83 3d 1a df 32 3d b2 ce 40 be b1 71 0d be
       0.06398046 0.043669797 -0.18828848 -0.13812901
0000e0 5d 8d 4d 3e 47 68 de bc 83 c0 85 3e 41 3c 59 3e
       0.20073457 -0.027149333 0.26123437 0.21214391
0000f0 b4 5b 03 3e b3 f5 01 3f b1 d5 a9 3e bb 9f 97 bd
       0.1282795 0.5076553 0.33170846 -0.07403513
000100 93 57 c2 be f8 d7 15 be 8c da c9 3e b4 1c ee 3d
       -0.3795744 -0.14633167 0.3942455 0.116265684
000110 e9 b1 28 3e a7 9e 0e 3e eb d5 cd 3d 64 8e 7d 3c
       0.16474117 0.13927709 0.10050567 0.015475843
000120 58 43 da bc 39 80 cd bd f7 5f 3b 3e ba aa a6 3e
       -0.02664344 -0.10034222 0.18298326 0.3255213
000130 c8 e4 d8 3e 0b 24 6c be 82 05 d4 3e d5 97 67 bc
       0.42362046 -0.23060624 0.41410452 -0.014135321
000140 28 75 4c 3d 44 c6 89 bd f8 19 9f 3c 10 b9 b8 3d
       0.049916416 -0.06727269 0.019421563 0.09019673
000150 db 9b 18 3e 16 f2 a6 bd 58 5a b9 bd f8 83 91 be
       0.14903204 -0.08151643 -0.09050435 -0.28420997
000160 76 e2 6f be 0b 3d 60 bd e6 75 81 be 68 8a 90 3e
       -0.23426232 -0.054745715 -0.25285262 0.28230596
000170 71 f2 3b bd 41 d0 2f be 66 76 a5 3e a3 b5 b3 bd
       -0.045885507 -0.17169286 0.32316893 -0.08774879
000180 4d 7c 4f be a9 ef c2 bd 1d 99 36 be da ba 95 3e
       -0.2026226 -0.09518368 -0.17831846 0.2924412
000190 28 83 29 be 1e 1e 42 be 1f 39 23 be 17 7e 65 be
       -0.16553938 -0.18956801 -0.15939759 -0.2241138
0001a0 fd c2 95 bb 20 5c 06 bd 76 24 7f 3d 5d c3 63 bd
       -0.0045703636 -0.0328027 0.06229063 -0.055606235
0001b0 a2 f3 45 be bd 33 94 3d b2 94 b0 be 4c 78 43 3d
       -0.1933122 0.07236431 -0.34488446 0.047722146
0001c0 8d 65 35 3e 15 fb c4 bd 04 c8 99 3e 3b 70 0e 3e
       0.1771452 -0.096182026 0.30035412 0.1391
0001d0 ee 0d 87 bd e8 78 30 3e 5a 40 7a 3d 53 2f 38 3e
       -0.06594454 0.17233622 0.061096527 0.17986803
0001e0 ba 15 8d be 90 ec 8b be 71 83 9a 3e 41 68 30 3e
       -0.2755564 -0.2732892 0.30178407 0.1722727
0001f0 b6 84 ea 3d d0 4d 10 3e 26 2f de bd ba e2 51 be
       0.11451094 0.14092183 -0.108488366 -0.20496646
000200 5e cd 63 3e 5f c9 e8 3e f7 44 f0 3d 95 a3 1d 3d
       0.2224631 0.45466134 0.11731904 0.038486082
000210 b5 6f c9 3e 98 91 88 3e 76 dd 01 bd 87 bf 12 be
       0.39343038 0.2667358 -0.031705342 -0.14330874
000220 8a 33 ae be c3 a3 07 3e d1 98 06 3e 2e d0 85 3d
       -0.34023696 0.13246064 0.13144232 0.06533848
000230 62 dc 0c 3d 4b 57 51 3e 99 dc 87 be ae 72 83 bd
       0.03438986 0.20443456 -0.2653549 -0.06418358
000240 d0 b8 5c bd 2c 44 88 be 61 bf d3 bd 34 28 05 3d
       -0.05388719 -0.2661451 -0.10339237 0.032509044
000250 41 4a 5a be e1 05 97 3c 20 bb 03 3d 4a f3 07 3e
       -0.21317388 0.01843542 0.03216088 0.13276401
000260 79 8f 61 3e d0 42 50 3e 0f 7f cb 3e ca 60 01 3e
       0.22027387 0.20337987 0.39745376 0.12634578
000270 d8 4a e7 3d 6b c5 fd 3c 0c 40 52 3d 93 13 9c be
       0.11293572 0.030977925 0.05133061 -0.30483684
000280 c1 6f 91 bd d8 f7 6b 3e 2d 3e 5c 3e 75 f8 eb bd
       -0.071013935 0.23043764 0.21508093 -0.11521999
000290 9b ed dc 3d 5f ba 10 3d bf 17 d3 3d 75 87 c9 bb
       0.10787507 0.035333987 0.103072636 -0.006150181
0002a0 25 1f e7 3e e6 b7 0b be b7 ad 9a 3d 95 ab 93 3c
       0.4514095 -0.1364437 0.07552665 0.018026153
0002b0 34 ac 19 be 47 5a 7d 3e 67 49 e7 bc b9 a6 91 3d
       -0.15007097 0.2474147 -0.028233243 0.07111878
0002c0 00 19 6e be 9a b6 8d be 0d a2 d0 3d 0f d5 2b 3e
       -0.23251724 -0.27678376 0.10187159 0.16780494
0002d0 e2 e6 54 be 84 f3 e4 3d 35 95 89 be 54 be 69 be
       -0.207912 0.111792594 -0.26871648 -0.2282651
0002e0 c2 4c 53 be 00 81 d8 3d f8 8c bf 3d 0c 15 31 be
       -0.2063475 0.1057148 0.093530595 -0.17293185
0002f0 97 a6 6c be f0 1f 6b bd d7 cc 35 3e 1c d0 61 3e
       -0.23110424 -0.057403505 0.17753921 0.22052044
000300 51 9f 78 be 1e 63 ad 3c 74 aa b4 be 7a 02 f9 3b
       -0.24279524 0.021165427 -0.35286295 0.007599172
000310 ef a2 a1 3e 45 2c 96 be 32 80 26 3e 02 0a 9c be
       0.3156962 -0.2933065 0.1625984 -0.30476385

bias f4 [20]
000000 57 6e a5 3e 62 60 ab bd 34 6c 77 3e 92 7d 1f be
       0.32310745 -0.08367993 0.2416237 -0.15575245
000010 5a 5e 84 be 62 3f ac bc 05 94 07 3e df f1 5d 3d
       -0.25853235 -0.021026317 0.13240059 0.054185744
000020 6b f6 52 be 5c 7a 75 3e af 5b 99 be cd ff a6 3d
       -0.20601813 0.23972458 -0.29952762 0.08154259
000030 7a 2f 89 3c f3 12 5d 3e 2e f5 17 bd d2 dc 7e be
       0.016746271 0.2158926 -0.037099056 -0.24888924
000040 f5 3d c3 bd 88 d4 1a be c4 96 10 3e f7 11 1a bc
       -0.09533302 -0.15120137 0.14120013 -0.009403697

weight f4 [4, 20]
000000 76 40 28 bd d7 1e f4 3e d7 80 41 be 28 13 b9 bc
       -0.0410771 0.4767978 -0.18896805 -0.022592142
000010 e4 8f b8 3d d0 51 93 be 46 04 85 3e 30 a2 9f be
       0.0901182 -0.28773355 0.25979823 -0.31178427
000020 52 7a 1a bd 08 35 27 bc 7c a9 ae bc 69 55 5b be
       -0.03771431 -0.010205515 -0.02132105 -0.214193
000030 d0 bf a6 be 04 16 90 3e 5b 13 85 3e 2c d6 c7 3d
       -0.32568216 0.28141797 0.2599133 0.09757647
000040 68 b5 c1 bd 64 0a cf 3d a0 c3 50 be 17 2f fb 3d
       -0.094584286 0.10109404 -0.20387125 0.12264841
000050 f5 a7 41 be 7f 2c 84 be 6b a8 37 bd 28 44 14 be
       -0.18911727 -0.25815198 -0.04483835 -0.14479125
000060 e8 fb b6 bd 87 a8 db 3d e3 2c cb 3e f1 5e a0 3e
       -0.08934766 0.107255034 0.39682683 0.31322435
000070 6c 65 33 be f5 33 84 be db 0c 51 bd be 9e 4d be
       -0.17519158 -0.2582089 -0.05103765 -0.20080087
000080 f8 36 8e be 07 45 9f be 97 b2 0a be 5b c5 35 be
       -0.27776313 -0.3110735 -0.13544689 -0.17751066
000090 1f e1 b7 3e 05 a4 81 3b ee 1b 8c bd 72 41 e9 3e
       0.3591394 0.00395632 -0.06841265 0.45557743
0000a0 ca 24 94 be 1d 67 50 3e 13 ff 8e bd 00 df 65 3d
       -0.28934318 0.20351835 -0.06982245 0.056120872
0000b0 bb 20 28 be 4c 6e 58 be 7e 61 fc be b0 ce dc 3e
       -0.16418736 -0.21135825 -0.4929313 0.4312644
0000c0 b6 14 19 be f4 3b 91 3d be 82 e1 bb e5 e6 53 3e
       -0.14949307 0.07091513 -0.0068820408 0.20693548
0000d0 d9 aa 89 3d 4b 6b 14 be a5 4f 35 3e 26 d0 1c 3e
       0.0672204 -0.14494054 0.17706163 0.15313777
0000e0 00 ea 16 3e 0c 02 26 3e dc 68 cc 3d a6 1c 77 be
       0.14737701 0.16211718 0.09980938 -0.24132022
0000f0 19 cf 15 3f be 06 9f be b8 55 dd 3d a0 bc 87 bd
       0.5851913 -0.3105983 0.10807365 -0.06627774
000100 96 8b 3c 3e 30 73 a6 3d 53 3f 11 bc 90 54 d9 bd
       0.18412623 0.08127439 -0.008865195 -0.10611832
000110 1f 1d 1d be ea 2a 51 3d 16 ec 00 3e 0b eb 07 3e
       -0.1534314 0.051066317 0.1259006 0.13273256
000120 fc c2 35 3e d4 ba f9 3d e3 13 46 3e a4 20 a7 be
       0.17750162 0.12193838 0.19343524 -0.3264209
000130 71 e4 89 be 22 c7 7e bd a8 2c 9a 3d 02 be 27 bd
       -0.269321 -0.062201627 0.07528049 -0.04095269

bias f4 [4]
000000 bd 7d cd bd 87 6e 0c be e6 3b 55 bc 2a 0e 8a bd
       -0.10033748 -0.13714038 -0.013014769 -0.06740983
