Quadrant/weights/epoch134000loss0.8768342733383179.pt (torch, 4959 bytes, 6 tensors)

weight f4 [10, 2]
000000 e0 b1 ab 3e a2 fa d7 3e 1c 10 3c 3e ec a9 32 3f
       0.33534145 0.42183405 0.1836552 0.6979053
000010 33 6f 24 3f f2 28 3d bd 28 fc 20 3f 29 d8 2d 3e
       0.64232177 -0.046181627 0.6288476 0.1697699
000020 7b 60 03 bf ff 84 5b bf a0 6c 1d bf 11 3f 8d be
       -0.5131909 -0.8574981 -0.61493874 -0.27587178
000030 e4 d0 5c bf 40 ca 88 3e 0c c0 24 3f 9a 29 c4 3a
       -0.8625624 0.26716805 0.6435554 0.0014966012
000040 25 5d 5c bf 53 7c 68 3c 40 eb f3 3e 0e e5 3d bf
       -0.8607963 0.014189797 0.4764042 -0.74177635

bias f4 [10]
000000 a5 27 26 3f 65 5b 09 3f d4 e3 a3 3e 32 f3 55 3e
       0.6490424 0.5365508 0.32009757 0.20893553
000010 65 91 aa 3d 68 8c c8 3e a4 3f 9e bd 3a 4b 10 3e
       0.08328513 0.3916962 -0.07726982 0.14091197
000020 dc 6a 41 3f d7 ba cf 3e
       0.7555368 0.40572235

weight f4 [20, 10]
000000 a1 60 7e bd 02 d8 a4 be 32 ff e4 3e b3 a8 3d bc
       -0.06210387 -0.3219605 0.4472595 -0.011575866
000010 4c 98 c5 3b 56 87 28 be bb d7 7a be c5 42 7b 3e
       0.006030118 -0.16457877 -0.24496357 0.2453719
000020 3d f7 a4 be c2 c8 db 3e c2 0d 39 3e fc e1 b5 3e
       -0.32219878 0.42926604 0.18071654 0.35523975
000030 60 36 65 3e bd 01 99 3e d2 83 d1 3e 74 fe b6 3e
       0.22384024 0.2988414 0.40920883 0.35741007
000040 2c b3 9b be 57 dc 33 3e bd dc 1c bc b2 9e ec be
       -0.30410135 0.17564522 -0.0095741125 -0.46214825
000050 2c fb 81 be 96 73 0a bd 2c fe 72 be e6 3d 90 bd
       -0.2538694 -0.033801638 -0.23729771 -0.07043056
000060 8c c9 47 be 8d 3f 2a be 95 8c d4 3d 5f bc 20 be
       -0.19510478 -0.16625805 0.103783764 -0.15696858
000070 bc ef 10 3e 67 c8 1d 3e 46 e0 29 be 00 51 ce 3b
       0.14153951 0.15408479 -0.1658946 0.006296277
000080 50 8a f5 bc b0 9d 31 bd e0 c5 29 bd 30 6f 86 3d
       -0.02997318 -0.043363273 -0.041448474 0.06564176
000090 3f 11 16 be 96 98 30 3e b5 31 26 be 7d be 16 be
       -0.14655016 0.17245707 -0.16229899 -0.14721103
0000a0 6e fd 28 be ee 95 d8 bd 40 1e 18 3e 30 e4 1e 3e
       -0.16502926 -0.10575472 0.1485529 0.15516734
0000b0 ca 6b da bd ac 1e e1 bd 19 80 0a be ec 2b 00 be
       -0.106650904 -0.10992178 -0.13525428 -0.12516755
0000c0 44 4c 8e 3d 94 fa 69 be 58 89 b6 3d 0e cd 10 be
       0.0694814 -0.22849494 0.08912915 -0.14140722
0000d0 68 11 84 3d 1a f5 31 3d 11 46 43 be 60 43 0e be
       0.064486325 0.043446638 -0.19069697 -0.13892889
0000e0 3a 03 56 3e 64 75 e0 bc fd db 87 3e 15 a3 60 3e
       0.20899668 -0.027399726 0.26535025 0.21937211
0000f0 23 79 0a 3e 1a dd 04 3f 29 99 aa 3e bc 13 92 bd
       0.13522772 0.51899874 0.33319977 -0.0713267
000100 93 11 c8 be e8 42 17 be c8 09 cf 3e 38 f5 f0 3d
       -0.39075908 -0.14771616 0.4043715 0.11765522
000110 e1 dd 2f 3e a5 9b 0c 3e cf 02 cc 3d 41 8b 83 3c
       0.17174484 0.13731249 0.09961473 0.016057612
000120 0f 69 00 bd 2d 95 d4 bd 63 ac 43 3e 7d a5 aa 3e
       -0.03135019 -0.103800155 0.19108729 0.33329383
000130 1f 76 dc 3e 88 d1 70 be 9e d6 da 3e 0b 8a 7c bc
       0.4305887 -0.2351743 0.42741865 -0.015413771
000140 28 75 4c 3d 44 c6 89 bd a5 f8 9e 3c 10 b9 b8 3d
       0.049916416 -0.06727269 0.019405672 0.09019673
000150 55 92 18 3e b5 f4 a6 bd 58 5a b9 bd 3a 85 91 be
       0.14899571 -0.08152143 -0.09050435 -0.28421956
000160 0b e0 6f be 81 71 60 bd ce 40 80 be e7 e8 91 3e
       -0.2342531 -0.054795746 -0.25049442 0.28498003
000170 5a d1 36 bd df b2 2d be 33 d2 a6 3e f1 2c b0 bd
       -0.044633247 -0.16962765 0.32582244 -0.08602322
000180 c5 3c 4f be c5 00 c0 bd b5 9e 35 be c2 da 96 3e
       -0.20238025 -0.09375147 -0.17736323 0.29463774
000190 28 83 29 be 1e 1e 42 be d9 ef 22 be 17 7e 65 be
       -0.16553938 -0.18956801 -0.15911807 -0.2241138
0001a0 60 0e 67 bb b6 61 05 bd 76 24 7f 3d df 16 63 bd
       -0.003525637 -0.032563888 0.06229063 -0.055441733
0001b0 00 13 46 be 17 a5 96 3d 33 b1 b1 be 29 65 32 3d
       -0.19343185 0.07355707 -0.34705505 0.043553505
0001c0 2c 95 35 3e 0a 98 c6 bd 40 10 9f 3e 8b 90 12 3e
       0.17732686 -0.09696968 0.31067085 0.14312951
0001d0 23 c8 8b bd d2 57 30 3e 39 62 7f 3d 8d 80 3e 3e
       -0.068252824 0.17221001 0.06234953 0.18603726
0001e0 83 2e 8e be 5e 54 8e be f8 d1 9b 3e 92 45 30 3e
       -0.2776986 -0.27798742 0.3043363 0.17214039
0001f0 7d c3 fb 3d 67 a8 12 3e 39 47 e2 bd 2b 28 50 be
       0.12293146 0.14322053 -0.11048741 -0.20327823
000200 68 71 63 3e 8d c8 ed 3e ba dd fd 3d 87 23 36 3d
       0.2221123 0.4644207 0.123958066 0.044467475
000210 a6 01 cd 3e b8 ac 8c 3e 18 45 03 bd ad bf 14 be
       0.4004032 0.27475524 -0.032048315 -0.14526244
000220 bf b9 b0 be 09 f1 0e 3e 55 dd fe 3d 2b 1f 8b 3d
       -0.34516713 0.13959135 0.124445595 0.06793054
000230 6e 55 14 3d 90 9c 52 3e b8 1b 87 be 38 a5 7b bd
       0.036214285 0.20567536 -0.26388335 -0.06143686
000240 d0 b8 5c bd 8d 44 88 be 50 de d9 bd ef 19 0d 3d
       -0.05388719 -0.266148 -0.10638106 0.03444856
000250 f4 f8 5c be bc 1c 97 3c 49 03 17 3d 81 a3 0c 3e
       -0.21579343 0.018446319 0.036868367 0.13734247
000260 cd 02 61 3e 03 e1 54 3e 68 f1 cf 3e 76 00 07 3e
       0.21973725 0.2078896 0.40613866 0.1318377
000270 ad 61 de 3d 59 15 02 3d 63 0e 5a 3d 4f 9b 9e be
       0.10858474 0.03175864 0.053236376 -0.30977866
000280 df 68 8e bd d4 f4 6e 3e ed 4c 5b 3e df 44 ec bd
       -0.06953596 0.23335582 0.21416064 -0.115365736
000290 3c e4 dd 3d ae b7 20 3d 93 e7 e2 3d 4b 55 e6 bb
       0.10834548 0.03923767 0.110793255 -0.0070292107
0002a0 52 87 ec 3e 0b 2e 0b be f5 39 9c 3d b7 01 9b 3c
       0.4619699 -0.13591783 0.07628242 0.018921716
0002b0 6d f5 1a be 02 de 7d 3e 99 b6 d8 bc 68 f1 95 3d
       -0.15132685 0.2479172 -0.026454257 0.07321435
0002c0 d4 2e 6e be ec 15 8e be 84 e6 d4 3d 3f aa 2a 3e
       -0.23260051 -0.277511 0.1039553 0.16666506
0002d0 e2 e6 54 be 84 f3 e4 3d 35 95 89 be 54 be 69 be
       -0.207912 0.111792594 -0.26871648 -0.2282651
0002e0 c2 4c 53 be 00 81 d8 3d f8 8c bf 3d 0c 15 31 be
       -0.2063475 0.1057148 0.093530595 -0.17293185
0002f0 97 a6 6c be f0 1f 6b bd c4 4f 38 3e 30 9c 67 3e
       -0.23110424 -0.057403505 0.17999178 0.22618175
000300 9a 28 79 be 37 df a4 3c 53 61 b9 be 88 92 de 3b
       -0.24331895 0.020125968 -0.36207065 0.00679237
000310 e6 e6 a6 3e 70 ab 96 be 81 a7 2e 3e ba 12 9c be
       0.32598037 -0.2942767 0.17056085 -0.30483037

bias f4 [20]
000000 f1 1d a6 3e d5 18 a8 bd b4 93 77 3e 92 7d 1f be
       0.32444718 -0.08207861 0.24177438 -0.15575245
000010 5a 5e 84 be 0b 05 9a bc 79 1f 0b 3e 52 07 68 3d
       -0.25853235 -0.018801233 0.13586225 0.056647606
000020 a9 f7 52 be 22 0f 77 3e d8 4f 99 be b9 a1 a9 3d
       -0.20602287 0.24126866 -0.29943728 0.08282799
000030 61 7c 97 3c 57 85 5e 3e 03 2f 16 bd 75 1d 7d be
       0.018491926 0.21730553 -0.036665928 -0.24718268
000040 48 6a be bd fe 35 1a be c4 96 10 3e c0 1e e0 bb
       -0.09297615 -0.15059659 0.14120013 -0.006839603

weight f4 [4, 20]
000000 bf 68 43 bd 94 d3 ff 3e 10 03 42 be 28 13 b9 bc
       -0.047707316 0.4996611 -0.18946481 -0.022592142
000010 e4 8f b8 3d c7 41 96 be 29 dd 89 3e ba ee a5 be
       0.0901182 -0.2934706 0.26926544 -0.32408696
000020 03 7e 1a bd ca 41 48 bc 7d a9 ae bc aa 15 62 be
       -0.03771783 -0.012222717 -0.021321053 -0.22078577
000030 70 8d ac be 98 fb 96 3e b5 46 86 3e ed cb d6 3d
       -0.33701658 0.29488826 0.2622582 0.104881145
000040 14 2d c8 bd 3e ab d0 3d a0 c3 50 be 19 28 f2 3d
       -0.09774223 0.10188912 -0.20387125 0.11824054
000050 1a fb 45 be 7b b8 8c be 7c 9f 24 bd 28 44 14 be
       -0.19334069 -0.27484497 -0.04019116 -0.14479125
000060 e8 fb b6 bd 25 43 ec 3d 53 9e d2 3e e4 e2 a5 3e
       -0.08934766 0.11536244 0.41136417 0.32399666
000070 82 65 33 be bb cf 85 be db 0c 51 bd 22 0f 56 be
       -0.17519191 -0.26135048 -0.05103765 -0.2090421
000080 9b ba 91 be d6 28 a4 be 2f 4b 0c be a3 a3 3c be
       -0.2846268 -0.32062405 -0.13700555 -0.18421797
000090 0b 9c bb 3e 85 56 2b 3b ee 1b 8c bd ed f6 f1 3e
       0.3664249 0.00261441 -0.06841265 0.47258702
0000a0 97 f4 99 be 4a 03 5b 3e a8 ca 96 bd 00 df 65 3d
       -0.3006942 0.21387973 -0.07362872 0.056120872
0000b0 bb 20 28 be 5e 52 5e be 4a 9a 02 bf 7c 77 e3 3e
       -0.16418736 -0.21711108 -0.51016676 0.44427097
0000c0 4e 3d 19 be 28 a9 93 3d c6 be e5 bb ea 4e 5d 3e
       -0.14964792 0.07209998 -0.0070112674 0.21612135
0000d0 22 48 97 3d 91 5c 1c be b8 d9 34 3e f6 f8 25 3e
       0.07386805 -0.15269686 0.17661178 0.16208252
0000e0 dd 78 1b 3e a4 b9 28 3e dc 68 cc 3d 58 ce 80 be
       0.15182824 0.16477066 0.09980938 -0.25157428
0000f0 ed 7e 1b 3f a3 7a a7 be b4 a2 dc 3d a0 bc 87 bd
       0.6074055 -0.32710752 0.10773221 -0.06627774
000100 96 8b 3c 3e 6d 66 ad 3d 66 c6 7f bc c4 ce f0 bd
       0.18412623 0.08466802 -0.015611267 -0.117581874
000110 51 f3 1c be 80 77 61 3d ff 0d 01 3e a1 b6 0d 3e
       -0.15327193 0.055045605 0.12602995 0.13839199
000120 3b 9b 41 3e f9 ce 00 3e 61 bc 45 3e 6d 01 ac be
       0.18906872 0.12578954 0.19310142 -0.33594838
000130 95 46 8e be 09 b3 83 bd a8 2c 9a 3d dc 57 31 bd
       -0.27788225 -0.064306326 0.07528049 -0.04329668

bias f4 [4]
000000 f8 9b ca bd 98 8a 0c be 70 11 58 bc 4c 59 8c bd
       -0.0989303 -0.13724744 -0.013187751 -0.068529695
