Quadrant/weights/epoch8000loss1.3793340921401978.pt (torch, 4959 bytes, 6 tensors)

weight f4 [10, 2]
0	0x3eb2b29a	0.34901887
1	0x3e859994	0.26093733
2	0x3e43dab6	0.191264
3	0x3ecd94e9	0.40152672
4	0x3ee74e48	0.4517691
5	0xbd080919	-0.0332118
6	0x3f0904b7	0.5352282
7	0x3d7cf47c	0.061756596
8	0xbecc456d	-0.39896718
9	0xbf1e68da	-0.6187874
10	0xbf0fead3	-0.5621769
11	0xbdb3ec09	-0.087852545
12	0xbf242a7a	-0.64127314
13	0xbe7f3257	-0.24921547
14	0x3f123a32	0.5712005
15	0xbdbc1307	-0.09183317
16	0xbf33b57e	-0.7019881
17	0x3c5fc89b	0.013658668
18	0x3eb9c767	0.36284944
19	0xbed486a9	-0.41508988

bias f4 [10]
0	0x3f238349	0.638722
1	0x3efc0af7	0.49227116
2	0x3e892c1c	0.26791465
3	0x3e4b87f3	0.1987608
4	0x3d935743	0.07194378
5	0x3ec5f7fa	0.38665754
6	0xbe0aaa84	-0.13541609
7	0x3de6782c	0.1125339
8	0x3f326667	0.69687504
9	0x3ec261a3	0.37965116

weight f4 [20, 10]
0	0xbd815ef9	-0.06316943
1	0xbe90b9d5	-0.2826678
2	0x3e997210	0.29969835
3	0xbd9bec6d	-0.07613454
4	0xbd146e38	-0.036237925
5	0xbdfede33	-0.12444725
6	0xbe72ad9f	-0.23699044
7	0x3dc6f9e9	0.09715635
8	0xbe9032a4	-0.28163636
9	0x3e2a05d0	0.1660378
10	0x3cb83a8b	0.022488853
11	0x3e64a69b	0.2232918
12	0x3e39012d	0.18066855
13	0x3e13c06a	0.14428869
14	0x3e99e9da	0.30061227
15	0x3ea1cf4c	0.31603467
16	0xbe7e0da0	-0.24809885
17	0x3e002bcb	0.12516706
18	0x3d847cdc	0.064691275
19	0xbeae7c9e	-0.3407945
20	0xbe8191cc	-0.25306547
21	0xbcd7284b	-0.02626433
22	0xbe7312d2	-0.23737648
23	0xbd906617	-0.07050722
24	0xbe4680ff	-0.19385146
25	0xbe138232	-0.14405134
26	0x3e004c0f	0.12529014
27	0xbe20cfe0	-0.15704298
28	0x3e34f30d	0.17670842
29	0x3e1dbd56	0.15404257
30	0xbe29e046	-0.1658946
31	0x3bce5100	0.006296277
32	0xbcf58a50	-0.02997318
33	0xbd319db0	-0.043363273
34	0xbd29c5e0	-0.041448474
35	0x3d866f30	0.06564176
36	0xbe16113f	-0.14655016
37	0x3e309896	0.17245707
38	0xbe2631b5	-0.16229899
39	0xbe16be7d	-0.14721103
40	0xbe28fd6e	-0.16502926
41	0xbdd895ee	-0.10575472
42	0x3e181e40	0.1485529
43	0x3e1ee430	0.15516734
44	0xbdda6bca	-0.106650904
45	0xbde11eac	-0.10992178
46	0xbe0a8019	-0.13525428
47	0xbe002bec	-0.12516755
48	0x3d8e4c44	0.0694814
49	0xbe69fa94	-0.22849494
50	0x3dac2185	0.08404831
51	0xbe3cf049	-0.18451037
52	0x3d4b8b28	0.049693257
53	0x3d6626e5	0.056189436
54	0xbe0b5144	-0.13605219
55	0xbe0131e6	-0.12616691
56	0x3e2d39da	0.169166
57	0xbd273086	-0.04081776
58	0x3e570ffe	0.21002194
59	0x3df2e714	0.11860481
60	0xbb9fa67b	-0.004872141
61	0x3e972b53	0.2952524
62	0x3e90fac6	0.28316325
63	0xbe13222b	-0.14368503
64	0xbe9415ca	-0.28922874
65	0xbe4712e9	-0.19440807
66	0x3e8a78a5	0.2704517
67	0x3d838c13	0.064232014
68	0xbc681192	-0.014164345
69	0x3df3251a	0.11872311
70	0x3dc9d6b6	0.09855406
71	0xbc8bdb73	-0.017072415
72	0x3aaade12	0.0013036153
73	0xbd8b0b39	-0.0678925
74	0x3d235393	0.039874624
75	0x3e5a51a4	0.21320206
76	0x3e9bf823	0.3046275
77	0xbe50fa60	-0.2040801
78	0x3e79d231	0.24396588
79	0xbd340049	-0.043945584
80	0x3d4c7528	0.049916416
81	0xbd89c644	-0.06727269
82	0x3ca13ad2	0.019681368
83	0x3db8b910	0.09019673
84	0x3e1ad54c	0.15120429
85	0xbda59839	-0.08085675
86	0xbdb8f556	-0.09031169
87	0xbe9167fa	-0.2839964
88	0xbe6fca72	-0.2341707
89	0xbd58b83e	-0.052910082
90	0xbe849b47	-0.25899717
91	0x3e8ff5b8	0.28117156
92	0xbd452c5e	-0.048138015
93	0xbe3b70cf	-0.18304752
94	0x3e8c96ff	0.2745895
95	0xbdf15b54	-0.117849976
96	0xbe65ad6d	-0.22429438
97	0xbdc3d661	-0.09562374
98	0xbe43af02	-0.19109729
99	0x3e8c0d3e	0.27353853
100	0xbe298328	-0.16553938
101	0xbe421e1e	-0.18956801
102	0xbe23c9b3	-0.15994911
103	0xbe657e1b	-0.22411387
104	0xbb876912	-0.0041323984
105	0xbd03f69d	-0.03221761
106	0x3d7f84ed	0.062382627
107	0xbd660765	-0.056159396
108	0xbe459d5b	-0.19298308
109	0x3d932c6a	0.07186206
110	0xbea011a3	-0.31263456
111	0x3ddbef9f	0.107390635
112	0x3e30b36d	0.17255946
113	0xbdab2d38	-0.08358234
114	0x3e04ca89	0.12967886
115	0x3db9e347	0.09076553
116	0xbd9ae10c	-0.075624555
117	0x3e2e136c	0.16999596
118	0x3d7431b3	0.05961771
119	0x3db33947	0.08751159
120	0xbe88d767	-0.2672684
121	0xbe69fbd0	-0.22849965
122	0x3e7f9acf	0.24961399
123	0x3e184336	0.14869389
124	0xbd200fb2	-0.03907747
125	0x3dec8a1f	0.11549782
126	0xbdd758d9	-0.10514993
127	0xbe83b399	-0.2572296
128	0x3e75fc08	0.24021924
129	0x3e9e642b	0.30935797
130	0x3cd18152	0.02557436
131	0xbc36fcfa	-0.011168713
132	0x3e9275a2	0.28605372
133	0x3e06825d	0.13135667
134	0xbd436577	-0.047704186
135	0xbdf74388	-0.120734274
136	0xbe955256	-0.2916438
137	0x3ca8dc74	0.020612933
138	0x3e66abe0	0.22526503
139	0x3c0c1464	0.008549783
140	0x3ca9294e	0.020649578
141	0x3e5ac6c3	0.21364884
142	0xbe936bc8	-0.28793168
143	0xbdda8bba	-0.10671182
144	0xbd5cb8d0	-0.05388719
145	0xbe86ff3c	-0.26366603
146	0xbd9e56a0	-0.07731366
147	0x3c1bc646	0.009507721
148	0xbe284a0e	-0.164345
149	0x3c96f590	0.01842764
150	0xbd0139a2	-0.031549104
151	0x3d93fcb6	0.07225935
152	0x3e6e888d	0.23294277
153	0x3e210ab7	0.15726744
154	0x3ea16b35	0.31527105
155	0x3d842b02	0.064535156
156	0x3dd7aec2	0.10531379
157	0x3d3352d3	0.04378016
158	0x3d0415fd	0.032247532
159	0xbe61a88c	-0.22036952
160	0xbd98b893	-0.0745708
161	0x3e318ae2	0.17338136
162	0x3e787df2	0.24266794
163	0xbd9db40e	-0.07700358
164	0x3dbdeb39	0.09273381
165	0xbd3b9001	-0.04579163
166	0xbc7b69af	-0.015345021
167	0x3cb0e026	0.021591257
168	0x3e87737a	0.2645529
169	0xbe206a7b	-0.15665619
170	0x3d8e5bbf	0.06951093
171	0x3c8884fe	0.016664978
172	0xbe119f5b	-0.14220946
173	0x3e753f80	0.23950005
174	0xbd3b43f5	-0.045719106
175	0x3d6f482a	0.05841843
176	0xbe6d506d	-0.23175211
177	0xbe8a1241	-0.26967052
178	0x3dd2a8f1	0.10286129
179	0x3e34007c	0.1757831
180	0xbe54e6e2	-0.207912
181	0x3de4f384	0.111792594
182	0xbe899535	-0.26871648
183	0xbe69be54	-0.2282651
184	0xbe534cc2	-0.2063475
185	0x3dd88100	0.1057148
186	0x3dbf8cf8	0.093530595
187	0xbe31150c	-0.17293185
188	0xbe6ca697	-0.23110424
189	0xbd6b1ff0	-0.057403505
190	0x3dd212eb	0.102575146
191	0x3d9620a2	0.07330443
192	0xbe7b6946	-0.24551877
193	0x3c2c6846	0.010522908
194	0xbe7b577c	-0.24545091
195	0xbca5025d	-0.020142728
196	0x3e5fa59e	0.21840522
197	0xbe96f0e4	-0.2948066
198	0x3c4ce0c4	0.01250476
199	0xbe9bdbbd	-0.30441085

bias f4 [20]
0	0x3e9198fb	0.28437027
1	0xbdc0b5b3	-0.094096564
2	0x3e7c778d	0.2465498
3	0xbe1f7d92	-0.15575245
4	0xbe845e5a	-0.25853235
5	0xbd38b983	-0.045098793
6	0x3d9ad2ac	0.07559714
7	0x3ca83ac4	0.020535834
8	0xbe52bc50	-0.20579648
9	0x3e6a7fe6	0.22900352
10	0xbe995c29	-0.29953125
11	0x3d870865	0.06593398
12	0xbc07b8e3	-0.0082838265
13	0x3e4bdeaa	0.19909158
14	0xbd183307	-0.03715804
15	0xbe84c109	-0.25928524
16	0xbe01e20a	-0.12683883
17	0xbe1d1a34	-0.15342027
18	0x3e1096c4	0.14120013
19	0xbd460714	-0.048346594

weight f4 [4, 20]
0	0x3d8d4797	0.0689842
1	0x3dcf34e0	0.10117507
2	0xbe362a25	-0.17789514
3	0xbcb91328	-0.022592142
4	0x3db88fe4	0.0901182
5	0xbe679553	-0.22615556
6	0x3cffd7ec	0.03123089
7	0xbde3c631	-0.111217864
8	0xbd192066	-0.037384413
9	0x3da4387f	0.08018588
10	0xbcae4e78	-0.021277651
11	0xbd9889ac	-0.07448134
12	0xbe038963	-0.12845378
13	0x3d3d960b	0.04628567
14	0x3e688ebe	0.22710702
15	0xbcf66f8d	-0.030082488
16	0xbd6b8a95	-0.05750521
17	0x3da2aa73	0.07942667
18	0xbe50c3a0	-0.20387125
19	0x3e2deede	0.16985652
20	0xbddcfc85	-0.10790352
21	0xbda598c9	-0.08085782
22	0xbe09c72a	-0.13454881
23	0xbe144428	-0.14479125
24	0xbdb6fbe8	-0.08934766
25	0x3c85f3bb	0.016351571
26	0x3e552164	0.20813519
27	0x3e0e3df0	0.13890815
28	0xbe3352c4	-0.17512041
29	0xbe596dc4	-0.21233279
30	0xbd5103c9	-0.051029
31	0xbdaed834	-0.08537331
32	0xbe50671d	-0.20351835
33	0xbe3bf2d0	-0.18354344
34	0xbe0be379	-0.13660993
35	0xbd312f7e	-0.043258183
36	0x3e5f3b6e	0.21800014
37	0x3bfe86f5	0.007767553
38	0xbd8c1bee	-0.06841265
39	0x3e521738	0.2051667
40	0xbe156904	-0.14590842
41	0x3e168183	0.14697842
42	0xbbbb9536	-0.0057245744
43	0x3d65df00	0.056120872
44	0xbe2820bb	-0.16418736
45	0xbe0f5471	-0.13997056
46	0xbe3a221c	-0.18177074
47	0x3e508a31	0.20365216
48	0xbe1c810a	-0.152836
49	0x3d2e9598	0.042623132
50	0xbbe4f854	-0.006987611
51	0x3da9f24a	0.08298166
52	0xbc5d505c	-0.013507929
53	0x3cb68b4a	0.022283215
54	0x3e485354	0.19563037
55	0x3b14c93c	0.0022702953
56	0x3dec0b27	0.11525565
57	0x3e203728	0.1564604
58	0x3dcc68dc	0.09980938
59	0xbdc23d0f	-0.09484302
60	0x3e803ca2	0.2504626
61	0xbd648e3f	-0.05579972
62	0x3dfb176a	0.12260325
63	0xbd87bca0	-0.06627774
64	0x3e3c8b96	0.18412623
65	0x3d206afe	0.039164536
66	0x3dc70bea	0.09719069
67	0x3dc2fe24	0.0952113
68	0xbe1a1ac4	-0.15049273
69	0xbd692944	-0.05692412
70	0x3e00fa10	0.12595391
71	0x3ac69c08	0.0015152702
72	0xbc59bd8e	-0.013289822
73	0x3d7f214b	0.06228761
74	0x3e55d70f	0.2088282
75	0xbe3a90b8	-0.18219268
76	0xbe086371	-0.13319184
77	0xbd1e833d	-0.038699377
78	0x3d9a2ca8	0.07528049
79	0x3c811e57	0.015761537

bias f4 [4]
0	0xbe039ccb	-0.1285278
1	0xbe152309	-0.14564146
2	0x3c8013c0	0.015634418
3	0xbd734200	-0.059389114
