Quadrant/weights/epoch140000loss0.8557783961296082.pt (torch, 4959 bytes, 6 tensors)

weight f4 [10, 2]
000000 67 29 ac 3e d0 7e d9 3e 16 62 3d 3e 86 0c 34 3f
       0.33625337 0.42479563 0.18494448 0.7033161
000010 29 24 25 3f e1 64 39 bd d7 a1 21 3f 00 17 30 3e
       0.645083 -0.04526222 0.63137573 0.17196274
000020 35 38 04 bf 48 af 5c bf 83 19 1e bf ec b5 8d be
       -0.51648265 -0.8620496 -0.6175768 -0.27677858
000030 7a 82 5d bf 47 c0 8b 3e 5a 3c 25 3f 6a 88 3a 3b
       -0.86527216 0.27295133 0.64545214 0.0028462657
000040 4f 35 5d bf a7 10 7a 3c 48 2b f4 3e 68 16 40 bf
       -0.8640947 0.015262759 0.4768927 -0.7503419

bias f4 [10]
000000 e9 30 26 3f 5e a4 09 3f 94 aa a4 3e dc 40 56 3e
       0.6491838 0.5376643 0.3216139 0.2092318
000010 f1 17 ab 3d ac 76 c8 3e d5 97 9c bd e4 c7 11 3e
       0.08354176 0.3915304 -0.07646147 0.14236408
000020 95 b0 41 3f b1 35 d0 3e
       0.7566007 0.40665963

weight f4 [20, 10]
000000 03 25 81 bd fd ae a5 be 1f 01 e6 3e 1d 67 45 bc
       -0.063058876 -0.32360068 0.4492273 -0.01204851
000010 ef 2b 03 3c 0e f5 28 be 53 dd 7a be 16 57 7c 3e
       0.00800608 -0.16499731 -0.24498491 0.24642596
000020 fa b8 a5 be 56 fe de 3e 78 a2 3c 3e a5 b8 b7 3e
       -0.32367688 0.43553418 0.18421352 0.3588306
000030 99 78 66 3e d4 f7 9a 3e 98 64 d2 3e da a0 b7 3e
       0.22506942 0.30267203 0.41092372 0.35864908
000040 89 d1 9c be d9 f9 35 3e 17 ff 24 bc ff 5a ee be
       -0.30628613 0.1777109 -0.010070584 -0.465538
000050 b6 f0 81 be 70 e7 09 bd 6c fc 72 be 3c 3a 90 bd
       -0.2537896 -0.03366798 -0.23729104 -0.07042357
000060 a6 e1 47 be 1e 36 2a be 5f ff d4 3d 39 bb 20 be
       -0.19519672 -0.16622207 0.10400271 -0.1569642
000070 52 1f 11 3e 8b c4 1d 3e 46 e0 29 be 00 51 ce 3b
       0.14172104 0.15407006 -0.1658946 0.006296277
000080 50 8a f5 bc b0 9d 31 bd e0 c5 29 bd 30 6f 86 3d
       -0.02997318 -0.043363273 -0.041448474 0.06564176
000090 3f 11 16 be 96 98 30 3e b5 31 26 be 7d be 16 be
       -0.14655016 0.17245707 -0.16229899 -0.14721103
0000a0 6e fd 28 be ee 95 d8 bd 40 1e 18 3e 30 e4 1e 3e
       -0.16502926 -0.10575472 0.1485529 0.15516734
0000b0 ca 6b da bd ac 1e e1 bd 19 80 0a be ec 2b 00 be
       -0.106650904 -0.10992178 -0.13525428 -0.12516755
0000c0 44 4c 8e 3d 94 fa 69 be d3 10 b7 3d d1 bf 0f be
       0.0694814 -0.22849494 0.08938756 -0.14038016
0000d0 c3 ae 83 3d 79 f4 2e 3d 91 e9 43 be bd b3 0e be
       0.064298175 0.042713616 -0.19132067 -0.13935752
0000e0 f0 b3 57 3e 55 7c e4 bc e1 2e 88 3e d4 c8 62 3e
       0.21064734 -0.027891317 0.26598266 0.22146922
0000f0 6e 62 0c 3e 1e 9d 05 3f 55 ef aa 3e 0d 2a 90 bd
       0.13709423 0.52192867 0.3338572 -0.070392706
000100 55 2b ca be 1e b8 18 be 58 e4 cf 3e 0d 3e f2 3d
       -0.39486185 -0.14913985 0.406039 0.118282415
000110 a9 5f 30 3e 9e 38 0c 3e ba d9 ca 3d a4 23 81 3c
       0.17223991 0.13693473 0.09904809 0.015764065
000120 25 8c 06 bd c0 db d6 bd 2b 4c 44 3e cd 69 ab 3e
       -0.032848496 -0.10491133 0.19169681 0.33479157
000130 16 78 dd 3e ef 36 72 be a4 a2 dc 3e 57 b7 8d bc
       0.4325568 -0.23653768 0.43092835 -0.017299337
000140 28 75 4c 3d 44 c6 89 bd 57 ef 9e 3c 10 b9 b8 3d
       0.049916416 -0.06727269 0.019401236 0.09019673
000150 53 8f 18 3e d4 f5 a6 bd 58 5a b9 bd 8f 85 91 be
       0.14898424 -0.08152357 -0.09050435 -0.2842221
000160 6f df 6f be 56 81 60 bd eb b8 7f be fc 5c 92 3e
       -0.23425077 -0.054810844 -0.24972884 0.28586566
000170 e1 34 35 bd 7c 07 2d be a4 21 a7 3e 6f 53 af bd
       -0.044239882 -0.16897386 0.32642853 -0.085608356
000180 6a 21 4f be 8b 10 bf bd c0 65 35 be 5d 23 97 3e
       -0.2022759 -0.09329327 -0.17714596 0.29519168
000190 28 83 29 be 1e 1e 42 be c9 de 22 be 17 7e 65 be
       -0.16553938 -0.18956801 -0.15905298 -0.2241138
0001a0 38 a3 57 bb cd 27 05 bd 76 24 7f 3d 64 ef 62 bd
       -0.0032903682 -0.03250866 0.06229063 -0.055404082
0001b0 20 1a 46 be fe 34 97 3d 41 19 b2 be 39 37 2d 3d
       -0.19345903 0.07383154 -0.34784892 0.042288993
0001c0 42 36 35 3e 13 d1 c7 bd b6 8a a0 3e ae f8 13 3e
       0.17696479 -0.097566746 0.31355828 0.14450333
0001d0 1b 29 8c bd 69 e6 2f 3e f8 65 81 3d 31 a6 3f 3e
       -0.06843778 0.17177738 0.06318277 0.1871574
0001e0 9a a3 8e be 61 16 8f be 4a e4 9b 3e f0 a1 2f 3e
       -0.27859193 -0.2794676 0.30447608 0.17151618
0001f0 b7 cd 00 3e f2 bf 13 3e 13 9b e2 bd 2d 4c 50 be
       0.12578474 0.1442869 -0.11064734 -0.20341559
000200 9f da 63 3e 0d 0e ef 3e 4a 0f 01 3e d4 56 3e 3d
       0.22251366 0.46690407 0.12603489 0.046469525
000210 3a 16 ce 3e cc e7 8d 3e c5 b5 00 bd 4f f3 14 be
       0.40251333 0.2771591 -0.03142335 -0.1454594
000220 8f 5b b1 be 03 20 11 3e 50 4b fb 3d 01 25 8e 3d
       -0.34640166 0.14172368 0.12270224 0.06940652
000230 c5 0d 17 3d 8d 38 53 3e 32 e5 86 be 1f 3d 78 bd
       0.036878366 0.20627041 -0.26346737 -0.060605165
000240 d0 b8 5c bd aa 44 88 be 18 6e db bd 01 6f 0f 3d
       -0.05388719 -0.26614887 -0.10714358 0.03501797
000250 03 b5 5d be ff 1d 97 3c 84 b6 1d 3d 87 33 0e 3e
       -0.21651082 0.01844692 0.03850414 0.13886844
000260 dd 51 61 3e 02 be 56 3e 70 9f d0 3e bb 4a 08 3e
       0.22003885 0.2097092 0.4074664 0.13309757
000270 68 bf dc 3d 3e 54 05 3d 04 26 5d 3d 38 b3 9f be
       0.10778695 0.032551043 0.053991333 -0.3119142
000280 dc cc 8d bd 60 84 6f 3e dc 1c 5b 3e 9b 29 ec bd
       -0.069238394 0.23390341 0.21397728 -0.11531373
000290 24 57 db 3d 9b 15 22 3d b8 95 e6 3d 68 da e9 bb
       0.1070998 0.039571386 0.11259025 -0.0071366318
0002a0 40 bb ed 3e 4e f9 0b be c4 b5 9c 3d ff 78 9d 3c
       0.46431923 -0.13669321 0.076518565 0.019222734
0002b0 a2 5d 1b be 6c 07 7e 3e 9f 58 da bc ed 7b 96 3d
       -0.15172437 0.24807519 -0.026653586 0.07347856
0002c0 e3 33 6e be e2 2e 8e be ad c3 d5 3d dd bd 29 3e
       -0.2326198 -0.27770144 0.10437713 0.16576333
0002d0 e2 e6 54 be 84 f3 e4 3d 35 95 89 be 54 be 69 be
       -0.207912 0.111792594 -0.26871648 -0.2282651
0002e0 c2 4c 53 be 00 81 d8 3d f8 8c bf 3d 0c 15 31 be
       -0.2063475 0.1057148 0.093530595 -0.17293185
0002f0 97 a6 6c be f0 1f 6b bd 85 c4 38 3e d4 da 68 3e
       -0.23110424 -0.057403505 0.18043716 0.22739726
000300 dd 55 79 be 1f 95 a1 3c dd 12 bb be 30 de bc 3b
       -0.2434916 0.019724427 -0.3653783 0.0057637915
000310 51 e7 a7 3e 59 d5 96 be 4c c5 2f 3e 80 16 9c be
       0.32793668 -0.29459646 0.17165107 -0.30485916

bias f4 [20]
000000 a3 a5 a6 3e 69 f2 a7 bd 82 a1 77 3e 92 7d 1f be
       0.32548246 -0.08200533 0.24182704 -0.15575245
000010 5a 5e 84 be 3d 41 95 bc 5c c1 0b 3e 20 0d 69 3d
       -0.25853235 -0.018219585 0.1364798 0.056897283
000020 22 f8 52 be df 7e 77 3e 6d 4c 99 be 8c 6c aa 3d
       -0.20602468 0.24169491 -0.2994112 0.08321485
000030 e9 bb 9c 3c ad 17 5f 3e f0 9e 15 bd 3a dd 7c be
       0.019132571 0.21786375 -0.036528528 -0.24693766
000040 7d c7 bd bd 08 34 1a be c4 96 10 3e a6 ce d0 bb
       -0.09266565 -0.15058911 0.14120013 -0.0063722907

weight f4 [4, 20]
000000 98 62 47 bd 98 b3 01 3f 54 26 42 be 28 13 b9 bc
       -0.04867801 0.50664663 -0.18959934 -0.022592142
000010 e4 8f b8 3d bc f6 96 be c0 9c 8b 3e c0 96 a7 be
       0.0901182 -0.29485118 0.27268028 -0.327322
000020 ef 7e 1a bd 53 e4 4f bc 7d a9 ae bc 66 94 63 be
       -0.03771871 -0.012688714 -0.021321053 -0.22224578
000030 73 dc ad be 2c 52 99 3e cc a8 86 3e d8 c3 db 3d
       -0.33957252 0.29945505 0.26300657 0.107307136
000040 4c c4 c9 bd f1 29 d1 3d a0 c3 50 be 4c 06 f0 3d
       -0.09851894 0.10213078 -0.20387125 0.11719951
000050 cb 16 47 be f5 63 8f be 3a 75 1f bd 28 44 14 be
       -0.19442289 -0.2800595 -0.038930155 -0.14479125
000060 e8 fb b6 bd 98 63 f0 3d 86 5b d4 3e 98 8e a6 3e
       -0.08934766 0.11737746 0.41476077 0.32530665
000070 84 65 33 be ae 36 86 be db 0c 51 bd a8 c4 58 be
       -0.17519194 -0.26213592 -0.05103765 -0.21168768
000080 26 e2 92 be d0 84 a5 be a9 dc 0c be a7 50 3f be
       -0.28688163 -0.3232789 -0.1375605 -0.1868311
000090 a8 1f bc 3e 9f d4 13 3b ee 1b 8c bd 9e 16 f4 3e
       0.36742902 0.0022557152 -0.06841265 0.47673506
0000a0 c0 1a 9c be 21 ec 5d 3e f7 ea 98 bd 00 df 65 3d
       -0.3048916 0.21672107 -0.07466691 0.056120872
0000b0 bb 20 28 be 33 af 5f be 85 b9 03 bf d7 76 e5 3e
       -0.16418736 -0.21844177 -0.51454955 0.4481723
0000c0 1b 4b 19 be 6a b7 90 3d 32 63 e6 bb 8a 84 5e 3e
       -0.14970057 0.070662335 -0.007030868 0.21730247
0000d0 1f b1 97 3d 78 af 1e be a4 bc 34 3e a6 b0 28 3e
       0.0740683 -0.15496624 0.17650086 0.16473636
0000e0 34 60 1d 3e 54 17 29 3e dc 68 cc 3d ce 17 82 be
       0.1536873 0.16512805 0.09980938 -0.25408787
0000f0 bd 18 1d 3f f0 d5 a9 be d5 74 dc 3d a0 bc 87 bd
       0.6136587 -0.33171034 0.107644714 -0.06627774
000100 96 8b 3c 3e 78 d5 ae 3d 6f b8 93 bc df d8 f4 bd
       0.18412623 0.0853681 -0.01803228 -0.119554274
000110 31 e5 1c be 76 7d 6c 3d 22 13 01 3e e9 b5 10 3e
       -0.15321805 0.057736836 0.12604955 0.14131893
000120 d7 54 46 3e 7d 2d 01 3e ff a6 45 3e 60 44 ad be
       0.19368301 0.12615009 0.19301985 -0.33841228
000130 74 57 8f be be 30 84 bd a8 2c 9a 3d c0 c4 33 bd
       -0.2799641 -0.06454609 0.07528049 -0.043888807

bias f4 [4]
000000 9f 32 ca bd c1 c7 0c be 47 48 60 bc 1a 40 8b bd
       -0.098729365 -0.13748075 -0.013689107 -0.06799336
