Quadrant/weights/epoch2000loss1.4802005290985107.pt (torch, 4959 bytes, 6 tensors)

weight f4 [10, 2]
00000000: cf27 b33e a909 803e d372 673e 82e3 c63e
00000010: 2bdb e63e 2691 73bc 01fa 0c3f 8a9f 503d
00000020: 7e81 bbbe f6a8 20bf 82f1 10bf 5fb8 4ebd
00000030: efb8 1ebf f601 93be 9b71 143f bfb6 c6bd
00000040: a31f 34bf 16d4 1c3d e417 a13e 6881 c6be
0.3499131 0.2500737 0.22602396 0.3884545 0.45089087 -0.014866149 0.55068976 0.0509334
-0.36622232 -0.62757814 -0.5661851 -0.0504688 -0.62000936 -0.28712434 0.5798585 -0.09702825
-0.70360774 0.0382882 0.3146354 -0.38770604

bias f4 [10]
00000000: 2d27 233f 15de fc3e 2d1e 893e 0741 4d3e
00000010: 99e2 953d 07d8 c53e 36af 0cbe 949a e83d
00000020: c745 323f d328 c03e
0.6373165 0.49388185 0.26780835 0.20044337 0.07318611 0.38641378 -0.13738713 0.113576084
0.6963772 0.37531146

weight f4 [20, 10]
00000000: d85f acbd 7f15 95be f273 853e 634d f0bd
00000010: 3356 67bd 22aa ffbd fc1b 75be df00 393d
00000020: 2d3a 90be c2d1 e43d 92d6 113d 2193 723e
00000030: ad53 4c3e 7ec5 273e 2804 903e af37 a03e
00000040: 0a32 86be 0a29 1a3e 8382 8c3d 12ec a3be
00000050: 7ef9 80be df1c b5bc 7f17 73be 8467 90bd
00000060: 9453 49be 1498 0abe 5501 053e 9ad6 20be
00000070: 01eb 423e 7217 1d3e 46e0 29be 0051 ce3b
00000080: 508a f5bc b09d 31bd e0c5 29bd 306f 863d
00000090: 3f11 16be 9698 303e b531 26be 7dbe 16be
000000a0: 6efd 28be ee95 d8bd 401e 183e 30e4 1e3e
000000b0: ca6b dabd ac1e e1bd 1980 0abe ec2b 00be
000000c0: 444c 8e3d 94fa 69be 53a9 a43d 588c 3dbe
000000d0: 1f93 143d add3 303d af13 03be 94bd ffbd
000000e0: 2d20 343e e98e 73bd 7660 553e 1d0c c93d
000000f0: 7609 c9bc acfa 8a3e afc8 873e 9f38 28be
00000100: 6267 96be df17 56be 77a1 863e 3ace 283d
00000110: e4ae 1fbd b61d cb3d 2781 d53d 4207 17bc
00000120: d640 213b dd90 85bd e18a a53c 7391 523e
00000130: 46b0 953e f0d9 50be 17d2 723e f1d9 4dbd
00000140: 2875 4c3d 44c6 89bd 1b42 a13c 10b9 b83d
00000150: e012 1b3e d281 a5bd 19ba b8bd 3465 91be
00000160: c4c5 6fbe 8426 58bd 756e 83be a773 913e
00000170: 4205 31bd 7966 37be 1d70 8b3e f1b1 f7bd
00000180: b940 6bbe a466 b4bd 23bb 44be 00e4 8f3e
00000190: 2883 29be 1e1e 42be 97e2 23be dc7e 65be
000001a0: 8431 9bbb 4a03 04bd 47c1 7e3d 89cb 66bd
000001b0: 1b93 45be a12c 923d cffb 9abe 050a f33d
000001c0: e968 3a3e 4b38 94bd 2403 e23d ab5f b53d
000001d0: 2ba4 afbd 8020 3a3e bf59 7d3d c3e4 b73d
000001e0: 7409 8abe 70a5 66be 2041 793e 37aa 113e
000001f0: a7fc 71bd dab3 f13d 9813 e2bd 9bf5 87be
00000200: 2feb 7d3e 2a97 973e 82e3 cd3c 635a 57bb
00000210: 7a5b 8f3e 2890 fe3d 8fe8 45bd fe01 e2bd
00000220: decc 92be 0792 5a3c e7e2 783e d99d 523b
00000230: ac44 ad3c 44b6 5d3e 6643 94be 85c2 dfbd
00000240: d0b8 5cbd 9462 86be a056 9ebd 2a83 073c
00000250: 0a1c 24be 90f5 963c 466e b5bc f75e 993d
00000260: 86e6 813e 20f8 363e 9d7b a03e bb5e 673d
00000270: eb34 c43d c4ef 923d f5c4 bd3c 1080 45be
00000280: 7f59 3fbd 79aa 423e e2ab 8c3e e1d3 1bbd
00000290: 9142 ac3d e782 84bd 9973 04bd 0a51 783d
000002a0: 6b14 743e 1c95 09be 08e0 963d 0635 c13c
000002b0: cb9b 0fbe 4ec1 773e 522d 3bbd 8081 823d
000002c0: e9a6 6abe 4ed2 88be aee9 e43d 9aa3 353e
000002d0: e2e6 54be 84f3 e43d 3595 89be 54be 69be
000002e0: c24c 53be 0081 d83d f88c bf3d 0c15 31be
000002f0: 97a6 6cbe f01f 6bbd c551 bf3d 2de0 633d
00000300: 2540 7cbe 490c 0d3c 3b6c 7ebe 3c6d 2cbd
00000310: 45ff 4f3e c61e 97be 90ba acbc bddb 9bbe
-0.08416718 -0.29117963 0.26065022 -0.1173351 -0.05647869 -0.12483622 -0.23936456 0.045166846
-0.28169385 0.11172821 0.03560502 0.23688938 0.19953795 0.16383931 0.2812817 0.31292483
-0.26210052 0.15054718 0.06860831 -0.32016045 -0.25190347 -0.022108493 -0.23739432 -0.07050994
-0.19660789 -0.13534576 0.1298879 -0.15706864 0.1903496 0.15340975 -0.1658946 0.006296277
-0.02997318 -0.043363273 -0.041448474 0.06564176 -0.14655016 0.17245707 -0.16229899 -0.14721103
-0.16502926 -0.10575472 0.1485529 0.15516734 -0.106650904 -0.10992178 -0.13525428 -0.12516755
0.0694814 -0.22849494 0.080401085 -0.18510568 0.036273118 0.04317062 -0.12800477 -0.12487331
0.17590399 -0.05946246 0.20837578 0.098167636 -0.024540644 0.27144372 0.26520297 -0.16427849
-0.2937575 -0.20907544 0.26295063 0.041212298 -0.038985148 0.09917776 0.104250245 -0.009218039
0.0024605296 -0.06521771 0.020207824 0.20563297 0.29236048 -0.20395637 0.23712955 -0.050256673
0.049916416 -0.06727269 0.019684842 0.09019673 0.15143919 -0.08081402 -0.0901987 -0.28397524
-0.23415285 -0.052771106 -0.2567021 0.28408548 -0.043217905 -0.17910184 0.27233973 -0.120944865
-0.22973908 -0.0880864 -0.19212012 0.28103638 -0.16553938 -0.18956801 -0.16004406 -0.22411674
-0.0047361273 -0.0322297 0.062196042 -0.05634645 -0.19294398 0.071374185 -0.3027024 0.118671454
0.18204083 -0.072372995 0.11035755 0.08856138 -0.085762344 0.1817646 0.061853167 0.0897918
-0.26960337 -0.22524047 0.2434125 0.14225088 -0.05907884 0.11801882 -0.110388935 -0.2655457
0.24796747 0.29607517 0.025132898 -0.0032860271 0.2799948 0.124298394 -0.04831749 -0.11035536
-0.28671926 0.01334048 0.24305306 0.0032137542 0.02115091 0.2165156 -0.2895767 -0.109257735
-0.05388719 -0.26247084 -0.07731366 0.008271018 -0.16026321 0.01842764 -0.022147309 0.07488816
0.25371188 0.1786809 0.3134431 0.056486826 0.09580406 0.07174638 0.023165205 -0.19287133
-0.04671621 0.19010343 0.27474886 -0.03804386 0.08411134 -0.0647028 -0.032336805 0.06062416
0.23835914 -0.13435787 0.07366949 0.023584854 -0.14024274 0.24194834 -0.045697518 0.063723564
-0.22915234 -0.2672295 0.11177383 0.1773819 -0.207912 0.111792594 -0.26871648 -0.2282651
-0.2063475 0.1057148 0.093530595 -0.17293185 -0.23110424 -0.057403505 0.09341768 0.055633713
-0.24633844 0.008608886 -0.24845974 -0.04209636 0.20312221 -0.29515666 -0.021085054 -0.30441085

bias f4 [20]
00000000: 9bea 8c3e 62ed b8bd af53 7e3e 927d 1fbe
00000010: 5a5e 84be 10b8 43bd d7d0 893d eaf8 9d3c
00000020: 72b8 52be 3195 6b3e 7d63 99be a350 893d
00000030: 19e7 1dbc 8c03 4e3e 9577 15bd 2268 83be
00000040: 1128 00be e537 1bbe c496 103e dee2 5ebd
0.2752274 -0.09029652 0.2483661 -0.15575245 -0.25853235 -0.047782958 0.06729286 0.01928373
-0.20578173 0.23006131 -0.29958716 0.06704833 -0.0096376175 0.2011854 -0.036490995 -0.25665385
-0.12515284 -0.15158041 0.14120013 -0.054415576

weight f4 [4, 20]
00000000: f935 ac3d 17a3 393d 908d 34be 2813 b9bc
00000010: e48f b83d 68f0 60be dbc4 13bc ce96 bbbd
00000020: f412 19bd 1dc3 c33d 999c adbc a1c1 61bd
00000030: 5f2c ddbd 3ba5 7c3c d103 643e 2e36 47bd
00000040: 4567 9fbd 0f72 9b3d a0c3 50be 39d6 2c3e
00000050: 7810 cbbd 3b3b a1bd 5019 19be 2844 14be
00000060: e8fb b6bd 2ed0 193c 9008 5c3e 0660 e73d
00000070: b151 33be e653 53be 91e5 50bd a0cb 9fbd
00000080: 1563 56be d2df 31be 6d4f 0dbe 8588 90bc
00000090: 80f1 4f3e 529c 093b ee1b 8cbd 5c55 473e
000000a0: 67c5 f0bd 30c1 473e 35ad 583b 00df 653d
000000b0: bb20 28be 9d9c 06be 5897 02be 19e3 2d3e
000000c0: 6186 1cbe 17cb 403d e058 e7bb 8e0c c13d
000000d0: 9f09 82bb aeb9 b43d 8c8b 4c3e 8c90 7e3b
000000e0: bad7 0d3e b096 273e dc68 cc3d 4913 afbd
000000f0: b705 4b3e 2b81 4dbd ed01 023e a0bc 87bd
00000100: 968b 3c3e 8dfb fe3c a996 9c3d 699c 0a3e
00000110: e219 1abe 526d a9bd 50ef 003e b36a 15bd
00000120: 0e5f 19bd 5e28 8e3c bb95 573e 0773 43be
00000130: 5635 f8bd 6d59 16bd a82c 9a3d ba4b 933c
0.08408732 0.04532155 -0.17632127 -0.022592142 0.0901182 -0.21966708 -0.009019102 -0.09159623
-0.03737159 0.09558699 -0.021192836 -0.0551163 -0.10799479 0.015420253 0.22267081 -0.048635654
-0.07783369 0.07590114 -0.20387125 0.16878594 -0.099152505 -0.078726254 -0.14951062 -0.14479125
-0.08934766 0.009388013 0.21487641 0.11297612 -0.17511632 -0.20637473 -0.05100018 -0.0780251
-0.20936234 -0.17370537 -0.1379983 -0.017643223 0.20306969 0.0020997715 -0.06841265 0.19466156
-0.117564015 0.19507289 0.0033062224 0.056120872 -0.16418736 -0.1314568 -0.12753046 0.16981162
-0.15285636 0.04706868 -0.0070601553 0.09426223 -0.003968432 0.08824478 0.19975108 0.003884348
0.13851824 0.16366076 0.09980938 -0.085486 0.19826399 -0.050172012 0.12696047 -0.06627774
0.18412623 0.031125808 0.07645924 0.13536228 -0.15048936 -0.08272804 0.1259129 -0.03647871
-0.037444167 0.017353233 0.21053211 -0.19086848 -0.12119548 -0.036706377 0.07528049 0.017980445

bias f4 [4]
00000000: 75cd 0abe 1b50 17be e5fc 153d 1cdf 91bd
-0.13554938 -0.14776652 0.036618132 -0.07122633
