Quadrant/weights/epoch20000loss1.0207656621932983.pt (torch, 4959 bytes, 6 tensors)

weight f4 [10, 2]
000000 44 65 ac 3e e1 ed 99 3e f5 41 35 3e 8b e2 f1 3e
       0.3367101 0.300643 0.17700942 0.4724315
000010 c8 37 01 3f 26 3d 89 bd a6 42 0c 3f 18 a4 c4 3d
       0.5047574 -0.06701116 0.547892 0.09601611
000020 11 e4 da be fd 7c 22 bf 4b 75 0d bf e8 31 11 be
       -0.42752126 -0.63471967 -0.552571 -0.14179194
000030 b7 4c 37 bf 1d fc 00 be 76 a5 14 3f 43 b0 a6 bd
       -0.7160143 -0.12596174 0.58064973 -0.08139088
000040 32 03 3a bf 1e b9 e5 3c 0a 8c cb 3e f8 33 01 bf
       -0.72661126 0.028042372 0.3975528 -0.50469923

bias f4 [10]
000000 a8 13 24 3f e1 45 ff 3e 01 b5 8d 3e 32 a7 4c 3e
       0.64092493 0.49858 0.27677158 0.19985655
000010 9f a1 8f 3d 17 bb c5 3e ea 05 01 be c7 98 e8 3d
       0.07013249 0.386193 -0.12599912 0.11357265
000020 87 d5 33 3f 60 fc c5 3e
       0.7024769 0.3866911

weight f4 [20, 10]
000000 9a f8 50 bd 1d 7e 90 be 6a bc b1 3e 1f ce 26 bd
       -0.051018335 -0.28221217 0.3471406 -0.040723916
000010 7f 8e be 3b c8 4d fd bd 3a 96 71 be 60 f6 1d 3e
       0.0058153267 -0.12368351 -0.23592463 0.15426016
000020 64 cc 90 be 2b 56 82 3e 52 36 70 3d 67 6c 7d 3e
       -0.28280938 0.25456366 0.058645554 0.24748383
000030 4f 1d 42 3e 71 f7 31 3e 42 59 a3 3e 42 c0 a1 3e
       0.18956493 0.17379548 0.31904036 0.31591994
000040 6f 58 77 be 8d 3d 07 3e a4 0e 37 3d d6 77 bc be
       -0.24154828 0.13207074 0.044691697 -0.36810178
000050 bd 75 82 be ac 05 0c bd 2a 0b 73 be fb 62 90 bd
       -0.25480452 -0.034185097 -0.23734728 -0.07050129
000060 de d9 45 be 45 d2 23 be c3 b5 e1 3d 6a c9 20 be
       -0.19321391 -0.1599818 0.110209964 -0.15701833
000070 99 2d 1a 3e 32 0d 1e 3e 46 e0 29 be 00 51 ce 3b
       0.15056457 0.15434721 -0.1658946 0.006296277
000080 50 8a f5 bc b0 9d 31 bd e0 c5 29 bd 30 6f 86 3d
       -0.02997318 -0.043363273 -0.041448474 0.06564176
000090 3f 11 16 be 96 98 30 3e b5 31 26 be 7d be 16 be
       -0.14655016 0.17245707 -0.16229899 -0.14721103
0000a0 6e fd 28 be ee 95 d8 bd 40 1e 18 3e 30 e4 1e 3e
       -0.16502926 -0.10575472 0.1485529 0.15516734
0000b0 ca 6b da bd ac 1e e1 bd 19 80 0a be ec 2b 00 be
       -0.106650904 -0.10992178 -0.13525428 -0.12516755
0000c0 44 4c 8e 3d 94 fa 69 be f0 d2 93 3d 02 34 41 be
       0.0694814 -0.22849494 0.072179675 -0.18867496
0000d0 9c f2 62 3d bb ab 53 3d a9 72 19 be 95 8e 01 be
       0.05540715 0.051677447 -0.14985146 -0.12652047
0000e0 b0 68 28 3e b2 ab 05 bd 2a 56 64 3e 12 f1 17 3e
       0.16446185 -0.032634445 0.22298494 0.14838055
0000f0 da 3c 03 3d 81 4f b6 3e 05 9d 9b 3e a3 8e f3 bd
       0.032040454 0.35607532 0.30393234 -0.1189244
000100 65 ca 8f be 09 3e 15 be b0 73 a2 3e b8 62 b4 3d
       -0.28084102 -0.14574446 0.31728888 0.088078916
000110 09 ab 93 3d a6 df 0e 3e 12 d4 c0 3d cf 8d 8e bc
       0.07210357 0.13952503 0.09415449 -0.017401604
000120 22 41 dd b8 11 cf 96 bd 47 11 9f 3d bb d7 75 3e
       -0.00010550233 -0.073637135 0.07766967 0.24008076
000130 33 3d ab 3e 3e af 51 be 6f 44 8f 3e 5f c3 02 bd
       0.3344513 -0.20477006 0.27981898 -0.0319246
000140 28 75 4c 3d 44 c6 89 bd 54 f8 a0 3c 10 b9 b8 3d
       0.049916416 -0.06727269 0.019649662 0.09019673
000150 6a 87 1a 3e 3b be a5 bd 57 1d b9 bd 0c 6d 91 be
       0.15090719 -0.08092924 -0.09038799 -0.2840351
000160 0a ce 6f be 9a aa 59 bd 7b a3 86 be 0b bf 8b 3e
       -0.23418441 -0.053141214 -0.262966 0.27294192
000170 09 c3 53 bd 8a 16 3c be 96 db 91 3e ba 7e e2 bd
       -0.051699672 -0.18367973 0.28487843 -0.110593274
000180 d3 e8 5b be cf 37 ce bd 7c f4 42 be 23 93 8a 3e
       -0.21475534 -0.100692384 -0.19038576 0.2706538
000190 28 83 29 be 1e 1e 42 be 3a 95 23 be 17 7e 65 be
       -0.16553938 -0.18956801 -0.15974894 -0.2241138
0001a0 52 ee 52 bb 52 8f 03 bd 55 1f 80 3d ad ee 64 bd
       -0.0032185507 -0.032119103 0.06255976 -0.05589168
0001b0 a6 ab 45 be 52 df 94 3d 80 8a a5 be 3c 5e b4 3d
       -0.1930376 0.072691575 -0.3233223 0.08807036
0001c0 d6 9c 2f 3e d4 e3 b5 bd 7f a0 32 3e 45 80 c0 3d
       0.17149672 -0.088813454 0.17444037 0.093994655
0001d0 5b 52 8a bd 0b 13 2d 3e 1f 2f 4b 3d d4 d4 dc 3d
       -0.06753989 0.16901796 0.049605485 0.10782781
0001e0 81 15 87 be 1a 78 73 be 0a 01 89 3e f1 47 26 3e
       -0.26383594 -0.23776284 0.26758605 0.16238381
0001f0 ef cd c4 3b 74 e1 e5 3d b4 20 d6 bd 49 73 71 be
       0.0060059945 0.112246424 -0.104554564 -0.23579134
000200 1a 97 64 3e 4a 07 b3 3e 47 8d 4c 3d 0f 00 a3 bb
       0.22323266 0.349665 0.04993942 -0.004974372
000210 02 f3 a1 3e 67 97 2d 3e 3c 1e 28 bd 6b 83 07 be
       0.31630713 0.16952287 -0.04104446 -0.13233726
000220 7d 8c 99 be 04 ab 5e 3d a3 37 49 3e 24 43 f5 3c
       -0.29989997 0.054362312 0.1965013 0.029939242
000230 a9 88 ce 3c 91 57 59 3e f6 99 90 be 8e 90 c4 bd
       0.025211649 0.2122481 -0.28242463 -0.09597884
000240 d0 b8 5c bd 7c dd 87 be f4 5f 9f bd 0d 1a 70 3c
       -0.05388719 -0.26536167 -0.077819735 0.0146546485
000250 7c 8d 33 be 90 f5 96 3c 08 f8 84 bc 6f 46 b8 3d
       -0.17534441 0.01842764 -0.016231552 0.08997809
000260 b4 92 64 3e d6 97 23 3e c9 67 a3 3e bf 53 9c 3d
       0.22321588 0.1597589 0.3191512 0.07633161
000270 e8 c5 f4 3d df eb f8 3c 22 f2 2c 3d 04 aa 82 be
       0.1195181 0.03038591 0.042223103 -0.25520337
000280 c8 46 b1 bd 6e fd 38 3e 83 bb 6a 3e 06 fe c8 bd
       -0.086560786 0.18065426 0.22923093 -0.09814076
000290 88 9f d1 3d 1e 83 23 bc ca 49 9a 3c c9 79 f3 3b
       0.10235506 -0.009979991 0.018834013 0.0074302894
0002a0 b4 1d a8 3e 7a dd 1b be 9c 55 8f 3d 89 cb 60 3c
       0.32835162 -0.15221205 0.069987506 0.013720402
0002b0 a1 c0 10 be 6f a1 77 3e 5d 3b 36 bd 30 14 63 3d
       -0.14135982 0.24182676 -0.044490207 0.055439174
0002c0 5e 33 6f be 26 c0 89 be 94 91 c2 3d 70 ed 33 3e
       -0.23359439 -0.2690441 0.09500423 0.17571044
0002d0 e2 e6 54 be 84 f3 e4 3d 35 95 89 be 54 be 69 be
       -0.207912 0.111792594 -0.26871648 -0.2282651
0002e0 c2 4c 53 be 00 81 d8 3d f8 8c bf 3d 0c 15 31 be
       -0.2063475 0.1057148 0.093530595 -0.17293185
0002f0 97 a6 6c be f0 1f 6b bd ca fd 01 3e 8c 15 fa 3d
       -0.23110424 -0.057403505 0.12694469 0.12211141
000300 c3 04 79 be 5f 47 8d 3c 77 25 86 be 77 1b 0a 3c
       -0.24318223 0.017245946 -0.26200458 0.0084294
000310 0c b7 78 3e c3 f7 95 be 41 0d 92 3d f3 dd 9b be
       0.24288577 -0.2929059 0.07131434 -0.3044277

bias f4 [20]
000000 75 17 99 3e 57 0d c0 bd de d0 78 3e 92 7d 1f be
       0.2990071 -0.093775444 0.24298427 -0.15575245
000010 5a 5e 84 be 6d 35 26 bd 91 73 c4 3d d1 a8 de 3c
       -0.25853235 -0.040578295 0.09592355 0.027180107
000020 e0 c1 52 be 13 0c 6a 3e 21 52 99 be 3e 34 89 3d
       -0.2058177 0.22856168 -0.29945472 0.066994175
000030 f1 1e 76 bb 76 4c 4e 3e fb 31 1a bd a9 c6 84 be
       -0.0037555064 0.20146355 -0.03764532 -0.25932816
000040 7e e5 f2 bd f6 f1 1d be c4 96 10 3e 33 68 13 bd
       -0.118601784 -0.15424332 0.14120013 -0.035988044

weight f4 [4, 20]
000000 20 77 15 3d f1 0f 67 3e 63 2d 3a be 28 13 b9 bc
       0.03649056 0.22564675 -0.18181376 -0.022592142
000010 e4 8f b8 3d 3d 74 76 be 2d cd 07 3e dc 82 25 be
       0.0901182 -0.24067779 0.13261862 -0.161632
000020 94 32 19 bd be 95 2d 3d 71 93 ae bc 76 87 f9 bd
       -0.03740175 0.042379133 -0.02131054 -0.1218404
000030 27 5f 3f be cc 68 01 3e 06 2a 75 3e f1 cc 74 3c
       -0.18688641 0.12637633 0.23941812 0.01494144
000040 70 4e 55 bd 29 03 b4 3d a0 c3 50 be 18 d2 2b 3e
       -0.052076757 0.08789665 -0.20387125 0.16779363
000050 c3 e6 08 be db 7a d7 bd 8e 71 cc bd 28 44 14 be
       -0.13369279 -0.1052148 -0.09982596 -0.14479125
000060 e8 fb b6 bd c0 a6 29 3d 00 9d 6e 3e b1 5f 53 3e
       -0.08934766 0.04141879 0.23302078 0.20641972
000070 a9 53 33 be 0e b6 65 be 8b 0b 51 bd f0 9e db bd
       -0.17512383 -0.2243273 -0.0510364 -0.10723674
000080 2d 98 53 be e0 b4 5c be d3 43 09 be 1c 6e b3 bd
       -0.20663519 -0.21553373 -0.13404779 -0.08761236
000090 2c f1 88 3e 34 99 4b 3c ee 1b 8c bd 28 a8 87 3e
       0.267465 0.012426663 -0.06841265 0.2649548
0000a0 9a a0 46 be ed e2 ff 3d 7e 52 ea bc 00 df 65 3d
       -0.19397202 0.124944545 -0.028603788 0.056120872
0000b0 bb 20 28 be a0 47 23 be 6d 99 90 be b0 b2 84 3e
       -0.16418736 -0.15945292 -0.28242055 0.25917578
0000c0 56 7c 1c be 4c 2c 1a 3d 7c af e4 bb cb d9 c7 3d
       -0.15281805 0.0376399 -0.006978927 0.097583376
0000d0 27 a5 50 bc fd 11 38 bd d7 eb 3f 3e c9 b3 23 3d
       -0.012734688 -0.04493903 0.1874231 0.03996638
0000e0 5d 1f da 3d 9f 4c 18 3e dc 68 cc 3d 44 da 09 be
       0.10650513 0.14872979 0.09980938 -0.13462168
0000f0 8e af b6 3e 25 18 09 be 7f dc ea 3d a0 bc 87 bd
       0.35680813 -0.13388117 0.114678375 -0.06627774
000100 96 8b 3c 3e ff 06 45 3d 74 92 92 3d 1d 0e b9 3c
       0.18412623 0.048102375 0.0715684 0.022589738
000110 0e 1a 1a be 58 34 0c bb 59 02 01 3e e7 ee 65 3d
       -0.15049002 -0.0021393504 0.12598552 0.05613604
000120 e1 80 42 3d 76 b9 a6 3d c7 03 4f 3e 1b da 61 be
       0.04748619 0.081408426 0.20216285 -0.22055857
000130 43 a3 37 be 3e a0 34 bd a8 2c 9a 3d fe 30 0f bb
       -0.17933373 -0.04409813 0.07528049 -0.002184927

bias f4 [4]
000000 59 41 e7 bd 19 b5 0d be 0c 44 e5 bb 75 38 74 bd
       -0.11291761 -0.13838615 -0.006996637 -0.059624154
