Quadrant/weights/epoch2900loss0.0.pt (torch, 3151 bytes, 4 tensors)

weight f4 [12, 2]
-0.25347686 -0.07045248 0.38604727 0.10091162 0.009184291 -0.67838556 -0.80252904 0.22196607
0.4312453 -0.87082666 -0.29754177 0.6562331 -1.0366414 -0.011736442 0.85456 -0.03437361
0.64660597 -0.8498644 0.80032253 0.14107473 -0.38323578 -0.58623254 -0.16781908 0.60259104
00000000: b8c7 81be 6449 90bd fda7 c53e c0aa ce3d
00000010: b579 163c adaa 2dbf 8b72 4dbf 134b 633e
00000020: 2fcc dc3e 7fee 5ebf 6557 98be e4fe 273f
00000030: aab0 84bf 354a 40bc 72c4 5a3f 58cb 0cbd
00000040: f887 253f b790 59bf f0e1 4c3f e575 103e
00000050: 7b37 c4be 5613 16bf c4d8 2bbe 6843 1a3f

bias f4 [12]
0.30618617 -0.1887682 0.48573917 0.45520964 0.23805124 0.2953466 0.09714498 0.68716365
0.082032934 0.42607185 0.19603555 -0.42968807
00000000: 6fc4 9c3e 734c 41be ceb2 f83e 3d11 e93e
00000010: b4c3 733e ab37 973e f3f3 c63d f5e9 2f3f
00000020: e200 a83d 1726 da3e 8bbd 483e 1300 dcbe

weight f4 [4, 12]
0.0038380267 0.32013208 -0.5597226 -0.08782438 -0.23009294 0.18052511 -0.36262584 0.089816704
-0.281192 0.2832486 -0.0579562 0.16720118 0.013896642 -0.29110903 -0.5639605 0.28750068
-0.085280985 0.38182795 -0.012473797 -0.5980665 -0.1198116 -0.31679505 -0.40103894 0.1357709
-0.017059036 0.06763866 0.24906701 0.18030524 0.028295686 -0.18651864 0.026678454 -0.47786263
-0.05052042 -0.27325964 0.1297537 -0.46812496 -0.18886544 -0.14191903 0.2553844 -0.009293509
0.14762378 -0.42864147 -0.6183217 0.23033772 0.15099038 -0.25326735 -0.3372533 -0.0822168
00000000: 6787 7b3b 5ae8 a33e fb49 0fbf 45dd b3bd
00000010: 7c9d 6bbe 93db 383e 18aa b9be d2f1 b73d
00000020: 66f8 8fbe f605 913e 7b63 6dbd c936 2b3e
00000030: beae 633c 3e0c 95be b75f 10bf 4a33 933e
00000040: cca7 aebd f47e c33e e65e 4cbc e31a 19bf
00000050: c95f f5bd f632 a2be fa54 cdbe 8707 0b3e
00000060: 64bf 8bbc 2386 8a3d 6c0b 7f3e f0a1 383e
00000070: 5bcc e73c befe 3ebe c68c da3c 69aa f4be
00000080: 80ee 4ebd b0e8 8bbe 27de 043e 13ae efbe
00000090: f165 41be 3953 11be bec1 823e cd43 18bc
000000a0: b02a 173e e576 dbbe 554a 1ebf a7dd 6b3e
000000b0: 399d 1a3e 42ac 81be 77ac acbe 4861 a8bd

bias f4 [4]
-0.08647667 0.23667417 0.14328556 -0.24172454
00000000: ae1a b1bd b75a 723e 73b9 123e a386 77be
