Quadrant/weights/epoch4400loss0.0.pt (torch, 3151 bytes, 4 tensors)

weight f4 [12, 2]
-0.28997588 -0.05120504 0.41111574 0.1278619 0.0048367856 -0.88440776 -0.841127 0.21188806
0.4209429 -0.9208864 -0.28010228 0.7202116 -1.1654829 -0.030537274 0.9349061 -0.03010405
0.6393887 -0.8873121 0.8258924 0.16771242 -0.41117924 -0.58449805 -0.15457863 0.710533
00000000: b877 94be 60bc 51bd c37d d23e 3bee 023e
00000010: e67d 9e3b 8c68 62bf 1954 57bf 2ff9 583e
00000020: d485 d73e 36bf 6bbf 9169 8fbe ca5f 383f
00000030: 8b2e 95bf 4e29 fabc 0256 6f3f c59c f6bc
00000040: faae 233f e326 63bf af6d 533f cebc 2b3e
00000050: 1686 d2be aaa1 15bf dc49 1ebe 7ee5 353f

bias f4 [12]
0.25525007 -0.14992666 0.54692996 0.47623473 0.24562217 0.36643428 0.23957424 0.7752932
0.09485437 0.46509698 0.1472732 -0.36855438
00000000: 23b0 823e 6086 19be 9a03 0c3f 0ad5 f33e
00000010: 6184 7b3e 469d bb3e f352 753e 9d79 463f
00000020: 0243 c23d 3121 ee3e c9ce 163e 29b3 bcbe

weight f4 [4, 12]
-0.033155564 0.3462965 -0.7208736 -0.12518497 -0.24574205 0.1860616 -0.42803687 0.114880465
-0.28734896 0.31084293 -0.07388739 0.17177491 0.006855203 -0.3402898 -0.6880453 0.29228815
-0.13465336 0.39397353 -0.018204143 -0.7507191 -0.15562797 -0.37612343 -0.4307722 0.14445502
-0.00096227974 0.05742285 0.24112003 0.1890337 0.011362441 -0.2120155 0.048871644 -0.5967575
-0.070298366 -0.32338634 0.13932543 -0.5140491 -0.19667603 -0.15886246 0.28233507 -0.086784534
0.16987391 -0.5471917 -0.8328532 0.23370183 0.17120975 -0.264421 -0.3315737 -0.17866214
00000000: 21ce 07bd c64d b13e 2c8b 38bf 7d30 00be
00000010: cea3 7bbe ef86 3e3e a627 dbbe 7346 eb3d
00000020: 671f 93be ce26 9f3e 4652 97bd c3e5 2f3e
00000030: 9ca1 e03b 773a aebe bd23 30bf cba6 953e
00000040: 92e2 09be e6b6 c93e db20 95bc 202f 40bf
00000050: f05c 1fbe 4093 c0be 2c8e dcbe 04ec 133e
00000060: 8041 7cba 3934 6b3d 2be8 763e 0d92 413e
00000070: 8829 3a3c 971a 59be a22d 483d 19c5 18bf
00000080: 97f8 8fbd e592 a5be 53ab 0e3e b998 03bf
00000090: 7165 49be d7ac 22be 398e 903e 17bc b1bd
000000a0: 6df3 2d3e c114 0cbf de35 55bf 884f 6f3e
000000b0: 9c51 2f3e 3062 87be 07c4 a9be 35f3 36be

bias f4 [4]
-0.06443495 0.25668952 0.08820027 -0.22222573
00000000: 79f6 83bd cf6c 833e 58a2 b43d 248f 63be
