Quadrant/weights/epoch76000loss0.7448152899742126.pt (torch, 4959 bytes, 6 tensors)

weight f4 [10, 2]
0	0x3eaa8447	0.33304045
1	0x3ec4d25c	0.3844174
2	0x3e3a234b	0.18177526
3	0x3f2211d8	0.6330848
4	0x3f1ab51b	0.60432595
5	0xbd724c01	-0.059154514
6	0x3f1a37f8	0.6024165
7	0x3e16e75c	0.14736694
8	0xbefb891f	-0.49128053
9	0xbf48ca75	-0.78433925
10	0xbf176486	-0.5913776
11	0xbe775b81	-0.24156
12	0xbf50f3a4	-0.81621766
13	0x3e31c25c	0.17359298
14	0x3f1f4578	0.62215376
15	0xbcf0a6ef	-0.029376475
16	0xbf50c34a	-0.8154799
17	0x3d1dc468	0.038517386
18	0x3ee65390	0.44985628
19	0xbf29b631	-0.6629363

bias f4 [10]
0	0x3f256f81	0.64623266
1	0x3f05d80b	0.5228278
2	0x3e9b771f	0.3036432
3	0x3e5252fa	0.20539466
4	0x3d9fc200	0.078006744
5	0x3ec7ad18	0.38999248
6	0xbdba6cd7	-0.09102791
7	0x3e00f581	0.12593652
8	0x3f3c63b8	0.7358966
9	0x3eccf6ff	0.40032193

weight f4 [20, 10]
0	0xbd5f7b44	-0.054560915
1	0xbe9c04fe	-0.3047256
2	0x3ed55b2f	0.4167113
3	0xbc714a0a	-0.014727125
4	0x3bf1ae00	0.0073754787
5	0xbe185f20	-0.14880037
6	0xbe7a4bfd	-0.2444305
7	0x3e6342e2	0.22193483
8	0xbe9a9bb0	-0.30196905
9	0x3ebd7eb0	0.37010717
10	0x3e12d366	0.14338455
11	0x3ea2d443	0.31802568
12	0x3e5cabf4	0.2154997
13	0x3e856dfa	0.26060468
14	0x3ec203b8	0.37893462
15	0x3eaf0162	0.34180743
16	0xbe8ab842	-0.27093703
17	0x3e253432	0.16133192
18	0x3b4d77ce	0.0031351927
19	0xbedb361a	-0.42814714
20	0xbe826778	-0.25469565
21	0xbd105428	-0.035236508
22	0xbe730467	-0.23732148
23	0xbd90597a	-0.07048316
24	0xbe475181	-0.19464685
25	0xbe2acb3b	-0.16679089
26	0x3dcfe62c	0.10151324
27	0xbe20c37e	-0.15699574
28	0x3e0ee97f	0.13956259
29	0x3e1e05a9	0.15431847
30	0xbe29e046	-0.1658946
31	0x3bce5100	0.006296277
32	0xbcf58a50	-0.02997318
33	0xbd319db0	-0.043363273
34	0xbd29c5e0	-0.041448474
35	0x3d866f30	0.06564176
36	0xbe16113f	-0.14655016
37	0x3e309896	0.17245707
38	0xbe2631b5	-0.16229899
39	0xbe16be7d	-0.14721103
40	0xbe28fd6e	-0.16502926
41	0xbdd895ee	-0.10575472
42	0x3e181e40	0.1485529
43	0x3e1ee430	0.15516734
44	0xbdda6bca	-0.106650904
45	0xbde11eac	-0.10992178
46	0xbe0a8019	-0.13525428
47	0xbe002bec	-0.12516755
48	0x3d8e4c44	0.0694814
49	0xbe69fa94	-0.22849494
50	0x3d9706f7	0.07374375
51	0xbe2efbab	-0.17088191
52	0x3d80ba84	0.06285575
53	0x3d3302fa	0.04370401
54	0xbe3a3328	-0.18183577
55	0xbe0b28c5	-0.13589771
56	0x3e3b2da2	0.18279126
57	0xbcdcc7bb	-0.026950708
58	0x3e805cf9	0.25070933
59	0x3e47ffd4	0.19531184
60	0x3de12f82	0.109953895
61	0x3ef4c6ec	0.47808015
62	0x3ea76b2a	0.32698947
63	0xbda7b721	-0.08189226
64	0xbeb47cab	-0.35251364
65	0xbe122a4b	-0.14273946
66	0x3ebdba4f	0.37056205
67	0x3de4a4e3	0.11164262
68	0x3e1731b4	0.14765054
69	0x3e11e66d	0.14248057
70	0x3dcf9a25	0.101368226
71	0x3c3ea2ce	0.011635495
72	0xbc839ed2	-0.016066942
73	0xbdbd5a6d	-0.09245763
74	0x3e286266	0.16443786
75	0x3e9d4f28	0.30724454
76	0x3ecf28b6	0.40460747
77	0xbe61f972	-0.22067812
78	0x3ec3c6fd	0.38237754
79	0xbc266b42	-0.010157408
80	0x3d4c7528	0.049916416
81	0xbd89c644	-0.06727269
82	0x3c9f700c	0.019462608
83	0x3db8b910	0.09019673
84	0x3e18bdb0	0.1491611
85	0xbda6e3ae	-0.08148895
86	0xbdb95a58	-0.09050435
87	0xbe918040	-0.2841816
88	0xbe6fe682	-0.23427776
89	0xbd5f9d2d	-0.054593254
90	0xbe84b5b2	-0.25919873
91	0x3e8c936d	0.27456227
92	0xbd4636e5	-0.048392195
93	0xbe34c787	-0.17654239
94	0x3ea1b319	0.31581953
95	0xbdbd93a8	-0.09256679
96	0xbe510a43	-0.20414071
97	0xbdc84320	-0.09778428
98	0xbe3a1776	-0.18173012
99	0x3e930a30	0.2871871
100	0xbe298328	-0.16553938
101	0xbe421e1e	-0.18956801
102	0xbe23a335	-0.15980227
103	0xbe657e17	-0.2241138
104	0xbbd071b3	-0.0063612103
105	0xbd082cb7	-0.03324577
106	0x3d7f2476	0.06229063
107	0xbd64e674	-0.05588384
108	0xbe45d295	-0.19318612
109	0x3d904c3e	0.07045792
110	0xbeadb5bb	-0.33927712
111	0x3d6d639d	0.057956327
112	0x3e354f86	0.17706117
113	0xbdbfc4e5	-0.093637265
114	0x3e8c39fa	0.27387983
115	0x3e03a90b	0.12857454
116	0xbd7c62cc	-0.061617658
117	0x3e3135d9	0.17305698
118	0x3d6bd915	0.057580072
119	0x3e28aa25	0.16471155
120	0xbe8a65e4	-0.2703086
121	0xbe8639f6	-0.26216096
122	0x3e97742c	0.2958082
123	0x3e311e95	0.17296822
124	0x3dbbbb30	0.091665626
125	0x3e097966	0.13425216
126	0xbdd5e7cd	-0.10444603
127	0xbe561a5f	-0.20908497
128	0x3e63ce50	0.2224667
129	0x3edc4a5f	0.4302549
130	0x3dcdf850	0.100571275
131	0x3cc6a040	0.024246335
132	0x3ec040f1	0.37549546
133	0x3e7b9fe5	0.24572714
134	0xbd0358c9	-0.032067094
135	0xbe0f0642	-0.13967231
136	0xbea80cec	-0.3282236
137	0x3deae06f	0.114685886
138	0x3e1681f1	0.14698006
139	0x3d6c7dab	0.057737034
140	0x3cfab1e8	0.03060241
141	0x3e4f9cb8	0.20274627
142	0xbe89b342	-0.26894575
143	0xbd918e67	-0.07107239
144	0xbd5cb8d0	-0.05388719
145	0xbe884182	-0.26612478
146	0xbdc37fc0	-0.09545851
147	0x3ce85efd	0.028365606
148	0xbe530d72	-0.20610598
149	0x3c96f8df	0.018429218
150	0x3ca73896	0.020412724
151	0x3df97e16	0.12182252
152	0x3e62511a	0.2210125
153	0x3e4430b7	0.19159208
154	0x3ec1e75a	0.3787182
155	0x3de931a7	0.113864236
156	0x3df9f8be	0.12205647
157	0x3cf1b346	0.02950443
158	0x3d43d66f	0.04781192
159	0xbe9519de	-0.29121298
160	0xbd9924d4	-0.074777275
161	0x3e636173	0.22205143
162	0x3e5ed4ab	0.21760814
163	0xbde9f36f	-0.114233844
164	0x3ddf1bf7	0.10894006
165	0x3cdc1c61	0.026869
166	0x3da9d3bc	0.08292338
167	0xbb84e027	-0.0040550414
168	0x3eda1c5f	0.4259977
169	0xbe0be94c	-0.13663214
170	0x3d972d28	0.0738166
171	0x3c8407cd	0.016117001
172	0xbe166e81	-0.14690591
173	0x3e7c1db3	0.24620704
174	0xbcff5ea9	-0.031173067
175	0x3d88c9ac	0.06679091
176	0xbe6db09d	-0.23211904
177	0xbe8c8ad3	-0.27449664
178	0x3dc89058	0.097931564
179	0x3e2fd9c8	0.1717292
180	0xbe54e6e2	-0.207912
181	0x3de4f384	0.111792594
182	0xbe899535	-0.26871648
183	0xbe69be54	-0.2282651
184	0xbe534cc2	-0.2063475
185	0x3dd88100	0.1057148
186	0x3dbf8cf8	0.093530595
187	0xbe31150c	-0.17293185
188	0xbe6ca697	-0.23110424
189	0xbd6b1ff0	-0.057403505
190	0x3e2e6fee	0.17034885
191	0x3e517bdd	0.20457406
192	0xbe779661	-0.24178459
193	0x3cbd1f02	0.023086075
194	0xbea90bd9	-0.33016852
195	0x3c213ea6	0.009841597
196	0x3e954f41	0.29162028
197	0xbe95655d	-0.29178897
198	0x3e12c59e	0.14333197
199	0xbe9bf975	-0.30463758

bias f4 [20]
0	0x3ea284b0	0.31741858
1	0xbdb18044	-0.08667043
2	0x3e772b29	0.24137558
3	0xbe1f7d92	-0.15575245
4	0xbe845e5a	-0.25853235
5	0xbce0ab47	-0.027425421
6	0x3e00381a	0.12521401
7	0x3d47d248	0.048784524
8	0xbe52f226	-0.20600185
9	0x3e71776e	0.23580715
10	0xbe996cca	-0.29965812
11	0x3d9eff77	0.0776357
12	0x3c3aad58	0.011393867
13	0x3e58d7b7	0.21176039
14	0xbd1aef72	-0.03782601
15	0xbe8116a4	-0.25212586
16	0xbdcc7159	-0.09982557
17	0xbe1bb5ba	-0.15206042
18	0x3e1096c4	0.14120013
19	0xbc71212d	-0.014717382

weight f4 [4, 20]
0	0xbcd22083	-0.025650268
1	0x3ed684ff	0.41898343
2	0xbe4031b2	-0.18768957
3	0xbcb91328	-0.022592142
4	0x3db88fe4	0.0901182
5	0xbe8d5039	-0.27600268
6	0x3e70ccfd	0.23515697
7	0xbe8f2d67	-0.27964327
8	0xbd1a6420	-0.037693143
9	0xbb7a313d	-0.003817632
10	0xbcaea967	-0.021321012
11	0xbe499a4c	-0.19687766
12	0xbe97f648	-0.29680085
13	0x3e7be115	0.2459758
14	0x3e8241b6	0.25440758
15	0x3da1f206	0.079074904
16	0xbdb01a27	-0.08598738
17	0x3dc94405	0.09827427
18	0xbe50c3a0	-0.20387125
19	0x3e090dbf	0.1338415
20	0xbe35f3a2	-0.1776872
21	0xbe5e2525	-0.21693857
22	0xbd65fb48	-0.056147844
23	0xbe144428	-0.14479125
24	0xbdb6fbe8	-0.08934766
25	0x3db8dfdb	0.09027072
26	0x3eb81c33	0.35959014
27	0x3e9340e1	0.28760436
28	0xbe33643f	-0.1751871
29	0xbe801165	-0.2501327
30	0xbd510cdb	-0.05103765
31	0xbe37b48d	-0.17939968
32	0xbe8533ce	-0.26016086
33	0xbe92dbaf	-0.2868323
34	0xbe077020	-0.13226366
35	0xbe246997	-0.16055904
36	0x3eae936c	0.3409685
37	0x3c006412	0.007836359
38	0xbd8c1bee	-0.06841265
39	0x3ed346fc	0.41265094
40	0xbe856764	-0.26055443
41	0x3e37b7b7	0.17941175
42	0xbd78af77	-0.06071421
43	0x3d65df00	0.056120872
44	0xbe2820bb	-0.16418736
45	0xbe4a7f61	-0.19775154
46	0xbee5f287	-0.44911596
47	0x3ecc2ab4	0.3987633
48	0xbe194d77	-0.14970957
49	0x3d8ea70e	0.06965457
50	0xbbdd6c5c	-0.006757302
51	0x3e3ec610	0.18630242
52	0x3d596553	0.053075146
53	0xbdfeac1d	-0.12435172
54	0x3e36a790	0.17837358
55	0x3e064f32	0.13116148
56	0x3e0bec05	0.13664253
57	0x3e201988	0.1563474
58	0x3dcc68dc	0.09980938
59	0xbe5d43d8	-0.21607912
60	0x3f078f96	0.5295347
61	0xbe8a347c	-0.26993167
62	0x3ddf36e6	0.10899143
63	0xbd87bca0	-0.06627774
64	0x3e3c8b96	0.18412623
65	0x3d954ace	0.072896585
66	0x3c164087	0.009170658
67	0xbda42bca	-0.080161646
68	0xbe1ceb8b	-0.15324228
69	0x3d1b09b3	0.037851047
70	0x3e00cb5a	0.12577572
71	0x3deac387	0.11463075
72	0x3e149e28	0.14513457
73	0x3de676a0	0.11253095
74	0x3e471c07	0.19444285
75	0xbe9b18b3	-0.30292282
76	0xbe7f053d	-0.24904342
77	0xbd6b822f	-0.0574972
78	0x3d9a2ca8	0.07528049
79	0xbd0d2d35	-0.03446694

bias f4 [4]
0	0xbdd33b67	-0.103140645
1	0xbe0a507e	-0.13507268
2	0xbc4a407d	-0.012344477
3	0xbd89f2bc	-0.06735751
