NumberDetection/weights/epoch1000loss0.0006841222057119012.pt (torch, 58255 bytes, 4 tensors)

weight f4 [8, 1, 3, 3]
0.45483908 0.0019176302 0.065088354 0.6638005 0.48344347 0.17959669 0.6096196 0.10993197
0.35767463 -0.22238076 0.012078689 -0.2722069 -0.010722369 0.29225478 -0.0319643 0.31267762
-0.15891492 0.016321816 0.68544173 0.7390054 0.607639 0.3961348 0.39870694 0.6103017
-0.27203804 0.16168638 0.45452696 -0.15290813 -0.34930736 0.109955944 -0.30376905 0.16064496
0.54197174 0.12474249 0.57287663 0.1326644 0.29586115 0.22807805 0.0632174 -0.396297
-0.28242293 -0.14161833 -0.23482856 -0.13713938 0.11626356 0.07331687 -0.14437065 0.5047888
-0.19149783 0.40600643 0.53435737 0.01600716 0.22139032 0.33287132 -0.23452628 -0.38009936
-0.31477338 -0.14859526 -0.1564419 0.18918523 0.35775828 0.083227046 0.20989908 0.77779216
1.2472144 0.9840614 1.0759689 1.2272505 1.0363798 0.503851 0.29961804 0.21997833
00000000: abe0 e83e fe58 fb3a 0b4d 853d d4ee 293f
00000010: e785 f73e 32e8 373e 0810 1c3f 0324 e13d
00000020: 2121 b73e c8b7 63be b2e5 453c b45e 8bbe
00000030: e0ac 2fbc 6ba2 953e ffec 02bd 4817 a03e
00000040: 98ba 22be 54b5 853c 1c79 2f3f 752f 3d3f
00000050: 3b8e 1b3f 2ed2 ca3e 5123 cc3e bb3c 1c3f
00000060: 9248 8bbe 1d91 253e c2b7 e83e f393 1cbe
00000070: 6ad8 b2be 9530 e13d 9e87 9bbe 1d80 243e
00000080: a9be 0a3f fe78 ff3d 0ba8 123f 2dd9 073e
00000090: 1d7b 973e 4b8d 693e 2078 813d 71e7 cabe
000000a0: bd99 90be 6504 11be e676 70be 446e 0cbe
000000b0: 971b ee3d 2827 963d e6d5 13be d739 013f
000000c0: 0218 44be 13e0 cf3e a5cb 083f 7321 833c
000000d0: 25b4 623e 1c6e aa3e a827 70be 629c c2be
000000e0: fa29 a1be 5b29 18be 4e32 20be c6b9 413e
000000f0: 182c b73e f172 aa3d c9ef 563e 631d 473f
00000100: b9a4 9f3f 73eb 7b3f 59b9 893f 8b16 9d3f
00000110: 18a8 843f 61fc 003f 8967 993e 0042 613e

bias f4 [8]
8.065605e-06 0.104908 1.1521332e-05 0.040029183 0.48074183 0.33461803 0.45630416 0.19344102
00000000: 8251 0737 01da d63d bf4b 4137 a4f5 233d
00000010: cb23 f63e 0e53 ab3e b3a0 e93e 6715 463e

weight f4 [10, 1352]
-0.0166019 0.024386771 -0.025681058 -0.004459653 -0.007399047 0.01420809 -0.002732565 -0.033975895
-0.024289733 -0.014560322 -0.02616943 -0.020128941 -0.016074525 -0.026036112 0.01739383 -0.001148082
-0.013517886 -0.00957194 0.021245949 0.005289788 0.017335195 0.03806308 -0.014611617 -0.012550612
-0.011617991 0.025033996 0.024028428 0.025797017 -0.01094445 -0.014512586 -0.040734224 -0.050497264
-0.017580776 -0.036955703 -0.04357442 -0.021590965 0.016196128 0.03355776 -0.029407896 0.0016950662
-0.014591852 -0.014399879 -0.036373984 -0.028268835 -0.054336004 -0.029959181 0.004081622 -0.0142989475
0.0012372818 -0.0044256058 -0.00019196312 -0.020947186 -0.018767547 -0.013013125 -0.019317232 0.013847697
-0.042173017 0.002854472 -0.01863221 0.034803964 -0.01518222 -0.027125586 -0.035662297 -0.020072456
0.016427996 -0.008812656 -0.015999272 -0.016534956 -0.025510503 -0.009744516 -0.051987052 0.021531437
0.046422787 -0.0113949245 -0.011219928 -0.00042194902 -0.016874742 -0.026255842 0.006062177 0.019886082
0.002929803 -0.033674713 -0.06845355 -0.06737621 0.0727831 0.03918393 -0.020975774 -0.03705675
-0.04066291 0.019566843 0.025479358 -0.001130017 -0.0029895667 -0.0275609 0.0022544456 -0.06856401
0.018094487 0.089050315 0.043521676 -0.09079584 -0.0640539 -0.012441346 0.017625991 -0.020998772
-0.0135037275 -0.0026940245 -0.0023175958 -0.035984877 -0.049143985 0.020215621 0.078179546 0.04669583
-0.041573334 -0.020443974 -0.01935874 -0.02534131 0.008855226 0.018220749 0.014600562 -0.035384167
-0.04848492 -0.018836182 0.0037618224 0.0433058 0.024595354 -0.028157292 -0.0035247635 -0.03513752
-0.015730165 -0.006633771 -0.02477359 0.019204177 0.025818491 -0.00037523312 -0.0138767585 -0.003708879
-0.053181548 0.03466819 0.034363 0.018909752 0.0059102294 -0.0053708213 -0.024459058 0.011204562
-0.020842794 0.02513926 -0.0071301553 0.005530488 -0.0077997604 -0.065767534 0.019953433 0.021730741
0.017076354 -0.038478874 0.021626001 0.015200096 0.019126076 0.022765199 -0.0059447256 0.019309055
-0.0108806 -0.006818962 -0.048970386 -0.024542242 0.025309552 0.009192534 0.008439009 0.0155096995
0.00825996 -0.0038450668 -0.023827378 0.027237786 -0.0069858213 -0.016217154 -0.020026535 0.017634636
0.0064762626 -0.0062969755 0.020011922 0.02417246 0.0134680495 0.00082263246 0.00029840873 -0.01429545
0.021511124 0.015784113 0.0061538494 0.007222745 -0.00780038 0.009876211 0.027148494 0.010358428
-0.017720602 0.032779 -0.010392148 0.015618294 0.0009073238 0.016029084 -0.023143403 -0.018752297
0.007969079 -0.028868984 0.009818474 -0.038189616 -0.021680733 0.010715088 0.022940788 -0.009592422
-0.0130218975 -0.023260482 0.009845484 -0.007990837 0.019741444 -0.031711616 -0.020351984 0.010492248
-0.021355467 0.016206957 0.0044112573 0.019912507 -0.008163648 -0.0069662263 0.014315152 0.01954893
0.025267169 -0.019519778 0.015613229 -0.024964752 0.030824099 -0.025672749 -0.021158857 -5.6856028e-05
0.014928921 -0.01142749 -0.0035111844 -0.02097829 -0.0163893 -0.007796198 0.023948785 0.0086930385
0.017559381 0.0088387085 -0.022657413 -0.013171669 -0.02504695 0.0087002255 0.024907032 0.011511124
-0.017727565 0.019063367 -0.0048187086 0.008524808 -0.013986589 -0.02012381 -0.012331738 -0.016872613
00000000: b500 88bc c4c6 c73c 1561 d2bc 4822 92bb
00000010: b473 f2bb 0cc9 683c d514 33bb 4f2a 0bbd
00000020: 43fb c6bc 6b8e 6ebc 4661 d6bc 73e5 a4bc
00000030: b9ae 83bc af49 d5bc 817d 8e3c 3d7b 96ba
00000040: 207a 5dbc a0d3 1cbc fc0b ae3c f555 ad3b
00000050: 8a02 8e3c 08e8 1b3d 9065 6fbc 15a1 4dbc
00000060: 6359 3ebc 1814 cd3c 44d7 c43c 4454 d33c
00000070: 5a50 33bc 33c6 6dbc eed8 26bd 38d6 4ebd
00000080: 8f05 90bc dd5e 17bd 177b 32bd 89df b0bc
00000090: bead 843c dd73 093d d4e8 f0bc fc2c de3a
000000a0: aa12 6fbc 78ed 6bbc e3fc 14bd 0b94 e7bc
000000b0: 6e8f 5ebd f56c f5bc 21bf 853b 2246 6abc
000000c0: 4a2c a23a ac04 91bb b549 49b9 6f99 abbc
000000d0: 66be 99bc 0135 55bc 2c3f 9ebc 73e1 623c
000000e0: 9dbd 2cbd 1812 3b3b 94a2 98bc 9a8e 0e3d
000000f0: d9be 78bc 7a36 debc a112 12bd fe6e a4bc
00000100: 0194 863c f562 10bc e810 83bc 5174 87bc
00000110: 67fb d0bc 76a7 1fbc 60f0 54bd b262 b03c
00000120: d225 3e3d c7b1 3abc cad3 37bc 0a39 ddb9
00000130: e63c 8abc 7e16 d7bc 3aa5 c63b 23e8 a23c
00000140: f001 403b 7fee 09bd 6031 8cbd 8afc 89bd
00000150: 4e0f 953d 547f 203d 63d5 abbc d2c8 17bd
00000160: 278e 26bd a54a a03c 16ba d03c 141d 94ba
00000170: 9bec 43bb 66c7 e1bc 52bf 133b 4a6b 8cbd
00000180: e43a 943c 0360 b63d c943 323d 2bf3 b9bd
00000190: b12e 83bd cad6 4bbc 6264 903c 9e05 acbc
000001a0: bd3e 5dbc 3b8e 30bb cee2 17bb e164 13bd
000001b0: 344b 49bd 3b9b a53c 991c a03d 2044 3f3d
000001c0: cd48 2abd 1f7a a7bc 3896 9ebc 9498 cfbc
000001d0: 8315 113c ae43 953c 3237 6f3c fdee 10bd
000001e0: 2098 46bd 564e 9abc e888 763b 6c61 313d
000001f0: 327c c93c 1faa e6bc b8ff 66bb 5cec 0fbd
00000200: 8cdc 80bc 1b60 d9bb fcf1 cabc 1452 9d3c
00000210: 4d81 d33c f0ba c4b9 585b 63bc aa10 73bb
00000220: e5d4 59bd 3b00 0e3d 38c0 0c3d a0e8 9a3c
00000230: 99aa c13b b7fd afbb 5d5e c8bc 5793 373c
00000240: 82be aabc d9f0 cd3c 14a4 e9bb 1939 b53b
00000250: 2295 ffbb 21b1 86bd 6275 a33c ab04 b23c
00000260: b6e3 8b3c 069c 1dbd 0329 b13c d309 793c
00000270: 4aae 9c3c 157e ba3c f9cb c2bb 062e 9e3c
00000280: 8b44 32bc 9971 dfbb 2c95 48bd d00c c9bc
00000290: fa55 cf3c 489c 163c c543 0a3c 651c 7e3c
000002a0: c954 073c 84fd 7bbb a231 c3bc c721 df3c
000002b0: 51e9 e4bb d6d9 84bc b00e a4bc 8376 903c
000002c0: d436 d43b dc56 cebb 0bf0 a33c 5305 c63c
000002d0: 18a9 5c3c eea5 573a be73 9c39 7737 6abc
000002e0: 1938 b03c af4d 813c 3ba6 c93b c7ac ec3b
000002f0: 549a ffbb d5cf 213c 8566 de3c 65b6 293c
00000300: cc2a 91bc 4643 063d d443 2abc dfe3 7f3c
00000310: 78d9 6d3a 6d4f 833c 3c97 bdbc 6b9e 99bc
00000320: bd90 023c a67e ecbc aadd 203c b76c 1cbd
00000330: cb9b b1bc 568e 2f3c 52ee bb3c 8929 1dbc
00000340: cc59 55bc c48c bebc f44e 213c 00ec 02bc
00000350: cfb8 a13c 0ae4 01bd 34b9 a6bc aee7 2b3c
00000360: a9f1 aebc 74c4 843c 4f8c 903b 8e1f a33c
00000370: d2c0 05bc f144 e4bb 198a 6a3c 1425 a03c
00000380: 18fd ce3c f1e7 9fbc a1ce 7f3c e182 ccbc
00000390: d282 fc3c a84f d2bc 5755 adbc b278 6eb8
000003a0: 6f98 743c 5e3a 3bbc e61b 66bb aada abbc
000003b0: da42 86bc 4077 ffbb 3e30 c43c 3f6d 0e3c
000003c0: b1d8 8f3c 3bd0 103c 0a9c b9bc fccd 57bc
000003d0: 432f cdbc 648b 0e3c d509 cc3c 2799 3c3c
000003e0: 6639 91bc c72a 9c3c 42e6 9dbb a3ab 0b3c
000003f0: 0228 65bc b0da a4bc 0f0b 4abc 6f38 8abc

bias f4 [10]
0.030435262 -0.00029784002 -0.0057078376 0.027386595 0.034513652 -0.00039704758 0.0025503861 -0.04407906
-0.028906124 0.002148013
00000000: 5f53 f93c 6927 9cb9 d008 bbbb da59 e03c
00000010: 305e 0d3d d32a d0b9 6124 273b 3f8c 34bd
00000020: 89cc ecbc aec5 0c3b
