NumberDetection/weights/epoch350loss0.001503132050856948.pt (torch, 58255 bytes, 4 tensors)

weight f4 [8, 1, 3, 3]
0.37938955 -0.040285755 0.0612285 0.54324573 0.3784475 0.13966316 0.51426256 0.02808748
0.3037866 -0.21550274 0.019132411 -0.26384374 -0.030338094 0.27598658 -0.037698343 0.28923178
-0.16762024 0.013648453 0.553317 0.5779238 0.49544194 0.3359056 0.28184944 0.50532067
-0.21783309 0.13585585 0.36915943 -0.11631133 -0.31312838 0.06577274 -0.27222076 0.110588625
0.44564173 0.08202118 0.4735713 0.079568155 0.2583175 0.18540947 0.042225383 -0.36255905
-0.24949287 -0.1135878 -0.20285214 -0.11977771 0.12879118 0.0847009 -0.16856825 0.4256959
-0.16933136 0.34592056 0.43446803 -0.004075569 0.14650993 0.26593822 -0.19656508 -0.33507058
-0.26632607 -0.12869515 -0.1432526 0.19481319 0.30824354 0.039089873 0.16838951 0.611049
0.9770741 0.7928567 0.8653279 0.93241763 0.8680626 0.40957227 0.18915951 0.16591468
00000000: 593f c23e ad02 25bd bcca 7a3d 2712 0b3f
00000010: dfc3 c13e dc03 0f3e b6a6 033f b717 e63c
00000020: eb89 9b3e c0ac 5cbe 93bb 9c3c 8716 87be
00000030: 9887 f8bc 1d4e 8d3e 9469 1abd 3016 943e
00000040: a4a4 2bbe c39d 5f3c 2fa6 0d3f d0f2 133f
00000050: 91aa fd3e d2fb ab3e 924e 903e b25c 013f
00000060: a30f 5fbe cc1d 0b3e 7702 bd3e a234 eebd
00000070: 5d52 a0be dcb3 863d 8560 8bbe 4a7c e23d
00000080: 272b e43e b8fa a73d f077 f23e a1f4 a23d
00000090: 3142 843e fbdb 3d3e 86f4 2c3d 57a1 b9be
000000a0: 0f7b 7fbe b8a0 e8bd 79b8 4fbe 044e f5bd
000000b0: d6e1 033e aa77 ad3d 289d 2cbe d0f4 d93e
000000c0: 3365 2dbe 801c b13e 9872 de3e 5a8c 85bb
000000d0: b306 163e 0e29 883e 5b48 49be 5f8e abbe
000000e0: e45b 88be a9c8 03be cfb0 12be 1c7d 473e
000000f0: 19d2 9d3e b41c 203d 4d6e 2c3e b56d 1c3f
00000100: 8721 7a3f a8f8 4a3f 2186 5d3f ecb2 6e3f
00000110: 5a39 5e3f 75b3 d13e 08b3 413e 8ae5 293e

bias f4 [8]
4.8013633e-05 0.0891335 6.988754e-05 0.033819735 0.4166484 0.32165664 0.41694397 0.20791458
00000000: 3f62 4938 a08b b63d 9690 9238 9086 0a3d
00000010: f052 d53e 2eb0 a43e ae79 d53e 8fe7 543e

weight f4 [10, 1352]
-0.016602613 0.024386058 -0.025681771 -0.0044601494 -0.0073981937 0.014619635 -0.0004346751 -0.03100916
-0.02401211 -0.012999062 -0.024954312 -0.020129655 -0.016075239 -0.026036825 0.017393116 -0.0009846678
-0.011296384 -0.015401875 0.009119043 0.009823208 0.02238996 0.031558193 -0.007878118 -0.010107951
-0.015564938 0.02516572 0.024027715 0.025805738 -0.0058481065 0.0032651825 -0.026773188 -0.043013927
-0.013470083 -0.021681467 -0.0404946 -0.015393326 0.011364198 0.02804022 -0.027992796 0.0017038599
-0.014552771 -0.009118318 -0.020171667 -0.016733 -0.048845693 -0.026484387 0.013681689 -0.009275806
0.006672494 -0.012670082 0.0015974902 -0.018173633 -0.018757137 -0.012996647 -0.018988414 0.015930386
-0.040647317 -0.00173447 -0.015952175 0.039925184 -0.016109813 -0.02251677 -0.036040436 -0.016153544
0.017563146 -0.0088124145 -0.016002895 -0.016898034 -0.026192429 -0.008668554 -0.057633605 0.015726475
0.040139508 -0.007892712 -0.006159352 0.0011220239 -0.01666917 -0.026193894 0.006061666 0.019863421
0.0027718868 -0.03307876 -0.061987083 -0.064653136 0.058774125 0.034521557 -0.02022754 -0.023643916
-0.039144613 0.019649178 0.025478318 -0.0011305918 -0.0029392415 -0.026222246 0.007260046 -0.059280135
0.012323683 0.07227156 0.04583777 -0.08571203 -0.052921202 -0.011733166 0.017773518 -0.020990944
-0.0135043375 -0.0009051879 0.006665925 -0.023666132 -0.0417816 0.021685617 0.059214745 0.044131055
-0.043160386 -0.020477025 -0.0201706 -0.025037874 0.008932504 0.018220143 0.015687415 -0.028176006
-0.04616076 -0.0146724805 0.008908506 0.037458222 0.012646614 -0.037376616 -0.01141834 -0.036148347
-0.015585105 -0.0066590314 -0.024774179 0.018777752 0.023691233 -0.0038618438 -0.017708465 0.0030096867
-0.04196297 0.02575505 0.012297609 0.01331627 0.0123119475 -0.005365166 -0.024559595 0.011204532
-0.021516988 0.020506827 -0.009705476 0.0089962175 -0.005640363 -0.04634748 0.017013874 0.008307034
0.01824623 -0.024620496 0.021625288 0.015199455 0.01912674 0.022728924 -0.005896331 0.02079662
-0.005820146 -0.0034870808 -0.042003687 -0.015864791 0.025388043 0.012577355 0.012079925 0.015509059
0.00825932 -0.0043066456 -0.024291761 0.026773402 -0.0074475273 -0.01668152 -0.020485062 0.01718905
0.0073689297 -0.007117007 0.019950615 0.024361385 0.013005423 0.0003627909 -0.0001611885 -0.014758093
0.021054119 0.015324178 0.0050442494 0.0041358275 -0.0072497334 0.009562899 0.024825761 0.011855621
-0.018038893 0.031144561 -0.010906921 0.015155651 0.00044788554 0.015586445 -0.021102447 -0.013991272
0.012129753 -0.026131472 0.013549871 -0.037114155 -0.019936483 0.008648132 0.02251735 -0.009369246
-0.013479491 -0.023724383 0.008957377 -0.009230158 0.02025927 -0.027929276 -0.019634113 0.01214895
-0.017978532 0.0190959 0.005054416 0.021147422 -0.007864838 -0.0074234223 0.013852646 0.019073932
0.02476979 -0.02043834 0.015306847 -0.02167144 0.029569916 -0.024228731 -0.020127956 0.00040886173
0.014367726 -0.01192592 -0.0039721364 -0.02144328 -0.016855793 -0.0084396675 0.02325608 0.009741934
0.017812096 0.0092743095 -0.019994084 -0.010766655 -0.0253992 0.008169199 0.024442555 0.011048481
-0.018192373 0.018589875 -0.005247224 0.008184479 -0.0128530655 -0.020182738 -0.011760547 -0.015071579
00000000: 3402 88bc 45c5 c73c 9462 d2bc 7226 92bb
00000010: 8c6c f2bb 3287 6f3c 1be5 e3b9 ec06 febc
00000020: 0bb5 c4bc 05fa 54bc fc6c ccbc f2e6 a4bc
00000030: 38b0 83bc 2e4b d5bc 027c 8e3c f80f 81ba
00000040: 7814 39bc 2558 7cbc 0a68 153c 85f1 203c
00000050: 266b b73c 2a43 013d 3913 01bc d29b 25bc
00000060: 1504 7fbc 5728 ce3c c5d5 c43c 8e66 d33c
00000070: 79a1 bfbb acfc 553b 7253 dbbc 5f2f 30bd
00000080: 9fb1 5cbc 559d b1bc aadd 25bd 4a34 7cbc
00000090: e730 3a3c 9ab4 e53c 2651 e5bc 0d54 df3a
000000a0: bf6e 6ebc ff64 15bc 0d3f a5bc a513 89bc
000000b0: 6c12 48bd c9f5 d8bc 2a29 603c 8df9 17bc
000000c0: f0a4 da3b 2d96 4fbc e062 d13a dfe0 94bc
000000d0: 91a8 99bc e3ef 54bc 978d 9bbc 7180 823c
000000e0: cd7d 26bd 2857 e3ba 23ae 82bc 9788 233d
000000f0: baf8 83bc 1775 b8bc 239f 13bd 7054 84bc
00000100: 96e0 8f3c f261 10bc 8118 83bc bf6d 8abc
00000110: 8191 d6bc 8d06 0ebc 3711 6cbd cfd4 803c
00000120: 5369 243d 6f50 01bc 64d4 c9bb e010 933a
00000130: c98d 88bc 9494 d6bc f1a0 c63b 9db8 a23c
00000140: 8ba8 353b 987d 07bd 2be6 7dbd dd68 84bd
00000150: 23bd 703d 7a66 0d3d 3ab4 a5bc e3b0 c1bc
00000160: 1a56 20bd 50f7 a03c e8b7 d03c 5e30 94ba
00000170: 4aa0 40bb 09d0 d6bc aee5 ed3b bacf 72bd
00000180: 46e9 493c 1d03 943d 63c0 3b3d ca89 afbd
00000190: e7c3 58bd 773c 40bc c599 913c 33f5 abbc
000001a0: 4c41 5dbc 224a 6dba d56d da3b 7adf c1bc
000001b0: 2f23 2bbd 09a6 b13c 298b 723d c4c2 343d
000001c0: f2c8 30bd 6fbf a7bc d03c a5bc 3a1c cdbc
000001d0: a359 123c 6942 953c e582 803c 5ed1 e6bc
000001e0: 1113 3dbd d864 70bc fbf4 113c cb6d 193d
000001f0: be33 4f3c 3918 19bd fd13 3bbc 4a10 14bd
00000200: ab58 7fbc 0134 dabb 38f3 cabc cdd3 993c
00000210: 1e14 c23c fd16 7dbb 5811 91bc 2a3e 453b
00000220: 5de1 2bbd 41fc d23c e97b 493c 7c2c 5a3c
00000230: 0db8 493c 46ce afbb 3431 c9bc 3793 373c
00000240: 6544 b0bc effd a73c b803 1fbc df64 133c
00000250: cbd2 b8bb dbd6 3dbd ae60 8b3c 3a1a 083c
00000260: 1e79 953c ecb0 c9bc 8427 b13c 2307 793c
00000270: aeaf 9c3c 0232 ba3c 0236 c1bb ac5d aa3c
00000280: ecb6 bebb 8287 64bb 0f0c 2cbd e1f6 81bc
00000290: 96fa cf3c 4011 4e3c e1ea 453c b519 7e3c
000002a0: 1952 073c c31e 8dbb 84ff c6bc e553 db3c
000002b0: 630a f4bb afa7 88bc 4ad0 a7bc 0dd0 8c3c
000002c0: 1077 f13b c835 e9bb 796f a33c 8791 c73c
000002d0: b314 553c f834 be39 b504 29b9 eecb 71bc
000002e0: b079 ac3c 4312 7b3c 3b4a a53b d685 873b
000002f0: 2c8f edbb b5ad 1c3c 655f cb3c 143e 423c
00000300: 4dc6 93bc e122 ff3c f1b2 32bc 684f 783c
00000310: 2ed2 ea39 4a5e 7f3c 0adf acbc a63b 65bc
00000320: dfbb 463c ab11 d6bc 4700 5e3c 0305 18bd
00000330: d651 a3bc e5b0 0d3c 4e76 b83c 7781 19bc
00000340: 15d9 5cbc a359 c2bc f6c1 123c 173a 17bc
00000350: c5f6 a53c f0cb e4bc b8d7 a0bc 640c 473c
00000360: b747 93bc 016f 9c3c 849f a53b 5c3d ad3c
00000370: 85db 00bc 2e40 f3bb 35f6 623c ef40 9c3c
00000380: 04ea ca3c 4e6e a7bc 92c9 7a3c 4e88 b1bc
00000390: 9c3c f23c 557b c6bc 62e3 a4bc 7e5c d639
000003a0: 9c66 6b3c ef64 43bc b228 82bb d1a9 afbc
000003b0: 2915 8abc 8846 0abc 8983 be3c a29c 1f3c
000003c0: acea 913c 46f3 173c a2ca a3bc a066 30bc
000003d0: fc11 d0bc 1bd8 053c c13b c83c b004 353c
000003e0: 2c08 95bc cb49 983c e8f0 abbb 3118 063c
000003f0: aa95 52bc 4556 a5bc 4faf 40bc c9ee 76bc

bias f4 [10]
0.025664262 -0.003928777 -0.0039668614 0.03150226 0.030834962 -0.0061566145 0.002001201 -0.03443045
-0.029094486 0.0050586034
00000000: dc3d d23c f8bc 80bb 72fc 81bb 8408 013d
00000010: 9a99 fc3c 6dbd c9bb 9526 033b f206 0dbd
00000020: 8f57 eebc a4c2 a53b
