weights/weight_45_0.006.npz (npz, 109572 bytes, 3 tensors)

filter f8 [8, 3, 3]
0	0x3fe3b1f44a99abbe	0.6154729325329453
1	0x3fda2f38aebd2594	0.4091321665224197
2	0xbfb30f7c6014b088	-0.0744550451824485
3	0x3fc1089f5221a4e8	0.1330756331474625
4	0xbfd06844940c1316	-0.2563640065930469
5	0x3f9f23d7b7cee868	0.030410166353000895
6	0x3fccd67fd24c0eea	0.22529599922574245
7	0x3fd9ee042a2c2572	0.40515236013796774
8	0x3fe56f04cfe1fa19	0.6698020992478774
9	0x3fe22381483b7a51	0.5668341074741169
10	0x3fbc2d021d6e2ff3	0.11006177156940548
11	0xbf783f5627ff98b4	-0.005919777438952934
12	0x3fb53a02ebf48dd0	0.08291643391253634
13	0xbfa79444c9e2f1f6	-0.04605307545122976
14	0xbfb1d55471bb344f	-0.06966140534059771
15	0x3fa2a1096f2d13b4	0.03638486368303209
16	0x3fc337d779397ae3	0.15014165324369974
17	0x3fe2b431d5547d09	0.5844964186289029
18	0x3fb2715da07025a0	0.07204232375092667
19	0x3fca8289a2581f27	0.20710869242633942
20	0x3f87d71721840cfc	0.01164072104484725
21	0x3fc0018f059fdc47	0.12504756712562168
22	0xbf990e510a2c642c	-0.024468675847945473
23	0xbfa3cd31c07c8d32	-0.03867488360108452
24	0x3fb52238021fbe49	0.08255338718276407
25	0x3fd2ff74ab566557	0.29684178096939234
26	0x3fcdb7b027338d4f	0.23216821588639866
27	0x3fd7970655909b47	0.368592818793719
28	0x3fd6dd23e9b3898c	0.3572473318328313
29	0xbfd6d0f864fef41a	-0.35650453436739016
30	0x3f70725084c0c151	0.004015268827103861
31	0x3fbf6af78f02a03b	0.1227259372850548
32	0xbf88261913b5b7ef	-0.011791416086193577
33	0x3f8a3c0711277822	0.012809806071285183
34	0x3fcaf24d1ab8af74	0.2105194454646796
35	0x3fd71ec74da5f32b	0.3612535723003016
36	0x3f8dd999d6946d5d	0.014575197087245579
37	0x3fc71deea0e36829	0.18060095649599475
38	0xbfa3c8848e22f3e2	-0.03863920435967551
39	0x3f95b415c0a6954f	0.02119478214594511
40	0xbfc9192385e50865	-0.1960796741278187
41	0x3fbe823771a2c23c	0.11917444729147858
42	0x3fa63d26dc7a40d4	0.04343530122162212
43	0x3fb922236ed9e85d	0.09817716080024881
44	0x3fba448017a11459	0.10260773255238699
45	0x3fe0481313b77693	0.508798159131134
46	0x3fdec72f4c8afb30	0.4809072730530941
47	0xbfe35f6a4cf4f871	-0.6053973677696957
48	0x3fd0832f60686094	0.2580069009286572
49	0x3f80254b20d2e280	0.007883631648256229
50	0xbfac8acc3250c3cd	-0.05574644197657328
51	0x3fa3e5af834c7b96	0.03886173703926159
52	0x3fd5f033892267eb	0.34278572456389494
53	0x3fe98d64d4fbc8ea	0.7985099944910676
54	0x3fd1430b996754fa	0.26971712094139344
55	0x3fbddb840cde74ba	0.1166307956140881
56	0x3fb4163502010f65	0.07846385287217357
57	0x3f9ac7332a24612e	0.026150512168073785
58	0xbfba108dbdad8c12	-0.1018150890427452
59	0xbf9110111ef62044	-0.016662852778182705
60	0x3fa92e0f65515039	0.04917953597819786
61	0x3fbe8064656964e7	0.11914660907622797
62	0x3fd7f4d02c1738f5	0.37431721025212933
63	0x3fce5affa02f7d08	0.23715205499227232
64	0x3fd671e6bcb82e0c	0.35070198468812985
65	0xbfbcaf10e0654a86	-0.11204629400644181
66	0x3fbc5f70097aacf6	0.11083126288820097
67	0x3f8624685c3560dc	0.010811629594784149
68	0xbfaa30b577347593	-0.051152869035131186
69	0xbfa4cbbc10a11b84	-0.04061687186236099
70	0x3fbcf6855aa8efb1	0.11313661063553472
71	0x3fce14685772ffcc	0.23499779005032762

weights f8 [1352, 10]
0	0xbf8b9aeff740c91b	-0.013479113324227179
1	0x3fa5ad39b63aaa5b	0.04233723020054888
2	0xbf9f17abc98cecac	-0.030363735367455888
3	0xbfabf76ed6f84895	-0.05462213873046654
4	0x3f9bba148c5e2ae0	0.02707702738511386
5	0xbf9083b991d5b5f2	-0.016127490545320762
6	0x3f78271533b2db2a	0.005896647281750581
7	0x3f96ebaa67d2e6ea	0.022383368098167468
8	0xbf926370f205aa9c	-0.017957463046892927
9	0x3fa22a2d932b2db4	0.035478042807507576
10	0xbf8325a9357f0545	-0.009349176354478525
11	0x3f9abcf006a352c7	0.02611136475100542
12	0xbf91a72673f15bd6	-0.01723918993624437
13	0xbfa18723ddfb2fad	-0.03423416218501472
14	0x3f9253d512b5ebe0	0.017897919909483195
15	0xbf8223825d0aeea5	-0.008856790985525118
16	0x3f7391ba57695515	0.004777648826878496
17	0x3f8c5f978c1f9014	0.013854202235911862
18	0xbf8c6762c6b0d5ec	-0.0138690678487405
19	0x3f9789faa88bc4a8	0.022987286126355727
20	0xbf616428148ac9f8	-0.002122953683590053
21	0x3f83b2953b98fa56	0.009617963677667134
22	0xbf7401e36163b902	-0.004884613232418513
23	0xbf87dff3a880677b	-0.011657622890243627
24	0x3f834071567eefd0	0.009400258495467911
25	0xbf6adf537ba26961	-0.003280318310385486
26	0x3f6354a27b147b6f	0.0023596929028281625
27	0x3f76e43726391a8f	0.005588736941325791
28	0xbf7fec135016f50a	-0.007793498459645729
29	0x3f7ce53e005da92f	0.00705455989177954
30	0xbf81297d8507d531	-0.008379917738219863
31	0x3f984d9e15030e51	0.02373358729597747
32	0xbf90f8f1d1b7fab3	-0.016574648308955896
33	0xbfa01d7ba6704765	-0.031474937503061885
34	0x3f90503c6214c5da	0.0159310755599956
35	0xbf6f557e77619360	-0.0038249464078482925
36	0x3f6b8d3aaae88d86	0.0033632417537476393
37	0x3f8e7172fd2a82ea	0.014864824629797952
38	0xbf8dc6813f1d9e23	-0.014538774241102342
39	0x3f8f02da4eca7ddd	0.015142159966955166
40	0xbf52a1921f2c2fc8	-0.0011371542902365184
41	0x3f81cd99274d4e5d	0.008692928802395966
42	0xbf71fa440601fa5b	-0.004389062611265783
43	0xbf86f8f97675522d	-0.011217068603095981
44	0x3f7aae9796d19609	0.0065141602945906285
45	0xbf4c322a1d0b39da	-0.0008604722625820641
46	0x3f5eee2daa69508f	0.0018878408387950384
47	0x3f75248e4e7f48bb	0.005161815533897658
48	0xbf7bacb8ebc7d4d1	-0.006756517741895966
49	0x3f68f288359660d3	0.0030453358019252113
50	0xbf88d4dd2d8dc345	-0.012124755814257102
51	0x3fa3d872d83a8ce5	0.03876074685583734
52	0xbf98d99f9cf2434f	-0.02426766772674976
53	0xbfa914b53c6e7ea0	-0.04898611414614362
54	0x3f9a6afb8d593db9	0.025798731329187172
55	0xbf7b4290a752c335	-0.006655278256560139
56	0x3f764a62149cfd5d	0.005442031027825448
57	0x3f9853b9b57868b3	0.023756887150832195
58	0xbf9996c19c73cc79	-0.024989152120678846
59	0x3f9771de8889162a	0.022895314296212423
60	0xbf609e9dc76ae8db	-0.0020287591572386416
61	0x3f8ef17da1298cd6	0.015109044533522836
62	0xbf8102a815c6c74e	-0.00830584827858485
63	0xbf940649d02b3dd5	-0.019555238085386357
64	0x3f8927620dbef641	0.01228214840363784
65	0xbf7b7b6f694f403b	-0.006709513855597089
66	0x3f6ddb2c22b6051d	0.0036445486090889282
67	0x3f787a594296571e	0.005976055786410387
68	0xbf83f2cdca189fbd	-0.009740455369936169
69	0x3f80f48325baa6ac	0.008278870190525943
70	0xbf732c3f66a9746c	-0.00468086973213842
71	0x3f910b769facca09	0.01664529180124855
72	0xbf852695baa0dc98	-0.010327501066156139
73	0xbf9255f617286525	-0.017906041301192794
74	0x3f8567424ca4db4d	0.01045085712813223
75	0x3f4f250817a33e2a	0.0009504594338753437
76	0x3f660f7482f83806	0.0026929164521396513
77	0x3f835d57adfc0f75	0.009455380436982111
78	0xbf87ee7ae7d65d9d	-0.011685333442797591
79	0x3f7a625868bfb5b6	0.006441445682850702
80	0xbf8aff24780b967c	-0.013181958116045715
81	0x3fa574d853fad7cb	0.04190708184380262
82	0xbf9ecabfbfa41028	-0.030070301124411142
83	0xbfac607d16c2f893	-0.055423649815098085
84	0x3f9b624945566ce4	0.026742119652777854
85	0xbf917b7011315a7c	-0.017072440194477498
86	0x3f817a34ba950270	0.008533870643647051
87	0x3f96eafdb4dd9ba6	0.022380794681705084
88	0xbf924ad612b209d8	-0.017863602534370887
89	0x3fa27c7e3824dad0	0.036106056550513466
90	0xbf80533bff56f3e5	-0.007971256952140801
91	0x3f9acfc3282eccad	0.02618317539936459
92	0xbf928e73c2b40a0a	-0.018121536978478438
93	0xbfa16cb13ba5c765	-0.03403238156432912
94	0x3f918923c921a36e	0.01712470927342074
95	0xbf84f39085aec041	-0.010230187492055733
96	0x3f7031551f308838	0.003953297145047378
97	0x3f8bd9b7c22f7186	0.013598857511106354
98	0xbf8d48f27abd46f4	-0.014299291964252593
99	0x3f95f807fd6e805a	0.02145397648166667
100	0xbf69a96a95bfabe0	-0.0031325418221874596
101	0x3f813f3bb70086e6	0.008421389124183287
102	0xbf7a37f026a33a62	-0.006401002969325194
103	0xbf89db1270f050f9	-0.012624877997986493
104	0x3f7e775fe6d7e956	0.007438063255444346
105	0xbf6fe6a3b89c020a	-0.0038941571882562575
106	0x3f6369c96bc71c93	0.002369779014972881
107	0x3f7550aebaf2ce31	0.005203897991282556
108	0xbf812eb613ad21bc	-0.008389875865433598
109	0x3f7a6f253be1bebf	0.006453652806257259
110	0xbf801a0a44d949ca	-0.007862167574022378
111	0x3f999b033c64f45f	0.025005388795069524
112	0xbf91a5731a8fe7ef	-0.017232702728485035
113	0xbfa07bb0dd483ddd	-0.03219368649672181
114	0x3f90a6409d22d8b7	0.016259202566936106
115	0xbf6ff1e9ce54935c	-0.0038995329401977762
116	0x3f6611b5e53a34da	0.0026939919133100844
117	0x3f9098039d1057a7	0.016204887830177175
118	0xbf8d4ba33607d5fa	-0.014304423414595913
119	0x3f90b7293980d258	0.016323703894345648
120	0xbf62058e5ce4cb00	-0.002199914982292994
121	0x3f82de73134162b3	0.009213351273659276
122	0xbf7033b2b5766829	-0.003955553132437153
123	0xbf880807725c38b5	-0.011734064271447723
124	0x3f7790a380d64067	0.00575317257370509
125	0xbf5f6ef8c0664e97	-0.0019185475553954773
126	0x3f5cfc96164fa9b3	0.0017692056364873975
127	0x3f773f6676cf1c73	0.0056756975654429385
128	0xbf7d3b68cb22dc9b	-0.007136735295879461
129	0x3f672bcf431827ff	0.002828507241024347
130	0xbf895ff6f0e8455d	-0.01239006922426949
131	0x3fa3f61b1395ed3b	0.038987012997461844
132	0xbf98ae921839158b	-0.024103434303716347
133	0xbfa8fbf95742856c	-0.048797408964001615
134	0x3f99b81562254e03	0.025116285434092955
135	0xbf726fb4acdc3ab2	-0.004501062166822821
136	0x3f781adfa9c8b1f3	0.0058850037426449895
137	0x3f9906d76023b8ad	0.02444016002930798
138	0xbf9869b917f39805	-0.02384080132187451
139	0x3f95dbada1350048	0.021345818485542872
140	0xbf68804a82b86dbb	-0.00299086144310731
141	0x3f8d38c3efefecfd	0.014268427619745777
142	0xbf80f070adb5d138	-0.008271103192534754
143	0xbf92e0f1de724801	-0.01843622131543299
144	0x3f876d365d817ab9	0.01143877480370513
145	0xbf7cf53fbc2087dd	-0.007069825138417554
146	0x3f704eb5a2fedab4	0.003981313246120766
147	0x3f76017e3d911db0	0.005372517706809729
148	0xbf85551aa60c9541	-0.010416229431550962
149	0x3f8259b101cd5675	0.008960135333533995
150	0xbf770bcb88ba2bcd	-0.005626483016054129
151	0x3f90e37dff6730dd	0.016492813790862527
152	0xbf84c3346e69aebc	-0.010137948627025543
153	0xbf93c389ca745b75	-0.019300606710284513
154	0x3f84bb8a74aaf653	0.010123330769938798
155	0xbf574a0420440111	-0.0014214554112755332
156	0x3f63a8cbe5117de3	0.002399824363734858
157	0x3f86855ab9e8d6ad	0.010996540831097102
158	0xbf88403d1c5038db	-0.011841275621943861
159	0x3f787760f4ad0a7c	0.005973223432024551
160	0xbf8cef27c035a27b	-0.014128027489918473
161	0x3fa5b2ddb4fb22f5	0.04238026460877179
162	0xbfa01ba526e83a56	-0.03146091556492496
163	0xbfabd5ad7b95a71b	-0.0543646062240681
164	0x3f99f45b20890b50	0.02534620653228653
165	0xbf909e8c2f28e1ca	-0.01622981107559144
166	0x3f8658d90c59898d	0.010911651315102211
167	0x3f958a3ac5fa9c12	0.02103511651389673
168	0xbf923b5f4b37e012	-0.017804612127264426
169	0x3fa1bbf88a623382	0.03463722886326705
170	0xbf8294113363a0e7	-0.009071478253148203
171	0x3f9add5a121a0c7b	0.026235015253871268
172	0xbf9247a3ba9def3e	-0.01785140825766906
173	0xbfa1f29cddb12a8f	-0.035054113447206985
174	0x3f8ef6b4ad7b3455	0.015118991417148711
175	0xbf846c4a7299903f	-0.009972173330602739
176	0x3f8a76ea95a0f445	0.012922127429300665
177	0x3f83bf6d2273fd2e	0.009642460454868908
178	0xbf8e8036c2089542	-0.014892986103471121
179	0x3f96142da8fb964e	0.021561349333657547
180	0xbf63c92905a769c2	-0.0024152566158879016
181	0x3f7ef0c412a88915	0.007553831014350605
182	0xbf7334509ef10bc6	-0.004688563275581486
183	0xbf85681beb05f3df	-0.010452478513565509
184	0x3f7b76c0ae098990	0.006705048232648628
185	0xbf710dfd54235170	-0.004163732113927274
186	0x3f78204ef47d49d0	0.005890186708557413
187	0x3f6d3e64c7b96b90	0.00356979068400904
188	0xbf7dbc09dc0d83ad	-0.007259405626286614
189	0x3f7db3799c6955d7	0.0072512388638492275
190	0xbf7d8357169dc005	-0.007205333889814374
191	0x3f991c8aa293ad44	0.02452293984690114
192	0xbf905664486bb93f	-0.015954558296408235
193	0xbfa0654b53c42bb2	-0.03202281377351514
194	0x3f8d164030aa8a56	0.014202596173452136
195	0xbf6e6f7332d153d8	-0.003715252873500035
196	0x3f73dcfccd768aff	0.004849421987645596
197	0x3f8c5d828e7d8926	0.013850231145344848
198	0xbf8f2cd016c800c5	-0.01522219247362989
199	0x3f8f7503a8a66727	0.015359905800142194
200	0xbf569570889a7eaf	-0.0013784026108751115
201	0x3f85a56b9c05693b	0.01056942052735065
202	0xbf707241149ab093	-0.004015211315771111
203	0xbf872502dd249ff5	-0.011301061986685549
204	0x3f7a114e5feb1c7b	0.00636416068181866
205	0xbf4a905a69082afb	-0.0008106652695130939
206	0x3f6424f6dcabdcc3	0.0024590322039973202
207	0x3f75c98f3d8e0597	0.005319175274850172
208	0xbf799fe3b1ab202f	-0.006255998067622711
209	0x3f7234ee3d2b878c	0.004445009823685352
210	0xbf8de3b90ac55a30	-0.014594503060533531
211	0x3fa3ac49c9806c6c	0.038423829886789246
212	0xbf9a4a4c3d3e0cff	-0.02567404865068301
213	0xbfa98160ce753aae	-0.04981520195234644
214	0x3f9a6a2067b2b163	0.025795465783333592
215	0xbf73a2e496acecff	-0.004794018673062838
216	0x3f8b81214249de66	0.013429889522043225
217	0x3f9488defdd61a01	0.020053371661129308
218	0xbf985797f8823edd	-0.023771643202563964
219	0x3f97fabca6417916	0.02341742291206924
220	0xbf6ede55ac0a0902	-0.003768126800708705
221	0x3f8ce615050f2591	0.014110721794980548
222	0xbf813a856f366afe	-0.0084124016346343
223	0xbf921188b5d4e083	-0.01764501199542724
224	0x3f84d0735ff3137d	0.010163213124892096
225	0xbf7aa80577d0eaed	-0.00650789390516125
226	0x3f84dabc8ea73f3c	0.010182831862863055
227	0x3f6d8573ed39d7d2	0.00360367433477913
228	0xbf83d1581cbc9f09	-0.009676636101701346
229	0x3f82dae75fa80de2	0.009206588370040462
230	0xbf745a386673240d	-0.004968853295573628
231	0x3f902d1b245627b9	0.01579706582337057
232	0xbf84a73b33774402	-0.010084593303789195
233	0xbf9466809fe245b9	-0.019922265776193025
234	0x3f85962629f09c03	0.010540292887595731
235	0x3f5d2bf45f98c25d	0.0017804991206383993
236	0x3f6fcafdd51d757a	0.0038809735932960306
237	0x3f828f08b5bf44be	0.00906187824867499
238	0xbf870d8bf4ca0a2b	-0.011256307037233423
239	0x3f7854dd1cc38e24	0.00594030735030374
240	0xbf8f49a5081023d1	-0.015277184780659344
241	0x3fa297a7fce3260c	0.03631329500201383
242	0xbf88b968f487b8f5	-0.012072391474216885
243	0xbfa97b660a387862	-0.04976958155406021
244	0x3f999024047493f8	0.02496391560739039
245	0xbf986395a4356849	-0.023817384860514577
246	0x3f74b459f8e1dd49	0.005054809049503569
247	0x3f940a731e3c28c3	0.019571112366101994
248	0xbf9536a79812be14	-0.02071630349808913
249	0x3fa1b17282e0e72e	0.03455694053304935
250	0xbf82d08a0cba5c6e	-0.00918681956618014
251	0x3f9618d5659d795f	0.021579107596488508
252	0xbf736e9b919dad6d	-0.004744155588791582
253	0xbf9e486dcff6af6d	-0.029573169534770672
254	0x3f8f4329787790d5	0.015264820088255618
255	0xbf8ce56e7b889064	-0.014109480996076403

biases f8 [10]
0	0x3f97e0e1b869682e	0.02331879318294499
1	0xbfa74431fac9c6bc	-0.045442163337509694
2	0x3fa54812f32506db	0.04156550615381401
3	0x3fb210c4b4f8843c	0.07056836527091631
4	0xbf9a6cf47c64a07b	-0.025806255428648655
5	0xbf771d71017b8ca5	-0.0056433119095543926
6	0xbf7b04ef57223ed1	-0.0065965031846102066
7	0xbf9cac819406faec	-0.028001808795802427
8	0x3f90f19167015d46	0.016546508705088024
9	0xbfa4bd9cdeb8247f	-0.04050913065663852
