weights/weight_48_0.023.npz (npz, 109572 bytes, 3 tensors)

filter f8 [8, 3, 3]
0	0x3fe341e214122625	0.6017923728952083
1	0x3fd4e7ed02418492	0.3266556283979948
2	0xbfcc4d23691489f3	-0.22110407477255442
3	0x3fbca73bf439d704	0.11192679131076139
4	0xbfd438de112702d2	-0.31597091364896557
5	0xbfb02e035590e25e	-0.06320210303318549
6	0x3fd0a52bd577faed	0.2600812515883451
7	0x3fdd62cbc2e9d0ab	0.4591550258112515
8	0x3fe850d2f6d26ed7	0.7598662205450307
9	0x3fe2d07d7d0c0661	0.5879504625629118
10	0x3fb3ec0d9842be61	0.07782063453009293
11	0xbfb4189530b954f4	-0.07850010337400076
12	0x3fb3895443f91fd1	0.07631422671795397
13	0xbfb3fb7288242f47	-0.0780555326820692
14	0xbfbde9886a2d70d9	-0.11684467880462836
15	0x3fb151dee82b9053	0.06765549820153298
16	0x3fc8aaebc92bf657	0.19271609614218008
17	0x3fe4c00069614169	0.6484376962853676
18	0x3fbd620b9d246f9c	0.11477730356676691
19	0x3fcdb046e9615c74	0.2319420470764474
20	0x3f95ff065444d353	0.02148065461479416
21	0x3fc484af2f0c63c7	0.16029920384678872
22	0xbf879ecd75ca0681	-0.011533360631122537
23	0xbfa3da139cef3b07	-0.03877316752151754
24	0x3fbdf1e2e52dc8cd	0.11697214217363978
25	0x3fd4ca03fe868fa7	0.32483005386370184
26	0x3fd070708a5dbe25	0.2568627692444088
27	0x3fd84e26a1ce06c6	0.37976995278596026
28	0x3fd527c2158956a4	0.3305516443555041
29	0xbfdc0226744032df	-0.4376312384854781
30	0x3f288d34352f4918	0.0001873136739890056
31	0x3fb980f48be3f49c	0.09962395110410899
32	0xbfaf03b7cea465df	-0.06057524106490652
33	0x3fa325a62d9e63e5	0.03739661509388962
34	0x3fce65b76dbc6b93	0.23747914179042748
35	0x3fda67d0ede42d60	0.4125864337117573
36	0xbf8b3c465ce993d3	-0.013298558912717617
37	0x3fc1609810bbfa12	0.1357603151045202
38	0xbfb5f756af7f654e	-0.08580533775911656
39	0xbf7dd6f8ef1914f3	-0.007285091780038433
40	0xbfcd4bd2e073de7e	-0.2288764568290737
41	0x3fb861a6602b08ec	0.09524001930097697
42	0x3f9e5d1bf20770e5	0.029652058265001186
43	0x3fb804c4ffa43793	0.09382277718779468
44	0x3fbd16943259fe0c	0.11362577657018152
45	0x3fdee65b5956ea6b	0.48280986523210484
46	0x3fd9d8bac7ee7765	0.4038531258064409
47	0xbfe809f2861802a1	-0.7512142771739329
48	0x3fcc445a042113a7	0.220835926071371
49	0xbfa811875a9fed56	-0.047008733570658975
50	0xbfbee26f00ba654f	-0.120642602613221
51	0x3faddf87c77dccf9	0.058346026517847656
52	0x3fd91bfdf06a596b	0.39233349302357706
53	0x3fec4772e39d33d8	0.8837217755877829
54	0x3fd18efb48347796	0.2743519024969542
55	0x3fb8966c76560b8c	0.09604528321328426
56	0x3fa3a35d63d9e243	0.03835574954877476
57	0x3f9c0f6ccba79d6c	0.0274025916386597
58	0xbfbb2a44ccde8bbd	-0.1061137199563253
59	0xbf97619bed2f136f	-0.02283328662067013
60	0x3fb3f9bff2be1080	0.07802962948159298
61	0x3fc3d16877e4e75a	0.1548281274243049
62	0x3fdae467478b8910	0.4201906393701771
63	0x3fcffea8176db332	0.24995900291414724
64	0x3fd58d2beb8da3f8	0.33674142840624155
65	0xbfc46709faa7e44d	-0.1593945001511962
66	0x3fbde552c6b4f263	0.1167804465412217
67	0x3f6c202ff12165b3	0.003433316837839506
68	0xbfb2d8f33e93c4e1	-0.0736228969360755
69	0xbf90453b72c0acce	-0.015889099959321133
70	0x3fc0abb187a57021	0.13023966906882925
71	0x3fd141be7bf14e4c	0.26963770011682153

weights f8 [1352, 10]
0	0xbf8e541c5a579d95	-0.01480886603071844
1	0x3fa33b22d62c94d0	0.03756054748945703
2	0xbfa03f12c3855ddc	-0.03173121105890761
3	0xbfad5bbde4c0f8e8	-0.05734055917172204
4	0x3f9beca484e259a6	0.027269907580000606
5	0xbf8c7683deb07828	-0.013897924645842677
6	0x3f84d4f88d573a60	0.01017183476770106
7	0x3f9500d9b95770ab	0.020511056840277913
8	0xbf8fde7ccd8e8652	-0.015561080000966818
9	0x3fa3af8b3fc4d023	0.03844866898944612
10	0xbf8541c7a0dbb766	-0.010379371258263336
11	0x3f974017279513a0	0.022705423155702342
12	0xbf9290ff546ddeec	-0.018131246116779673
13	0xbfa2b640529391cf	-0.03654671676648357
14	0x3f92c11f56907b3f	0.018314828546972747
15	0xbf7cef1490d62a45	-0.007063942275076733
16	0x3f7f10f1c272a350	0.007584518788612396
17	0x3f8a7184b4b7d238	0.012911831631734136
18	0xbf89aeaea2785fbd	-0.01254021104163871
19	0x3f99d48fb7a0786c	0.02522491987485191
20	0xbf6aea540a81eb78	-0.0032855645586641856
21	0x3f7b077f05077c3d	0.006598945780267815
22	0xbf799626992698e8	-0.006246710562129311
23	0xbf8c296d5bb57b56	-0.013750891076311039
24	0x3f847c4b39ad2e11	0.010002696702620136
25	0xbf583e5b1157f9bf	-0.0014797105153544347
26	0x3f72c5b2cb0ac197	0.004583071146655369
27	0x3f74e1c396f5e67b	0.005098117849564705
28	0xbf7952bc23d98f97	-0.006182417795205362
29	0x3f82519510af2904	0.008944668361341453
30	0xbf82b617e595a7cb	-0.009136377996316633
31	0x3f962ccae0a5dca3	0.021655244790477323
32	0xbf91c0e611a600af	-0.017337412669349458
33	0xbfa0c7982cf5cf8b	-0.03277278469877761
34	0x3f90961710d15be8	0.01619754829547651
35	0xbf63557c5e28d3cb	-0.002360098749046168
36	0x3f76245a542138da	0.005405762525766822
37	0x3f8cd63384e9d94e	0.014080431455323474
38	0xbf8bf2de1b9e9176	-0.013646826951863682
39	0x3f908b3ed1d45451	0.01615617900559513
40	0xbf5096ae06d4905b	-0.0010124873618418048
41	0x3f817f10a1015ab4	0.008543138421527409
42	0xbf72cc849dee9926	-0.004589574847079702
43	0xbf870142f86686e5	-0.011232875066358125
44	0x3f79a98b7ea16762	0.006265206242540207
45	0xbf4cb60fd5e608f7	-0.0008761956521967919
46	0x3f626d57c6c724f5	0.0022494043716717546
47	0x3f7454c5063409e7	0.00496365511503647
48	0xbf7a5c2096c51ead	-0.006435515690391175
49	0x3f6920120dce15f6	0.0030670502296199454
50	0xbf8aedb6eb1b670c	-0.013148716974160667
51	0x3fa21894061033b1	0.03534376691832309
52	0xbf9a0db8d4a134f0	-0.025442970254791086
53	0xbfaa0683d38b3937	-0.05083095509836471
54	0x3f9afbf75eb7a0bb	0.02635180011375902
55	0xbf73654e5896ac4d	-0.004735284842733623
56	0x3f8181777fdbc2d2	0.00854771956389425
57	0x3f97aa2e32b057b5	0.02311012443904988
58	0xbf9875dc96d3998f	-0.02388710661480214
59	0x3f98e7f64ee0d491	0.024322365345331113
60	0xbf660c8c394c7013	-0.0026915301081214065
61	0x3f8a3d4f038f283c	0.012812249466055296
62	0xbf8365bd70d18667	-0.009471397405096128
63	0xbf962c5a25b2184c	-0.021653564978372494
64	0x3f8aa691389259e9	0.013013014353686141
65	0xbf76872697fcff36	-0.0054999835554665946
66	0x3f77302f46bcf544	0.005661186860206616
67	0x3f75d0598276a0ce	0.005325650832141272
68	0xbf81500d6757f024	-0.008453469005864696
69	0x3f844b02b5078f58	0.00990869631727491
70	0xbf75bf5f8d1a77f5	-0.0053094608753365595
71	0x3f8e8d6952be1835	0.014918158376314586
72	0xbf86dc0aa7eab495	-0.01116188359204732
73	0xbf9390bc0662b73d	-0.019106805696245777
74	0x3f8615cbf5270fbe	0.010783761424029478
75	0x3f6188a0fd1702ea	0.002140345030710801
76	0x3f70def4f11a7b3d	0.0041188781775918755
77	0x3f8304cbde45b026	0.009286492081365404
78	0xbf86af923b423940	-0.01107706302016409
79	0x3f7e7dcac9ef3d8b	0.007444183486725274
80	0xbf8db850db226af3	-0.014511710822536971
81	0x3fa302c173ecc240	0.03713039913271077
82	0xbfa0189cbe90ef9e	-0.03143777681586289
83	0xbfadc4cc248ba8e6	-0.05814207025635358
84	0x3f9b94d93dda9baa	0.0269349998476646
85	0xbf8e65f0dd67c134	-0.014842874294999399
86	0x3f8a3ba2ae12cf2c	0.012809058129597505
87	0x3f95002d06622567	0.02050848342381553
88	0xbf8fad470ee744cf	-0.015467219488444787
89	0x3fa401dbe4be7d3d	0.039076682732451996
90	0xbf826f5a6ab3a5fb	-0.009001451855925593
91	0x3f9752ea49208d86	0.022777233804061513
92	0xbf93784ca3308d1a	-0.01901359315901372
93	0xbfa29bcdb03e298d	-0.036344936145798014
94	0x3f91f66e0cfc32bc	0.01754161791091023
95	0xbf814798710ee6b7	-0.008437338781607335
96	0x3f7bb08c8a39d68a	0.006760167106781298
97	0x3f89eba4eac7b3a0	0.01265648690692861
98	0xbf8a903e5684d0bf	-0.012970435157150793
99	0x3f98429d0c83341e	0.023691610230162856
100	0xbf7197cb45db66a8	-0.004295152697261585
101	0x3f7620cbfbd69567	0.005402371226783976
102	0xbf7fcc335e661a45	-0.00776310029903599
103	0xbf8e248c242564d4	-0.014718146184053905
104	0x3f807789d69a32c5	0.008040501462596503
105	0xbf61267dc5a5957f	-0.002093549393225202
106	0x3f72d04643641229	0.004593157258800087
107	0x3f734e3b2baf9a23	0.004713278899521475
108	0xbf7bc414fb1cddf3	-0.006778795200993215
109	0x3f811688ae7133c2	0.008343761275819154
110	0xbf81a6a4a5671c81	-0.008618627832119198
111	0x3f977a300807c2b1	0.02292704628956938
112	0xbf926d675a7dedeb	-0.017995467088878597
113	0xbfa125cd63cdc5ec	-0.033491533692437375
114	0x3f90ec1b4bdf6ebf	0.016525675302416994
115	0xbf63f1e7b51bd3c3	-0.00243468528139565
116	0x3f736697f14a0c8f	0.004736512685329277
117	0x3f8f94c7c1e005cd	0.015420494655702744
118	0xbf8b78001288c952	-0.013412476125357262
119	0x3f91c0fae3efe7ac	0.017337722932985564
120	0xbf61001c50b8fb60	-0.0020752480538982904
121	0x3f828fea8cf56f0a	0.009063560892790718
122	0xbf7105f34d6306f5	-0.004156065368251073
123	0xbf881050f44d6d6d	-0.011749870734709867
124	0x3f768b9768a611c0	0.005504218521654669
125	0xbf5fb0eb9cd3b608	-0.0019342709450101987
126	0x3f61748bfcba5189	0.0021307691693641146
127	0x3f766f9d2e83dd9f	0.00547753714658175
128	0xbf7bead076202679	-0.006815733244374672
129	0x3f6759591b4fdd22	0.002850221668719081
130	0xbf8b78d0ae75e924	-0.013414030384173055
131	0x3fa2363c416b9407	0.035570033059947596
132	0xbf99e2ab4fe8072a	-0.025278736831757666
133	0xbfa9edc7ee5f4003	-0.0506422499162227
134	0x3f9a49113383b105	0.025669354218664803
135	0xbf6524e4bc404799	-0.002581068752996307
136	0x3f8269b64a719d16	0.00899069227871378
137	0x3f985d4bdd5ba7af	0.023793397317525663
138	0xbf9748d41253651b	-0.022738755815997807
139	0x3f9751c5678cbeb1	0.02277286953466157
140	0xbf6dee38f499f507	-0.0036536323939900836
141	0x3f88849552558864	0.01197163255227824
142	0xbf83538608c09051	-0.009436652319046031
143	0xbf95070233f92278	-0.02053454820841913
144	0x3f88ec658854de61	0.012169640753753432
145	0xbf7800f6eace46dc	-0.005860294838287063
146	0x3f78914ed860cd66	0.005997951497238451
147	0x3f73577e7d716757	0.004722112752540606
148	0xbf82b25a434be5a6	-0.009129243067479486
149	0x3f85b030911a3f18	0.010589961460282946
150	0xbf799eebaf2b2f56	-0.006255074159252269
151	0x3f8e3d781232e5d9	0.014765680365928556
152	0xbf8678a95bb386b9	-0.010972331152916725
153	0xbf94fe4fb9aead8d	-0.020501371105337497
154	0x3f856a141d2d2ac4	0.010456235065836046
155	0xbf2e5a318f3cd1ee	-0.00023156981444007136
156	0x3f6f5741444e3c52	0.00382578608918708
157	0x3f862cceea32775a	0.010827652475480388
158	0xbf8701546fbc147e	-0.01123300519931036
159	0x3f7c92d355dc9255	0.006975961235899127
160	0xbf8fe8ceeaf03033	-0.015580765290018039
161	0x3fa338149a84b02e	0.037537235128496924
162	0xbfa0a5b757185a04	-0.032514314061860033
163	0xbfad393289d13e82	-0.05707700664845296
164	0x3f9a0822a55cc5ac	0.025421658842963588
165	0xbf8cbe20bb912c8c	-0.014034515117734146
166	0x3f9135f7cfce3446	0.01680743413776422
167	0x3f91fd2abb392dd9	0.017567317654806878
168	0xbf8f8fcc2c281851	-0.015410990808060772
169	0x3fa34126c8d7133b	0.03760644151365119
170	0xbf84e7ecf49c074a	-0.010207987990273577
171	0x3f9751a0f9e4dd98	0.02277232671005222
172	0xbf92f0dcde78d287	-0.018496943548785196
173	0xbfa321088d06999f	-0.0373613998556721
174	0x3f8f9c4215d47ff0	0.015434757510377012
175	0xbf80cfdf186acd7d	-0.008208983357099292
176	0x3f918f2e95959c91	0.017147758369358505
177	0x3f7e02d871035f17	0.0073269324058953455
178	0xbf8bc8c1520b7757	-0.013566503826435357
179	0x3f985e7535442806	0.023797828079331416
180	0xbf6da83208b038b6	-0.0036202409005517645
181	0x3f727b583bbd19b6	0.004512161885776347
182	0xbf78439d2a37e5f4	-0.005923856664133965
183	0xbf89b07fa8e5c536	-0.012543675748676191
184	0x3f7dc457e2c9db3d	0.007267325691478641
185	0xbf63749293f8419f	-0.002374922070664989
186	0x3f81b5a39dc01328	0.008647230388314123
187	0x3f64c47ca8059bfe	0.0025350985235266235
188	0xbf7723b106800ed7	-0.005649272447047791
189	0x3f82b86ad820deca	0.00914081070014507
190	0xbf80712b04bf23ef	-0.008028350908618946
191	0x3f96f26ba2b520b7	0.02240913563335375
192	0xbf90f2f2ae7f50c9	-0.01655177297637137
193	0xbfa10ef7e9055282	-0.033317324824257546
194	0x3f8d80fa0e27a289	0.014406159932108824
195	0xbf62967134f2e2df	-0.0022690020628853692
196	0x3f7fc963e2a90fbe	0.007760420014680079
197	0x3f8903c8195ac916	0.0122142441499347
198	0xbf8d59f50cf25c96	-0.014331736047365855
199	0x3f90c420e35f5a13	0.01637317073604023
200	0xbf54d61731e8f2a6	-0.0012717463029183
201	0x3f85519e3959cbb2	0.01040958035011905
202	0xbf710e5d840fb15b	-0.004164090439172287
203	0xbf872ccf34d2ba78	-0.011315935897383542
204	0x3f78f9c93247bc93	0.006097589419808663
205	0xbf4b3f31cf89e7fb	-0.0008315079895304661
206	0x3f690f723904213d	0.0030591231262670202
207	0x3f73fe77b7f49c53	0.004881351137817696
208	0xbf784fba0f432083	-0.005935408397086064
209	0x3f724b781b207435	0.004466504253312788
210	0xbf90242768e50133	-0.015762916352515432
211	0x3fa1e24c5879499f	0.03492964344026749
212	0xbf9b22d47dc5c9cb	-0.026500053574133802
213	0xbfaa723a0db0311c	-0.05165273110478294
214	0x3f9ad703c363a4ff	0.026210840988743375
215	0xbf67e03f04ac5c85	-0.0029145460915845378
216	0x3f92e4bd851fc319	0.018450700044868904
217	0x3f91f5e696fdb8ad	0.017539599385991412
218	0xbf97378c2c1f4901	-0.02267283458042702
219	0x3f9970684083b0a9	0.024842862069747316
220	0xbf726eb9a19993c7	-0.004500126955098111
221	0x3f881e8ba47a14ce	0.011777010876594576
222	0xbf83489a60bb632d	-0.009415823056245632
223	0xbf9436b1176ff8c2	-0.01973988252211068
224	0x3f862d11d6d00c95	0.010828151100218878
225	0xbf75c801a3419c3a	-0.005317694089263242
226	0x3f8ae05b7269af62	0.013123239926435996
227	0x3f60db2465c320e0	0.002057620133289459
228	0xbf812f672a612f99	-0.00839119527895331
229	0x3f863101855dbcac	0.010835658915054523
230	0xbf771a4fd9de9030	-0.005640327375577001
231	0x3f8cc4b3e52d6f6b	0.014047055655900661
232	0xbf86261e866d2cab	-0.010814894177789766
233	0xbf95a0bab353d986	-0.021120946116718574
234	0x3f862f522af35fd6	0.010832445083380476
235	0x3f683c5b7bf7ec5c	0.0029584681321899575
236	0x3f780ff5d09ea7c9	0.0058745958466861
237	0x3f81140d2deef331	0.008339026417041847
238	0xbf85cf2437a259d7	-0.010648997257061516
239	0x3f7c6fd05204e2ee	0.006942571403037985
240	0xbf911622f1485083	-0.016686006523813034
241	0x3f9f60e8f6d56b93	0.030643119874507695
242	0xbf81baafb929fbd1	-0.00865685733628921
243	0xbfaa755607e4c934	-0.05167645307882865
244	0x3f99adcc2be2aeeb	0.025077047518307898
245	0xbf96d45f194570ae	-0.0222945079016063
246	0x3f7ae2c777215318	0.006563929711849402
247	0x3f9111a3f22dc803	0.016668855339453625
248	0xbf92c95850d13f6e	-0.01834619515676599
249	0x3fa33512d33dd155	0.03751429394370357
250	0xbf84feb2780f07ce	-0.01025142125024905
251	0x3f91f9b888874a46	0.01755417187980359
252	0xbf62bd1ba9e37c8b	-0.0022874393754218117
253	0xbfa002018ae90234	-0.031265304762659346
254	0x3f90057523fe2079	0.015645819017237692
255	0xbf8a50a42b1c758d	-0.01284912354054304

biases f8 [10]
0	0x3f99f1f4eed8ce5d	0.025337054327066223
1	0xbfa4ac7ac9bcffc9	-0.040378415228132854
2	0x3fa75950438b99b5	0.04560328316238175
3	0x3fb323519fedbe84	0.07475767282971374
4	0xbf9b82153fb3e167	-0.026863414776899044
5	0xbf84ca019289bc43	-0.01015092113922667
6	0xbf86a327a299f3a0	-0.011053380632114529
7	0xbf9bba60c7e498bf	-0.027078163338182245
8	0x3f8c9211a4768fe3	0.013950479346767913
9	0xbfa69772491ef96c	-0.04412419455137492
