weights/weight_26_1.035.npz (npz, 109572 bytes, 3 tensors)

filter f8 [8, 3, 3]
0.7023021715110168 0.6174005993357722 0.2903245792760888 0.22860371451776187 -0.16463198966122705 0.059307038714376606 0.17445364131979824 0.10867371273889301
0.14338210645444993 0.5875792356489948 0.20542452717218893 0.21323370337970257 0.16445815263811356 -0.036847779880994073 -0.09174276619966647 0.05936306350908072
-0.03609514613742084 0.2370526295747822 0.006090764686892982 0.1849345529686589 0.021763640226333664 0.055701420413171866 -0.05552768052891015 -0.0594169852735161
0.008196767140664474 0.19658842105392044 0.12007321823300877 0.43148748745263366 0.4807831591072998 -0.03170557526295004 0.08874918806903309 0.17830798783877108
0.02872933407451476 0.06253487258272958 0.12011893552102156 0.06144931101215671 0.06950993645255735 0.25663490285371676 0.059897337843600476 0.08079857837735302
-0.15246160443928233 0.11262882041484813 0.07439584602697986 0.07579790915933282 0.0007796690185202491 0.655697727033509 0.7212813166644384 -0.0922423139772961
0.4078046425131114 0.04470496128856437 -0.0059170171250760425 0.06649802572072455 0.11192126271770389 0.29218733052844054 0.2649365607898155 0.17883525532642963
0.18547482463276466 0.04941917104404204 -0.10158435086586692 -0.06994052194428291 0.02217647155034534 0.032429915075156836 0.215283330094632 0.25368920824662644
0.37916831239920573 0.00867145271418104 0.1345973333478508 0.007306613331302874 -0.0605277726239786 -0.03078592256840254 0.0884209807708903 0.08722156288737189
00000000: 5396 5167 4279 e63f b1b1 d5e6 bec1 e33f
00000010: 06cf 4d8b ad94 d23f 3d88 ccf2 e242 cd3f
00000020: 6c35 bc39 a912 c5bf 42d6 66ff 7d5d ae3f
00000030: ac7d 1136 7f54 c63f 6e00 265a 0ad2 bb3f
00000040: 8cd7 0649 585a c23f bc79 1df8 72cd e23f
00000050: b31a 00d5 594b ca3f 5bdc 35f3 3d4b cb3f
00000060: 4315 92f9 f60c c53f 5fc4 0953 b6dd a2bf
00000070: 47de 7834 747c b7bf 6147 b9e0 d564 ae3f
00000080: 83bc 6820 107b a2bf cb2c ba95 bd57 ce3f
00000090: 9c94 3432 a1f2 783f 6c4c 7378 efab c73f
000000a0: 7559 0e2c 3549 963f 05d8 0786 e584 ac3f
000000b0: 76ef c9c7 1f6e acbf ab40 2731 e76b aebf
000000c0: a0a9 6a76 77c9 803f 7274 9933 cf29 c93f
000000d0: a9ad 6f51 1ebd be3f 6281 cfb1 7d9d db3f
000000e0: b556 35ba 26c5 de3f a1e1 b591 b63b a0bf
000000f0: b894 4d4c 44b8 b63f 0309 31d0 cbd2 c63f
00000100: cbc2 24f9 386b 9d3f a633 9a10 4902 b03f
00000110: 5570 b153 1dc0 be3f 5661 51ba 4876 af3f
00000120: c28e cf37 67cb b13f d934 b1cc b46c d03f
00000130: 7abb 4f26 ddaa ae3f 8eab b133 37af b43f
00000140: 1f30 7ba2 dc83 c3bf 09d2 440c 3ed5 bc3f
00000150: b5e5 a42d 9b0b b33f a0cb f1e4 7d67 b33f
00000160: ea00 d777 568c 493f 6174 b5cc 79fb e43f
00000170: 4344 498e bc14 e73f 7000 d739 319d b7bf
00000180: db0c b0a4 7819 da3f de1a 6895 91e3 a63f
00000190: 4f55 ac30 713c 78bf 8c15 b8bd 0306 b13f
000001a0: ea7c 1933 dfa6 bc3f 6336 3b7d 32b3 d23f
000001b0: a7d8 067a b8f4 d03f 80d9 7fda 12e4 c63f
000001c0: 38b8 0399 a3bd c73f 51f3 db36 784d a93f
000001d0: 0019 c198 6e01 babf 2876 6a3e 9fe7 b1bf
000001e0: eb97 32d0 6db5 963f a5d8 5161 a79a a03f
000001f0: 81b1 1077 678e cb3f fc1c 31a9 713c d03f
00000200: 4bc8 5b2b 4b44 d83f 4e9d 87ae 56c2 813f
00000210: 5acd 6d44 7c3a c13f ece3 d614 8aed 7d3f
00000220: 84e4 d607 7ffd aebf a814 6f4a 5886 9fbf
00000230: b6f3 b0e4 c1a2 b63f 0576 1b00 2754 b63f

weights f8 [1352, 10]
-0.01160691310696185 0.031345783406926085 -0.032101911796471226 -0.045022026469674487 0.017643382622065044 -0.007422243300467521 0.000347348969373609 0.024271050851180403
-0.007333650444241116 0.03050155402699569 -0.007950660019614933 0.01830885213413662 -0.018184365969905223 -0.0273680279200796 0.011200364374271916 -0.004518356034995548
0.0009643636236976686 0.014922045853673346 -0.005058555278295487 0.019764373776742335 -0.0011605158123860523 0.00615376332719693 -0.005151099231557343 -0.008065867220281527
0.005487417871917392 -0.0009222214890023078 0.000489291863840357 0.005326544554190032 -0.003239589647476353 0.005364481116343873 -0.007063266018686977 0.016673021846609716
-0.017064709714277145 -0.02611209545963906 0.009956959404085471 -0.0008027913991744802 0.00014809496136352122 0.014874930131296838 -0.006462588285091034 0.014094109540798424
-0.00036311525222170897 0.0052938594934031835 -0.0046419946999107725 -0.0085438126168307 0.0043353868033017 0.00036495419345774566 0.000608403880564148 0.005512537018183404
-0.003538979627470299 0.0019145665700514563 -0.009389514621317582 0.026924182751679144 -0.025671681498716247 -0.03957268560985785 0.015732623168378406 -0.0037102296472582437
2.9182322645038127e-05 0.02424708676175503 -0.01049743883321558 0.0215392178014125 -0.0010579964562880543 0.009258226065846952 -0.008468175678210815 -0.014274577920915764
0.007058505187728482 -0.0031645045990661633 0.0007327748140937755 0.006805906927387973 -0.003985079150037894 0.006045773585904365 -0.00352279755473064 0.010945926174775238
-0.010721493381149026 -0.013598050783159005 0.00594691060281443 0.0014520070805144503 0.0005885791738686339 0.008953904827292586 -0.004785241517245786 0.006776860769962528
-0.011309757898780378 0.030915635050179826 -0.03180847755342639 -0.04582353755430603 0.017308474889729007 -0.008367192949624246 0.0029845723312701073 0.02426847743471802
-0.007239789931719076 0.031129567770001424 -0.006572740617277226 0.01838066278249579 -0.01906671301213933 -0.027166247299394083 0.010427153738209507 -0.005891752541526137
0.00014001194186656033 0.014666701128867803 -0.0054887793938076315 0.018231064132053287 -0.002170103950983449 0.004957188773713151 -0.006667488968464025 -0.009033122328024395
0.0035252226318938915 -0.0015360603668730464 0.0004993779759850774 0.004941705604146795 -0.003835967053264185 0.004763574030821569 -0.00654551585448947 0.017944823345701758
-0.01772276413380637 -0.026830844453298915 0.010285086411025983 -0.0008773779315239652 -0.0005211548790740326 0.016214993331676142 -0.006228237458584589 0.01527565346818886
-0.0014258759442781555 0.005814281964666562 -0.004208485221082112 -0.009060808285182442 0.0035743990824161575 -0.0006931210993556589 0.000489768678256511 0.006026419049728686
-0.00391919718145379 0.0016977380091505888 -0.00965482803132998 0.02715044889330361 -0.02550744807568284 -0.03938398042771584 0.01505017727328421 -0.0015560135575209402
0.0004721550374645843 0.02493035964023083 -0.00934908803441118 0.019989721990742903 -0.0020200987421567246 0.008417609152069865 -0.008433430592160712 -0.013155561150962372
0.006215131587795804 -0.003524815881886664 0.0010695394511256008 0.006202368847787315 -0.004660853211652702 0.006727038728912368 -0.004468410838646375 0.010793448164389246
-0.01053194094201843 -0.014992616192250863 0.005619384244620998 -0.0009199077646364158 0.0002954870854638384 0.010495065221407541 -0.0049411836963920335 0.006308638519136353
-0.01168205906229333 0.031591464317202264 -0.033281839277107726 -0.04475637624841961 0.016429172440622843 -0.0073571805310831285 0.0019285461292812436 0.02493383424776457
-0.0071531385454957274 0.02967007188108535 -0.00698525034069291 0.01864986748379393 -0.018567928225850034 -0.028175118981684868 0.009000290274950517 -0.005436069621442081
0.00506487300383503 0.012790754025961623 -0.006053638639993409 0.018350005517870593 -0.0011462781353810474 0.004180739799742351 -0.0049234267992222455 -0.0068538950277570255
0.0030422528839811605 -0.0017189703194254492 0.0023665778156942044 0.004170592678007633 -0.00269350996192296 0.005566576424449696 -0.005581466384161757 0.017571714241744262
-0.016498727965381328 -0.02665606402922181 0.008508556314493328 -0.0006025048872256017 -0.00022755052233825989 0.014964700265726083 -0.00713052894977728 0.01431681556276046
-0.00053046164518911 0.007200728677288385 -0.004316190312824887 -0.008627335557997265 0.004257819898397737 0.00043809756517909095 0.0007290591728980537 0.005962574477042697
-0.0030342630360859343 0.003315430022525828 -0.010947430313965173 0.026880499673690623 -0.02687366552863194 -0.040385121536501985 0.016505946988732336 -0.001585650042939508
0.0026874106513896873 0.02335275185127193 -0.009240878018638337 0.022076700501766855 -0.0022761768712413395 0.008413491013479409 -0.008344778236421326 -0.01235277007953684
0.005361224753699332 -0.002815862436188709 0.004324315763470004 0.005866589013077207 -0.003901653271420398 0.006982579401005212 -0.0035532895078670013 0.010180098933110105
-0.010432639821416326 -0.015609345638947641 0.00625466559877296 0.0023558260981514107 0.00029022774915188956 0.009348821362529987 -0.004345514920409675 0.00628014775801414
-0.012979566265526552 0.02828344412872222 -0.02266345296492514 -0.04224451461401876 0.015897431500576896 -0.013530673642455249 0.003703891684701708 0.02279775041382347
-0.01005654543384297 0.02959946158346296 -0.00766822316798938 0.016076096877363173 -0.012585925354122375 -0.024640372345286432 0.008685289476716372 -0.008370608003012668
00000000: 8f85 9d81 5dc5 87bf 9353 33f5 8d0c a03f
00000010: 8b1e 9c6a a96f a0bf 54e4 9286 200d a7bf
00000020: ce0b 695d 1b11 923f b0be d043 c966 7ebf
00000030: 2ee8 b876 8cc3 363f 9bdc 94a6 82da 983f
00000040: c3cd 17cd e309 7ebf b6ad 17a4 cc3b 9f3f
00000050: a87b 2086 6f48 80bf ccdb 9244 8ebf 923f
00000060: 7994 8e24 ec9e 92bf f4b3 7d43 5d06 9cbf
00000070: 64b8 8675 37f0 863f 2f8d 6ef6 d681 72bf
00000080: da73 d41c ab99 4f3f 5e90 7217 738f 8e3f
00000090: 9cbc c397 47b8 74bf fff4 fcab 1c3d 943f
000000a0: 93ed 7b5d 8e03 53bf 515a cd43 b034 793f
000000b0: 19ce ceab 5119 75bf e45f 665f d684 80bf
000000c0: 5e39 ca84 f979 763f dc7e 4591 2738 4ebf
000000d0: c796 d546 7a08 403f 932e 936a 49d1 753f
000000e0: a4ef d372 e989 6abf 547a 46ef 10f9 753f
000000f0: 5bf1 d908 5fee 7cbf ea0a 3a8e bb12 913f
00000100: 0fe1 8d48 6979 91bf 53e1 1d10 21bd 9abf
00000110: 3eaf 1078 5064 843f 6d13 0967 4d4e 4abf
00000120: 7886 1108 3e69 233f 4dbb 8d53 bf76 8e3f
00000130: eac8 4fd5 8378 7abf 5e0d 5a5c 5fdd 8c3f
00000140: b763 0a22 10cc 37bf 57f2 4c96 03af 753f
00000150: f905 caf6 7b03 73bf 0bf5 2d1e 6b7f 81bf
00000160: 8130 9288 fbc1 713f a7f9 4f53 eaea 373f
00000170: af3b 8862 a9ef 433f d89c 6063 5094 763f
00000180: 08b6 5b38 c7fd 6cbf fd0e 7b33 465e 5f3f
00000190: d87d ca51 cf3a 83bf 5559 8f51 0392 9b3f
000001a0: 239a e161 ad49 9abf b3b9 04fd de42 a4bf
000001b0: 5b33 f477 361c 903f 6326 dc5f ea64 6ebf
000001c0: d2ff 2df1 9199 fe3e 03f9 a872 3ad4 983f
000001d0: 21e7 d763 ae7f 85bf 5369 2770 600e 963f
000001e0: bf68 750b 8f55 51bf 13d2 5f11 faf5 823f
000001f0: 10f1 c14c c357 81bf ac21 ad6a fd3b 8dbf
00000200: b4fe 090f 61e9 7c3f 305d 5a78 72ec 69bf
00000210: b299 51ee f502 483f c196 c3ba 82e0 7b3f
00000220: 9830 f189 a852 70bf 49a5 49fd 73c3 783f
00000230: 3645 3789 d7db 6cbf 5c8b 8f57 d16a 863f
00000240: ff92 7d7b 26f5 85bf fd5f 397b 4bd9 8bbf
00000250: b838 d2a8 c95b 783f cde0 28bb 28ca 573f
00000260: 8386 c426 5c49 433f e3dc 3cc3 6c56 823f
00000270: f3d9 1e7d b099 73bf f948 06b6 0dc2 7b3f
00000280: eb52 6802 9229 87bf 0702 e725 59a8 9f3f
00000290: 3cb0 a765 3349 a0bf 5294 5dc6 2e76 a7bf
000002a0: c94d 6116 50b9 913f 66a8 9fa0 d122 81bf
000002b0: b270 c511 1a73 683f 5791 9ff3 d5d9 983f
000002c0: b34a c94f 78a7 7dbf c107 0bee 6de0 9f3f
000002d0: a4d4 f09f 04ec 7abf b255 1e66 61d2 923f
000002e0: b842 5173 3986 93bf 7ce3 d2fe 77d1 9bbf
000002f0: 9b27 5ee2 d45a 853f 4930 b647 f321 78bf
00000300: 2435 386c 055a 223f bc71 824d 9309 8e3f
00000310: e89e dcff 667b 76bf b3b0 df00 2aab 923f
00000320: 9bd8 f2af 09c7 61bf c173 9c3a fd4d 743f
00000330: 7a4f 0e71 5e4f 7bbf 6349 d627 f57f 82bf
00000340: bd86 487d ede0 6c3f 28f0 9542 b42a 59bf
00000350: 6b1b a009 165d 403f 33e2 4cff c03d 743f
00000360: 2b8c 5a21 9b6c 6fbf ca8f ca2a f882 733f
00000370: 73da 7c88 78cf 7abf f4f0 9bb5 2060 923f
00000380: 64ce 6591 ea25 92bf 2fce cd7d 8b79 9bbf
00000390: fcd4 2cee 5810 853f 6913 d5c2 fabf 4cbf
000003a0: 0801 b594 c313 41bf f0f3 41c8 a99a 903f
000003b0: 8538 24c3 c782 79bf 1634 9180 d748 8f3f
000003c0: 9ffe 1fa3 8e5c 57bf 531b 356e b7d0 773f
000003d0: a473 3ea6 ea3c 71bf 93db 141a 798e 82bf
000003e0: b3b5 2de5 0e48 6d3f 3166 193a 52b6 46bf
000003f0: 1bee 543a 7a0c 403f 9270 b08b 28af 783f
00000400: c9e2 887b 930d 70bf 479d 7e4e d4d0 5b3f
00000410: f5ff 2415 e9c5 83bf f519 46c8 53cd 9b3f
00000420: 616c 28dd 9f1e 9abf 7fc0 d817 232a a4bf
00000430: 5687 8099 a0d2 8e3f fc2a ded5 647e 59bf
00000440: ac29 ce71 72f1 3e3f 0149 541d 5887 993f
00000450: 147e d75a 9d25 83bf 6353 d388 2f78 943f
00000460: 4439 0841 748c 60bf 2932 2660 403d 813f
00000470: f6fa b0e4 8b45 81bf f535 3b87 4df1 8abf
00000480: c807 8fae 0975 793f c6ec fc1d 13e0 6cbf
00000490: 342d b83d f985 513f 535d beb5 a767 793f
000004a0: b01b d941 4217 73bf a304 6fb5 cf8d 7b3f
000004b0: 1a5a ace6 774d 72bf 1659 0417 e01a 863f
000004c0: 2365 462f c591 85bf ed4c d1e1 72b4 8ebf
000004d0: c36e def8 5904 773f 4e7e d9e1 be24 4ebf
000004e0: c93b 535e 735d 333f 07a4 29cf 6f7e 853f
000004f0: 5590 12e6 343d 74bf a39d f341 16d7 793f
00000500: 2fdc fa6c c3ec 87bf 0e78 26a4 c12c a03f
00000510: 63e7 7d36 510a a1bf 8982 8cc8 4eea a6bf
00000520: aace 5419 cfd2 903f 722b 591c 9022 7ebf
00000530: 4937 76a3 e898 5f3f 8fd3 a14a 4188 993f
00000540: 17d8 dd01 9c4c 7dbf f4cf 98d1 d461 9e3f
00000550: 384a 48dc 909c 7cbf dea6 ab6b f318 933f
00000560: 1521 f091 7803 93bf d756 593a f0d9 9cbf
00000570: b956 1583 be6e 823f a1ce e2d3 2144 76bf
00000580: 53ce 8e7e e7be 743f 388a dcf1 0932 8a3f
00000590: f46d b03f b3cb 78bf 239c 5206 58ca 923f
000005a0: 2114 a1c6 d6c7 52bf a75c 68cb d21f 713f
000005b0: 38fb 6351 962a 74bf 0933 e96f d412 7cbf
000005c0: be50 9214 11ec 683f 95a5 8053 e229 5cbf
000005d0: 678f 4cca 1263 633f 4cfd 82f2 2e15 713f
000005e0: ec45 5526 b310 66bf 0a61 197b facc 763f
000005f0: d7d3 5679 97dc 76bf 1305 03c8 51fe 913f
00000600: a2cc 25e4 0ae5 90bf db7b fb2c ba4b 9bbf
00000610: 84fa da18 ef6c 813f fbf0 a564 2dbe 43bf
00000620: 9151 6f1a 54d3 2dbf 93c9 e211 d0a5 8e3f
00000630: 7e93 47ca e634 7dbf 10d6 ff74 2252 8d3f
00000640: 21c0 7cb5 d561 41bf 0438 d2e2 827e 7d3f
00000650: 4e52 ca83 daad 71bf 5bf2 9560 35ab 81bf
00000660: bb3a 74d3 a570 713f 9cc7 03b7 0eb6 3c3f
00000670: bc15 f8a6 cae3 473f 52d2 0f66 366c 783f
00000680: 5e09 3d90 4fdb 68bf 8c08 9bf0 f528 6b3f
00000690: 03c7 6339 9b6b 86bf 759b fecb 8f86 9b3f
000006a0: 89c6 462a c584 9bbf d10f 7dd0 5bad a4bf
000006b0: 0743 065a efe6 903f 84e9 f2c4 b2fa 59bf
000006c0: 32fc 799b e803 663f fb29 e4a5 c8e9 973f
000006d0: e9d1 02a7 e1ec 82bf d07b a24a 469b 963f
000006e0: adbf 1927 7da5 62bf 7113 fca5 173b 813f
000006f0: 4142 f12c 1117 81bf c38d 0dbc 684c 89bf
00000700: ca01 bdcf a6f5 753f 18d4 59a2 4a11 67bf
00000710: dfc3 81ac 5fb6 713f 5b2e 347f 9007 783f
00000720: 9043 6f26 5cf6 6fbf f963 b4e2 c399 7c3f
00000730: a422 58c7 c91b 6dbf baea e6bf 4dd9 843f
00000740: 955e c036 b55d 85bf f0fa 3fe8 caf7 8fbf
00000750: f738 1b03 7e9e 793f c4f0 7d81 864c 633f
00000760: 7150 e5b0 3605 333f b1d1 1090 7925 833f
00000770: f1a1 7a47 9acc 71bf 2368 c153 36b9 793f
00000780: 057c 03e5 0795 8abf e954 34ce 55f6 9c3f
00000790: 68f5 3195 1635 97bf ccbb 67b1 12a1 a5bf
000007a0: 86a0 8a91 6a47 903f a02c 4c46 f8b5 8bbf
000007b0: 9546 ebb4 9f57 6e3f 3d89 cc21 4b58 973f
000007c0: d524 fead 8698 84bf c6b4 eb3d 524f 9e3f
000007d0: c75e 99fb b668 7fbf 32a8 5799 4076 903f
000007e0: 346d 494e a6c6 89bf 907d 8965 533b 99bf
000007f0: 5f00 12d2 97c9 813f 2cf0 f6fc 9b24 81bf

biases f8 [10]
0.019554069989853026 -0.03547885987015634 0.03992149198596722 0.05740839753953383 -0.014265225044592952 -0.0069192968789074955 -0.0021091575439461 -0.02691212431995276
0.003220942918147115 -0.034420238775945786
00000000: acc1 706c fb05 943f c4f1 aefd 482a a2bf
00000010: 8779 f9fc 9670 a43f bb68 e52b a264 ad3f
00000020: 8bf8 4a18 1637 8dbf a249 e69c 6857 7cbf
00000030: a72a 8c55 3947 61bf eec3 4717 da8e 9bbf
00000040: f8f9 dc8f ce62 6a3f 1ef5 b98f 879f a1bf
