weights/weight_18_1.483.npz (npz, 109572 bytes, 3 tensors)

filter f8 [8, 3, 3]
00000000: 22e4 8961 1b64 e33f cfa0 5a4e 2677 e23f
00000010: 3884 2511 1437 d63f b7ac 8050 e647 cb3f
00000020: 481a 3601 9752 c0bf bb6f 7494 756a b83f
00000030: fc03 b2cc 377e c83f 8e2f 9c83 8044 b93f
00000040: 57c5 44e5 f311 ac3f 47ff abc5 5a20 e13f
00000050: e0a4 aa13 30d3 c73f 2fec 54c0 9b1b cf3f
00000060: 8fd3 4273 ff8c c63f 4278 c949 fc34 98bf
00000070: 3490 6f93 2e57 b6bf d1da a6e6 de36 bd3f
00000080: a362 a46d f9e5 a4bf 66ea d5f0 62cc c43f
00000090: a46a 557c 2300 73bf 760a 9fff a443 c73f
000000a0: 2a7e 4e06 0c16 983f 7f3c 80f8 6c56 a73f
000000b0: 6588 73d9 319f abbf 58b0 8407 abb6 adbf
000000c0: 4781 ad2a 340c 703f ac2e 55b4 6826 c83f
000000d0: 03ea cb9b b292 bc3f 0d81 20a8 2541 d93f
000000e0: 7598 00f8 6a49 de3f 2223 bd03 bc1d a93f
000000f0: 0ad8 805b 866d b43f 8740 6354 979f c93f
00000100: e0f6 7659 c740 ac3f 2908 0d70 8b66 b63f
00000110: e8a3 2fc3 31aa bd3f 5f79 0da7 6f48 723f
00000120: f293 73f0 2be3 ac3f 3f36 f1f2 6d5e d03f
00000130: 212a c10f e5a4 b33f 5f3f bf35 c2e6 b43f
00000140: 8f1c 5ccc 8b81 c2bf 1002 66da 8ce2 ba3f
00000150: dc58 0d54 d7e4 b23f 3d66 cfe8 1213 b23f
00000160: b302 bf54 e37c a2bf ef8a fc87 024f e23f
00000170: e222 8cff 8e51 e63f c6c5 6dec c552 753f
00000180: 9c13 f66e 2a49 d83f 167c 9f46 e7eb ab3f
00000190: 69c2 964c 36da 863f cc2a 7b54 f213 b33f
000001a0: c1fe dec1 5d57 b03f dd7b ec2c 71fb c33f
000001b0: 7c74 f1d9 daeb cc3f ffcd c568 83f7 c53f
000001c0: 895b d868 a1e6 c83f f3b6 9f7c 8698 a53f
000001d0: 8f89 2012 1962 b9bf f00b 6e05 75e2 b5bf
000001e0: 27e6 6f51 99f4 963f c2d9 c8cc 5a7c 953f
000001f0: 149c 230a 5353 c73f 1a7c 8230 fe0d cc3f
00000200: c9d7 c49b 312b d73f 4a2c 2cc6 135e a43f
00000210: 9f0c 4e99 06fb be3f dcf6 69b6 48c9 753f
00000220: b8e0 7cb3 bb1e acbf 602c 703f 7d77 9cbf
00000230: 6516 264e 9b4a b63f 9a70 d54c 292b aa3f
0.6059700875331411 0.57704463294524 0.34711171793429996 0.21313170367043252 -0.12752044257304562 0.09537443994889731 0.19135186667338633 0.09870150769364569
0.054824468361753524 0.5351995335367769 0.1861324401882376 0.24303004161069583 0.17617791297894 -0.023639623645401515 -0.08726779078966801 0.11411851054331669
-0.040817064889954645 0.16248738059569517 -0.004638804069453304 0.18175184709078324 0.023521602520871245 0.04558125050982031 -0.053948934358928814 -0.05803427187706295
0.003917888427935451 0.18867214970884072 0.11161342910410359 0.39460126322411854 0.4732310697457998 0.04905498071327076 0.07979621633498382 0.20018283482068375
0.05518172232721752 0.08750220761888329 0.11587821021352307 0.004463611738940137 0.05642068205069241 0.2557635185702089 0.07673484453804537 0.08164609729942417
-0.14457843283182512 0.10501938182824966 0.0738043384747899 0.07060354408113141 -0.03610906991480558 0.5721447616564016 0.6974558821831034 0.005205891741625951
0.3794656833272769 0.054534175272913085 0.011158394062335835 0.0745231109860171 0.06383310301952873 0.15611090367835248 0.22594771997220053 0.17161600700238464
0.19453828448669366 0.04217930098807967 -0.09915310566478851 -0.08548671133580377 0.022417445750738587 0.020982187985475916 0.18223035807679422 0.2191770302642631
0.3620113393002354 0.039780252400384145 0.12101784937663006 0.00531891253797109 -0.05492197576535446 -0.027799565312346508 0.08707590730599575 0.05111054480468731

weights f8 [1352, 10]
00000000: fd8a c073 4cc2 8abf 9ae6 36f7 7501 a03f
00000010: f567 475c dadc 9abf c589 21f6 ef00 a5bf
00000020: a7b8 f73b 6fa1 883f a0dd 4e60 cb7e 83bf
00000030: e34f 355f 3548 663f 99fb b045 35eb 9a3f
00000040: 45a9 5f72 0b59 80bf 11ea b04a 13c7 9a3f
00000050: ab65 8c1e 8e26 82bf a683 0d29 ae58 923f
00000060: 3642 0bc7 aa63 8ebf 1bda 6ed7 f9aa 99bf
00000070: c2bf 9a55 7536 7f3f ce6a 95d3 b4b7 76bf
00000080: db48 4960 b8d5 643f 1283 4bff 8b7c 903f
00000090: c982 6f4a 0b25 74bf 8509 3d89 fc8a 913f
000000a0: b7e5 da95 436f 56bf cc46 f6e4 5bdc 773f
000000b0: e05f a579 3a11 6ebf 7df6 fec6 62e3 7cbf
000000c0: 014f 184c 14bd 703f aa15 168c 507b 5cbf
000000d0: 3472 2b73 064b 503f 321f fc80 6252 763f
000000e0: fc3f 272a 3f55 68bf edb1 4a10 e85c 733f
000000f0: 7d2d 2ffa aa56 80bf ae4f 407e f599 903f
00000100: ea6c 7281 76a2 8abf 2703 e9b8 dc9c 97bf
00000110: 578e 3958 9121 783f 7488 93b2 d245 6abf
00000120: 7960 f6fb 526a 603f 7ab8 932d 882b 903f
00000130: 01bc 6cda 3520 7abf 4351 3c0a 3284 883f
00000140: 89da a680 8350 4bbf 7bb8 28f5 7362 733f
00000150: 660a 648c 756b 67bf 31b6 392e 12e7 7dbf
00000160: 7454 846d 597f 663f d472 45f3 a58c 3ebf
00000170: aae1 eeb3 d415 543f a099 9ecd 318c 773f
00000180: e2df c34d 1846 6bbf 5d09 074d e9e9 543f
00000190: 4747 7a45 def6 85bf e836 909d a8b1 9a3f
000001a0: 68ca 7b67 a463 94bf 7448 eff7 ef0f a2bf
000001b0: c078 8c3b b702 843f 1c6d 1d35 cffd 7cbf
000001c0: 52f3 ed4d ab41 643f bd2d 7a51 6417 9a3f
000001d0: 9201 ed9a 31a8 84bf 7371 5fac 155f 933f
000001e0: e372 ab12 4964 5bbf 4afe 6aea 4e56 813f
000001f0: a2dd 5e04 d194 78bf ea9e 487e ece3 89bf
00000200: 9058 ae09 3a68 723f 38f7 5d1a 82bc 6abf
00000210: b022 57af 7653 513f e1c2 ae60 d8d4 7d3f
00000220: 39ca 8620 45c3 6cbf 79ab cba7 f56a 733f
00000230: 84af 5145 59a8 70bf a39a 1202 491b 853f
00000240: 2708 d863 1ca9 80bf ae1e 3e34 d273 88bf
00000250: 31f6 97b5 5cdb 6d3f f0b6 2116 7a06 32bf
00000260: ec26 a140 4f4e 593f b584 f80d 355d 823f
00000270: 385d 051f 0e88 71bf b7aa c603 f7af 793f
00000280: 5958 8bf4 8026 8abf 3728 ee29 2992 9f3f
00000290: 558b 5e52 ee8f 9abf c339 ec35 fe69 a5bf
000002a0: af3c e8ad d8f1 873f c026 065f 386e 85bf
000002b0: e3d1 11f1 6ef1 753f 55b0 bb92 88ea 9a3f
000002c0: b667 b8b3 d527 80bf 0544 a494 b46b 9b3f
000002d0: 8ca8 c8d0 41a8 7ebf 8cfd 984a 816b 923f
000002e0: 634f 48b2 2219 90bf a309 c492 1476 99bf
000002f0: 709e 492f b00b 7c3f cc0d dd24 d157 7cbf
00000300: 615e afdf db29 5c3f be73 531a 9c39 903f
00000310: f764 88b2 2ae8 75bf 638a 3fbc 13f2 8f3f
00000320: 8254 224c e47c 63bf 4160 c5db a8f5 723f
00000330: 3c31 1202 aa3e 75bf c264 ef2b d06c 80bf
00000340: 6bb2 e40b 2367 613f 3ea3 0483 f844 63bf
00000350: 8cb4 9054 5475 503f d0d2 b515 dabe 743f
00000360: a6dc add8 f037 6dbf 5bc7 ce4b cfe6 703f
00000370: 1944 0174 6f8e 7ebf bb35 a2a5 5ae7 913f
00000380: 9447 2213 79fb 8bbf 03f0 9826 4759 98bf
00000390: cfd9 7144 a279 793f 7488 8609 3ee2 6abf
000003a0: 610f 906c 9cdd 553f cdce 0e4c d28a 913f
000003b0: 932b 41c8 792a 79bf f377 732e aaef 8a3f
000003c0: d5d2 f05a cc11 5fbf 75e1 10cd 2784 753f
000003d0: c4e5 4ceb 52de 63bf 8dc1 0313 9702 80bf
000003e0: 1ca9 8d41 7143 603f 3c0e b22e 0df9 58bf
000003f0: d63a d51f 3d24 523f 626d eef5 09a7 793f
00000400: 82ef 790c 7863 6ebf 9097 0a68 775c 513f
00000410: 69c9 d408 f881 86bf 84f7 4614 f9ec 9a3f
00000420: a69c c2e2 9638 94bf 424f c312 34f7 a1bf
00000430: 6299 24e5 ea9c 823f a9e4 a63a f32a 74bf
00000440: 805c 4578 a6e2 673f b97d 25fc 81ca 9a3f
00000450: 7498 ec91 204e 82bf 895b 0bc5 e4c8 913f
00000460: 5b3e a344 d193 65bf a5bc 6272 2a3b 7f3f
00000470: 66f1 3c34 6270 78bf 26b3 d69a 3c99 87bf
00000480: 6dc3 6652 c5e7 6d3f de86 00c0 22b0 6dbf
00000490: 1c83 e6f5 f4d7 563f 7789 a95b fd5b 7b3f
000004a0: 3750 2b48 3c26 71bf d60a f15f 5135 763f
000004b0: 1067 6267 e587 74bf 5d68 87c1 57cb 843f
000004c0: 42da a017 bb45 80bf 990b d69a f94e 8bbf
000004d0: 4e62 b055 7d2c 6b3f a906 cf58 13af 65bf
000004e0: 8cb2 d304 fe80 543f df4b e519 3885 853f
000004f0: 9813 f987 922b 72bf 65ff b38f ffc4 773f
00000500: 3b9c 8956 7ac0 8abf 66e0 235c 4f23 a03f
00000510: b7a3 d16c 2be3 9bbf 008a 64f3 90dd a4bf
00000520: 7ccd b502 255f 863f 6840 b7cf ae34 83bf
00000530: 0a36 59c8 e7a8 6e3f 9064 9edf 41b1 9b3f
00000540: f68b 976b a3f3 7fbf 9d98 48fb c4ed 993f
00000550: 83a0 93ac f3a7 7fbf d122 b171 f5b8 923f
00000560: 6894 f61c 4c62 8ebf f158 c6f2 157c 9abf
00000570: e118 b2b2 823c 773f d28c 47b6 62d3 79bf
00000580: 63a9 aa23 3246 763f 7edb 03e0 7902 8d3f
00000590: d64d 57f9 0f36 78bf 268e de44 9d19 903f
000005a0: cac8 7de2 4ea0 54bf 8a78 89db 6bae 6f3f
000005b0: 9cbe d1ae 2982 6abf 483c 6673 33e6 77bf
000005c0: 40b0 511e 8e55 5d3f 045f 22d9 0a09 64bf
000005d0: 3acc 1890 34f9 613f 5715 c131 ad0a 723f
000005e0: de43 ca96 5cd9 63bf fd26 b259 0a34 743f
000005f0: d3d8 9599 7183 7abf a875 0b1c 9886 913f
00000600: 1aa1 e3ce 975f 89bf 799f 2344 2a2b 98bf
00000610: 34f4 c797 4b51 723f a220 4ff3 5a6e 68bf
00000620: be7e 70aa 9009 583f c068 f5f2 7e4a 903f
00000630: 855d 4800 38dc 7cbf b1bf b7a6 5df9 883f
00000640: 3ce1 d980 2866 50bf b637 c641 f331 7b3f
00000650: f87e e37d f7c1 64bf 4f4d 1649 a03e 7ebf
00000660: b00e 7380 b3dc 653f 7a43 4f76 81c1 39bf
00000670: 6693 fe90 4513 563f c4e3 72d0 1764 793f
00000680: a610 68a5 a023 67bf b6dd a7d9 c9ee 653f
00000690: bd6e 626a e9c4 88bf 2b80 cc15 02ae 9a3f
000006a0: 13a1 a671 3a2e 95bf 7316 c5e5 1779 a2bf
000006b0: 5093 03a0 c529 863f 25c9 e5fd 358c 73bf
000006c0: ee53 bd1b 2201 6f3f a8cb ab43 fa66 993f
000006d0: c83e 9ba1 0414 82bf c7b9 ee17 90ed 933f
000006e0: 377d 8467 4045 66bf a43c 7a77 6652 7f3f
000006f0: 8990 770c c47d 76bf a494 4abf 12ef 85bf
00000700: 4126 9e09 1410 693f 1a0f a41f c293 66bf
00000710: c810 2d06 0f12 6c3f 4570 46dc c4cb 7a3f
00000720: e6c5 80a6 820f 6cbf 8c8d 6ba6 f346 773f
00000730: 95d5 4666 4a8d 70bf 2a14 60a6 638e 833f
00000740: 8d8d 3bd0 eda0 7fbf 3385 859a ac90 8cbf
00000750: 0a13 c42f 1487 703f c014 620d e757 463f
00000760: bd75 78b3 badb 4b3f e4fd deb8 624e 833f
00000770: 68ac 4511 5174 6fbf 60bc 4407 ffa8 773f
00000780: 56af 823a 2f44 8dbf 3980 6966 891d 9d3f
00000790: 0d81 9f5c 5d34 91bf d440 aebc 36bb a3bf
000007a0: ae5f 63a8 9b89 853f 6af0 1771 d433 8fbf
000007b0: b53e 0a17 873d 753f 84e2 6d16 7695 993f
000007c0: a626 e508 1aea 85bf 1c8c dcea fcdb 993f
000007d0: 7c6e 91ea f96e 81bf 32e7 f2f9 7348 903f
000007e0: 1f91 303c 0b3c 83bf d939 c2c2 0b4a 97bf
000007f0: 59a3 9ee4 4a63 753f e45d fe19 7d6e 82bf
-0.01306590774772109 0.03126114504580109 -0.026233112222918426 -0.04102277640847122 0.012026661889617719 -0.009519184948529269 0.0027199785633147274 0.026287872675534982
-0.007982339313418971 0.026150037225514625 -0.008862600619567859 0.017916413551009612 -0.014838537406292134 -0.025066283964145435 0.007620294892760117 -0.005546289781103565
0.0025433159919795285 0.016100108582466417 -0.004918140511080701 0.017131753803604894 -0.001369300843562333 0.005825385057862408 -0.003670324525199206 -0.007052789544045643
0.004086570058934092 -0.0017383848756663358 0.000994449900353034 0.005449661999371179 -0.0029703363117974373 0.004727274416535182 -0.007977805862444448 0.016212306814921078
-0.013005185914428858 -0.02305931929209062 0.005891387703374904 -0.00320712234371095 0.0020038243089395805 0.015791061193276758 -0.006378374447009173 0.011970892846456698
-0.00083357258818391 0.004732563933926066 -0.002858857714387586 -0.007300444619983846 0.0027462717663505 -0.0004661469604537009 0.001225908010139868 0.005748934310679493
-0.003329322307873626 0.0012764719323149134 -0.010724770064630141 0.02606833898248953 -0.019911354843268475 -0.03527784253641722 0.00977080488661064 -0.007077989010066756
0.002472719744615417 0.025479857895829506 -0.010086429157696118 0.018917406698038385 -0.0016718591311281554 0.008465401200168494 -0.006001297448100658 -0.012641761402007973
0.0044939295866212176 -0.0032637158464571513 0.0010574969322637955 0.007283063149700481 -0.0035110807550265103 0.004740676490409317 -0.004066799844718253 0.01030594861579221
-0.008135053441041219 -0.011939661235160184 0.0036446390847675527 -0.0002750442564608399 0.0015445493650240684 0.008966841210226265 -0.004280142937509716 0.006271328832023463
-0.012768752539539617 0.030830996689054948 -0.025939677979873583 -0.04182428749310276 0.011691754157281712 -0.010464134597686026 0.005357201925211249 0.026285299259072598
-0.007888478800896919 0.02677805096852028 -0.007484681217230126 0.017988224199368782 -0.015720884448526273 -0.02486450334345992 0.0068470842566977635 -0.00691968628763413
0.0017189643101484175 0.015844763857660864 -0.00534836462659282 0.01559844415891582 -0.002378888982159711 0.004628810504378634 -0.00518671426210587 -0.00802004465178852
0.002124374818910637 -0.0023522237535370796 0.0010045360124977558 0.005064823049327941 -0.0035667137175852846 0.004126367331012871 -0.007460055698246947 0.01748410831401313
-0.013663240333958084 -0.023778068285750475 0.006219514710315412 -0.0032817088760604355 0.0013345744685020133 0.017131124393656095 -0.00614402362050272 0.01315243677384712
-0.0018963332802403494 0.005252986405189443 -0.002425348235558929 -0.007817440288335554 0.0019852840454649533 -0.0015242222532671065 0.001107272807832229 0.006262816342224782
-0.003709539861857126 0.0010596433714140409 -0.010990083474642547 0.02629460512411398 -0.01974712142023507 -0.03508913735427523 0.009088358991516447 -0.004923772920329452
0.00291569245943496 0.026163130774305297 -0.00893807835889169 0.017367910887368807 -0.002633961416996828 0.007624784286391383 -0.0059665523620505475 -0.01152274463205456
0.0036505559866885557 -0.003624027129277659 0.0013942615692956245 0.0066795250700998265 -0.00418685481664132 0.005421941633417323 -0.005012413128634 0.010153470605406218
-0.007945501001910608 -0.013334226644252033 0.0033171127265741234 -0.0026469591016116856 0.0012514572766192692 0.010508001604341231 -0.004436085116655962 0.005803106581197291
-0.013062434926906721 0.031519393918586755 -0.027233770863322095 -0.040752916060473154 0.010923661370475506 -0.009377828325256313 0.003742649746334652 0.027043370507815967
-0.007800711021874731 0.02532108100617646 -0.007728530742703413 0.01828368669910924 -0.014835924753081112 -0.025863974516675495 0.0056729417220877385 -0.006305108636726691
0.005438037735681386 0.01416487898721441 -0.005910932920829967 0.01572271092267221 -0.0012589235647877833 0.0038673502534001857 -0.0032358945959954487 -0.005834771136860324
0.0017904174685794555 -0.0024457179907350097 0.0021940256708830293 0.004404713192405061 -0.0024229820613261696 0.004932442122603351 -0.006473010778213789 0.01711499854251533
-0.012389360429054853 -0.023602161797412678 0.004472060475106555 -0.002982308995772413 0.0014671242477177072 0.015909179286020203 -0.0070459544699795805 0.012194377565691502
-0.0010009189167288898 0.00663943311918829 -0.0025338968108455893 -0.007383943667622474 0.0026687150853791017 -0.00039300356575915736 0.0013473681792472657 0.006198971771646581
-0.002824605714751699 0.002677339781481182 -0.01209432941350685 0.026054413395400083 -0.02068415945692077 -0.03608011894042997 0.01082186121534226 -0.004772387414379052
0.0037847200564251537 0.024806890850367275 -0.008827243978344682 0.019460917912221178 -0.002718568601394768 0.00764694238718203 -0.005491033377868723 -0.010709902251003385
0.0030594245299127303 -0.002756003520632333 0.0034265798034614804 0.006541985498554286 -0.003425364662711361 0.005682899244422567 -0.004040995238417185 0.009548929705497217
-0.007721833189609295 -0.013947819200157063 0.004035071233606366 0.0006818655190420561 0.0008501683832410827 0.009426852480713906 -0.0038396437977801685 0.0057764017149529445
-0.014290207837198626 0.028432986140956216 -0.016801317957175366 -0.038537703068074386 0.01051637275342884 -0.01523557634481439 0.005185630507767482 0.024984212035152456
-0.010700419804055738 0.02525324996453203 -0.008512451621007992 0.015901386385599632 -0.009391868376106558 -0.02274340034687747 0.005221645880660508 -0.008999802928697904

biases f8 [10]
00000000: c4cc 2da3 1f67 943f e544 bde1 1105 a2bf
00000010: 6141 40d0 bd6a a13f 8ee6 e2c8 3b47 aa3f
00000020: 4178 a35a 5033 80bf 20f3 e2b0 7772 61bf
00000030: b7b8 b3c7 ceee 75bf e95f 5a11 200a 9dbf
00000040: b809 682a 3426 703f 4d2c de35 b1fc 9ebf
0.019924635252618797 -0.03519492989165388 0.03401749770285068 0.05132471873498644 -0.00791037346465029 -0.0021297776903267535 -0.005354697928153288 -0.028358937319893505
0.003942683956213271 -0.030260819351991142
