weights/weight_32_0.008.npz (npz, 109572 bytes, 3 tensors)

filter f8 [8, 3, 3]
00000000: 4b0a acd8 3241 e83f 04e7 1289 6fd3 e33f
00000010: ccb9 5a46 e1c3 cd3f 3439 3f35 75f0 cd3f
00000020: 4d9f baf0 305b c8bf 04db bf30 4090 a63f
00000030: d44d c3a6 bf05 c43f abb3 6235 fd53 c03f
00000040: 107f 9134 6b9e ca3f 538c a0c5 d7ed e33f
00000050: fc91 6a0e dda9 ca3f c82f 1b21 a57c c63f
00000060: caa4 17e3 4318 c33f 27f4 ef9a 5494 a6bf
00000070: 5983 337e 626c b7bf f8d6 455d ac8a 923f
00000080: 938c 828e 26b0 9bbf 6656 4da4 cb2d d23f
00000090: 660d 8447 8895 993f ab35 d146 d0be c83f
000000a0: 6cc0 a54f 86d7 933f 909b e3c7 4dbe b23f
000000b0: 0507 de88 c0d2 aabf 9c54 1efe 4729 afbf
000000c0: 271d 1e6d 7c4f 913f 6858 affd 9e9a ca3f
000000d0: 4cff c1fc a3ec c03f 0620 8f6e a480 dd3f
000000e0: be92 3f92 87f5 de3f 398e f495 1738 b8bf
000000f0: d0db a222 d4ea b63f ba64 85ef 9627 c53f
00000100: faf7 ad89 d4fe 913f c715 d8bb 8bbb a13f
00000110: b404 889d 7d5b bf3f 2ce0 3480 86c6 bb3f
00000120: 5c3e 61c3 1a5f b43f 4581 1ab3 ca50 d03f
00000130: d472 2c5c 59ab a73f d822 b381 ef25 b43f
00000140: 2bc2 f7a0 a2f1 c3bf 831e 5dc1 e513 c03f
00000150: 59c5 38e4 9ef7 b13f 6545 ca19 20ec b43f
00000160: 4e22 8fdc f084 9b3f 52f8 efc5 e29c e63f
00000170: e99a 6597 1bc5 e63f 991f 74fa 90d1 c9bf
00000180: c37a 98b6 006b da3f 32b7 4911 b18a a43f
00000190: a50f 2b9d a338 a1bf 3310 8011 d40e a83f
000001a0: 133c 8721 6c4d c13f 68b1 e055 5adf d73f
000001b0: 86f2 7244 95ae d23f 0ac9 2ab3 c7c9 c63f
000001c0: 43e4 2d53 2800 c63f fa2a 4d09 a142 ab3f
000001d0: 6918 eacf 6f4d babf c831 22ff 5982 adbf
000001e0: 7f00 b65a 6cc3 953f 4cfd a10d 54b9 a43f
000001f0: 911d 0fea 4314 ce3f 1346 576d ecc4 d13f
00000200: 9871 3c32 692e d93f b596 5df1 753c 87bf
00000210: da56 3c1a 5fbc c13f cc1a 1fd6 8539 853f
00000220: 3d5a b948 4fe4 afbf 3420 9919 428d a4bf
00000230: bdd9 1911 a759 b53f 1bd9 48b2 8832 bb3f
0.7579588157535196 0.6195600201819791 0.23254028258584325 0.23390069103192845 -0.19028293375344632 0.044069295836314054 0.15642543451995883 0.12756314379421715
0.20795955721677517 0.6227835521607495 0.2083088226692239 0.17567886463655058 0.14917801464551977 -0.044100421822783446 -0.09149756985744996 0.01810712165157377
-0.02703914875804665 0.284045134021062 0.02498448311326964 0.1933231683528168 0.019376848803802124 0.07321630601982876 -0.05238916083091109 -0.06086182572395524
0.016904777679454554 0.20784366023025602 0.13222169725122013 0.4609767036131419 0.4837359359938026 -0.09460589800851772 0.08952070088967834 0.16527067847599658
0.017573662665647284 0.03463398616808493 0.12248978706340347 0.10849800710718743 0.0795761801721197 0.25493113985614385 0.04622916460195872 0.07870385090349019
-0.15581162318950822 0.1256072229536934 0.07018464156933159 0.08172798757211337 0.02687431665597933 0.7066511026348599 0.7115610081644635 -0.20170795659236943
0.4127809317741759 0.04012063346895757 -0.03363524716908665 0.0469881316530806 0.1351752437317094 0.37300737749571633 0.29190570530389726 0.17803283928294206
0.1718798071049453 0.0532427142957967 -0.10274409128223429 -0.05763512839721191 0.021253293072277742 0.04047644297042527 0.23499344757713606 0.2776442592413286
0.3934576979243274 -0.011345788410561533 0.13856114178695728 0.010363622281045613 -0.062288739802785355 -0.04014021456220043 0.08339924018387186 0.10623983719492396

weights f8 [1352, 10]
00000000: 787d ac9e e7d5 8abf 8153 5f1e ba2b a13f
00000010: bd5d d73c b905 a0bf 17bf d793 31d3 a6bf
00000020: 955b 216b 4456 913f d15f a294 ee81 69bf
00000030: 821d f29c 01d1 58bf 63c5 135e 233f 983f
00000040: f97d 0b78 509c 85bf 8912 1a70 8a5e 9f3f
00000050: 82d6 8d53 5151 82bf 118f 4ae2 9a45 943f
00000060: 12b0 4a5a 45f3 91bf e73a ae66 0be7 9bbf
00000070: c42e 2deb 334b 863f 909a 6c50 f78e 5dbf
00000080: f31c 9e2a d2af 31bf 6463 b701 7618 8e3f
00000090: 8322 7ded e925 7ebf fc88 5d8c f755 943f
000000a0: 5d47 4c60 2095 5abf 2098 40d6 3d66 7b3f
000000b0: a954 c0ba 8397 74bf d442 9fc4 d81a 80bf
000000c0: 0152 3ef4 9c16 763f 99a6 581e 673c 283f
000000d0: b83b 6144 fdb7 1c3f e7ac 5138 cd48 763f
000000e0: 87fa 390e a4e7 71bf 40c4 35f7 ede9 753f
000000f0: 3861 17b6 88c5 80bf 48b4 ca1e ccb8 923f
00000100: 24b5 0bc8 1601 91bf 3e99 dd8a 436e 9abf
00000110: a204 1caf 53ea 833f ae89 0600 289a 623f
00000120: 448a a532 0d91 4fbf 85e9 229f 31fb 8d3f
00000130: 7c93 14ce ec7e 82bf 2cd2 02b7 b384 8c3f
00000140: 05bb aae1 a475 4fbf ac19 36f2 9038 793f
00000150: b700 a10e a563 72bf 5623 8e48 7494 81bf
00000160: 75a6 bb4a 81b2 713f 828e 7cd4 982b 5d3f
00000170: 9bc0 7f99 d725 1a3f 1753 8675 1504 763f
00000180: 98ae bfe8 c55c 73bf 9461 cadb e121 603f
00000190: 05e0 b6fe 3952 87bf 4db9 0994 b621 9e3f
000001a0: 59f0 978c ad11 99bf 1737 f18b 7e10 a4bf
000001b0: a219 b9ad 3bae 8f3f cd10 42ec 208b 5f3f
000001c0: 19e8 7bec fa20 5ebf bd39 197c 355c 983f
000001d0: 7949 857c 0165 8ebf 7906 35a9 cf41 953f
000001e0: 6481 01b8 f79c 5bbf 36cc 64f2 765c 853f
000001f0: bc3a e648 f8e6 80bf 967a 4efc 8c7a 8dbf
00000200: b3cc 1258 7c61 7d3f f379 5cb8 a464 5ebf
00000210: b567 21b7 cd63 2f3f 1a6c 6700 d781 7b3f
00000220: c11f 14e9 c8f4 76bf b55f 5f94 be54 793f
00000230: a36c 2b61 0fce 71bf 8601 eb3b 86d5 883f
00000240: 30bd f5f6 0d2c 85bf e88d f7b0 0aa1 8bbf
00000250: 0ffb 43ee cc77 783f 522f bbcf 9dfd 6f3f
00000260: dab7 45c0 1273 23bf 292c 58e8 e25a 823f
00000270: 06d0 498e 4d3d 7cbf d0ca 95cf 41c1 793f
00000280: ce4a 771f 1c3a 8abf f080 1fbc 58f3 a03f
00000290: e1de c56f 86be 9fbf 156f a2d3 3f3c a7bf
000002a0: 979d 1924 79fe 903f efc1 bf47 d19f 70bf
000002b0: b489 ea68 4f64 523f 1f7a 1eab 763e 983f
000002c0: 713c 64b9 1a6b 85bf 55b6 06dd 9501 a03f
000002d0: 6b8a cb3a c8fd 7ebf f708 d603 6e58 943f
000002e0: 505e 0da9 92da 92bf 6f6a 0322 26b2 9bbf
000002f0: fc9d 0458 d1b5 843f 8c93 c54a b407 6abf
00000300: 7bba 8a6b 89ed 51bf cc44 c737 9692 8d3f
00000310: a504 9655 09e9 7fbf ac44 40e1 04c4 923f
00000320: 9005 5bb1 d28f 65bf 94b1 0fcd 8a7f 763f
00000330: 01d6 ff7f 90cd 7abf 522c 0f8d f715 82bf
00000340: ecb7 305c 341a 6c3f a770 a058 4e1c 3cbf
00000350: a860 b55a db5c 1f3f 8760 0bcd 44b5 743f
00000360: cb48 7de5 fc58 74bf c4d9 b932 d573 733f
00000370: a0ab d1eb 2a6c 7fbf 569a 2c46 3106 943f
00000380: 62a2 e310 98ad 91bf 1a86 8df8 ad2a 9bbf
00000390: 582a 3825 5c96 843f ab89 13a9 bcfd 613f
000003a0: 8376 af24 90bf 5abf e58a 0cee e25c 903f
000003b0: 50cb fec4 0e04 82bf f4f8 39db 2bf0 8e3f
000003c0: a361 b985 2e92 60bf aa42 1eca 445a 7b3f
000003d0: 706e 15be 139d 70bf de09 7544 82a3 82bf
000003e0: 7ea1 8069 1a29 6d3f eeb9 3745 6aab 473f
000003f0: cfae 6aa0 86ce f3be cf26 d69d ed1e 783f
00000400: 66b6 1ac8 75eb 74bf 5f51 98d2 51b6 5c3f
00000410: 2162 11c2 53dd 87bf fd79 c00a 075d 9e3f
00000420: 97c2 de07 a0e6 98bf e33d c5a6 c2f7 a3bf
00000430: 513a 5157 6f48 8e3f b80c 8735 a4b5 703f
00000440: d615 cd97 04df 56bf bb89 c426 530f 993f
00000450: 65e0 8473 f00a 8cbf 97f0 e0c1 9eab 933f
00000460: 8445 4e97 28b0 65bf 4a2c 2b41 bda3 833f
00000470: ab44 d5e0 c0d4 80bf b88e dc18 dd2f 8bbf
00000480: bad5 97f7 24ed 793f 7acc d001 f325 62bf
00000490: ab1a e7fa efe1 423f bd32 62fb fb08 793f
000004a0: db0a fca0 62b9 79bf 2ebf 844c 1a1f 7c3f
000004b0: 0f24 3c83 9bad 75bf 40cf 5ffb 9485 883f
000004c0: 548f beaa acc8 84bf a27a 8f17 327c 8ebf
000004d0: 1b31 503e 5d20 773f d3be 6073 b31e 593f
000004e0: 37ad 584f ceee 3cbf 51f3 44f4 e582 853f
000004f0: 6f86 3df7 d1e0 7cbf 801f 835b 4ad6 773f
00000500: 0e90 e37a 1458 8bbf 8076 28fe c649 a13f
00000510: eb25 9aff c7bc a0bf 93ab 28c8 74b1 a6bf
00000520: a102 56d3 1803 903f 213e f067 c849 69bf
00000530: cb68 ba36 e386 493f cfcf 1597 e2be 983f
00000540: 8de5 c1f9 513e 85bf b395 57a2 af83 9e3f
00000550: 9b0c a638 0edf 80bf f0a8 9076 b598 943f
00000560: 2124 661a 17af 92bf f2b8 ecfd ccbd 9cbf
00000570: 78fe 7a32 2e8c 813f fc19 fc0e 3ec3 66bf
00000580: d9ff 080f 0d13 743f 7436 8390 2532 893f
00000590: cacd fc91 9e1d 81bf dc57 8ce7 e6e1 923f
000005a0: 26a1 b811 f571 5cbf 861b fe0f 0945 733f
000005b0: 1e68 3cc1 4d4a 74bf afcd 30a8 6045 7bbf
000005c0: f25d 0462 aaab 673f 5c5d d4f7 14f5 44bf
000005d0: 4d2c c1e2 a185 643f 6719 9bcf 2d05 713f
000005e0: c4e3 f2e8 f157 6fbf ea4c c7cc 45bb 763f
000005f0: 05eb 870a 92d2 7bbf 4c02 1c23 47a2 933f
00000600: 7af0 6ab8 7688 90bf 3409 5ebf e9fd 9abf
00000610: d713 c34e 6fde 803f 7a25 5f4d e015 643f
00000620: 6fea 7b8f 4934 50bf b976 dbf0 06fd 8d3f
00000630: 603f 3e04 6edd 83bf d010 d356 90f8 8c3f
00000640: cb49 cab0 f9ad 52bf 54c4 f6f3 5783 803f
00000650: 6cf2 24f2 4920 71bf ec74 5c5e 7ec0 81bf
00000660: e681 e1b2 3e5b 713f fa17 5841 7d4f 5e3f
00000670: b570 83b7 89f5 313f 8b76 43fe 38cf 773f
00000680: 06ef e744 a24b 71bf 83a9 8cd8 289b 6b3f
00000690: 36e3 d7bd 052f 8bbf 6dab b086 470e 9e3f
000006a0: b1bb 6690 65b9 9abf a17f ad7a ff7c a4bf
000006b0: 6bb3 81d8 e57a 903f 0420 4fa9 1a4b 703f
000006c0: 567c 35a4 8bc1 613f 8625 f50a 0d1b 973f
000006d0: 8931 ddbd 66d3 8bbf e7ab d1fc 0ccd 953f
000006e0: f541 6774 809e 69bf e837 0da6 c696 833f
000006f0: 1d9d 7a58 4e39 81bf fe6b 45b1 8c90 89bf
00000700: 3a59 1630 a703 763f 5237 90a8 9878 59bf
00000710: 621d d255 3572 733f a5ae 8881 0fbc 763f
00000720: 812e 18e4 f09e 76bf accd 9468 9826 7d3f
00000730: 0da4 7194 ed54 72bf 1460 6bf7 403f 873f
00000740: 2639 24e1 a2d3 84bf 34e4 6e63 00c2 8fbf
00000750: d722 7844 838b 793f c02b 9485 319c 733f
00000760: 0c2f 3d56 0a44 08bf 28d2 e33e b3f5 823f
00000770: df98 632a ee70 7abf 0640 6f5f 67b6 773f
00000780: 50a1 793d 81ff 8dbf 3d60 0658 bbf4 9e3f
00000790: d1b6 ec85 1d1e 96bf ac45 6d5a aa3b a5bf
000007a0: 25fe 8285 96ed 8e3f 0ee9 6f36 e676 83bf
000007b0: 70ef 1d1e a22a 623f 834c 8a11 c28e 963f
000007c0: f52f 5008 2e31 8bbf 047e 3a5a f270 9e3f
000007d0: 7ced 5705 5fd4 81bf 36f6 4b81 e7c5 913f
000007e0: 4487 f5dd cbb1 87bf f6dd 982f b5b8 98bf
000007f0: f152 b199 f015 813f 25e3 5b36 1b54 78bf
-0.01310330346092202 0.03353673573261685 -0.031293667485154476 -0.04458002977105318 0.016930645979609322 -0.0031137141969104017 -0.00151467473532016 0.0236783529443917
-0.010552052176932657 0.0306340819283997 -0.008944163668029196 0.019796772062036064 -0.017529567371340767 -0.027248552457929256 0.010885625471608214 -0.0018041052987400087
-0.00026987916009386866 0.014695093085650597 -0.0073603761482635725 0.01985918802473295 -0.0016224685834384724 0.00668930201576326 -0.0050273080523954095 -0.007863706112318715
0.005392659284457314 0.00018490561267130582 0.00010955317802195566 0.0054405228048423964 -0.004371300546721308 0.005350045731902731 -0.008189266259180358 0.018283070926077977
-0.016605716667006068 -0.025811248160061633 0.009724286824623288 0.0022707730533550663 -0.0009633364145823016 0.014639270466763285 -0.009031152762483556 0.013924983999779782
-0.0009600691876892892 0.006157461353160459 -0.004489559893102227 -0.00858393522664051 0.004320626303277221 0.0017804138642042726 9.9746021419158e-05 0.005374988388571442
-0.004727147181238366 0.0019692813205660162 -0.011387303434148075 0.029425480638047664 -0.024481498438021585 -0.039188341696542554 0.01546904205237071 0.0019252606880693524
-0.0018389177729987215 0.02378924913346635 -0.014841090786522614 0.020758862211784 -0.0016853732231752678 0.01043026854731553 -0.008253040051184761 -0.014393903207573982
0.0071730477513255895 -0.0018550499530146619 0.00023948560880421096 0.006715621805109451 -0.005604538733002985 0.006184334231839663 -0.004346904827538331 0.01212601538043213
-0.010337933634871094 -0.01349075653610661 0.00597362567009331 0.0039051134352571593 -0.00014838794607946356 0.008962414470280749 -0.006894400551221485 0.006287819932696961
-0.012806148252740537 0.03310658737587058 -0.031000233242109657 -0.04538154085568472 0.016595738247273308 -0.004058663846067108 0.0011225486265763309 0.023675779527929316
-0.010458191664410617 0.03126209567140551 -0.007566244265691506 0.019868582710395235 -0.01841191441357487 -0.02704677183724374 0.010112414835545806 -0.0031775018052706046
-0.0010942308419249747 0.014439748360845071 -0.007790600263775681 0.01832587838004389 -0.002632056722035876 0.005492727462279485 -0.006543697789302084 -0.008830961220061582
0.0034304640444338032 -0.00042893326519944725 0.00011963929016667546 0.0050556838547991595 -0.00496767795250914 0.004749138646380439 -0.007671516094982872 0.019554872425170032
-0.017263771086535214 -0.026529997153721487 0.010052413831563786 0.0021961865210055795 -0.0016325862550198584 0.015979333667142454 -0.008796801935977122 0.015106527927170245
-0.0020228298797457397 0.006677883824423839 -0.004056050414273579 -0.00910093089499225 0.0035596385823916657 0.0007223385713908661 -1.8889180888477874e-05 0.005888870420116723
-0.005107364735221864 0.0017524527596651446 -0.01165261684416047 0.029651746779672184 -0.02431726501498818 -0.03899963651440055 0.01478659615727654 0.004079476777806672
-0.0013959450581791841 0.02447252201194215 -0.013692739987718203 0.01920936640111445 -0.00264747550904393 0.009589651633538438 -0.008218294965134673 -0.013274886437620523
0.0063296741513929 -0.0022153612358351534 0.0005762502458360371 0.0061120837255088075 -0.006280312794617794 0.006865599374847693 -0.0052925181114540495 0.011973537370046139
-0.010148381195740498 -0.014885321945198374 0.005646099311899878 0.0015331985901063008 -0.00044148003448425975 0.010503574864395711 -0.007050342730367739 0.005819597681870792
-0.01335159301783764 0.03376600124850615 -0.032690286590035665 -0.04432263320298726 0.01563681402103845 -0.0030869402103304165 0.0007790193025869694 0.024165668937214776
-0.01037277263116001 0.029799217494561336 -0.008237944701937663 0.02011378799594693 -0.01824604128481522 -0.028067782400449333 0.008568154254475532 -0.002778645713877424
0.004900980959575884 0.012302678558991455 -0.008357275800881764 0.01843987262972023 -0.0017361539129386399 0.004704509163167786 -0.004953674058720407 -0.006657960478196597
0.0028894737043960667 -0.0006395676024650121 0.002505127127766771 0.004155329655708285 -0.0038261151126701438 0.005549690872118188 -0.006792612527074087 0.019173728483112648
-0.016145567899670678 -0.026359226517805825 0.008236760703207153 0.0024518376257886528 -0.0009890287746531464 0.014642767167454595 -0.009699687485209274 0.014145972871468265
-0.0011401117691646086 0.00806301797169532 -0.0041811836729804645 -0.008667933706926388 0.0042374085588509965 0.001850006408291359 0.0002740346167351513 0.0058128572747741065
-0.004222520698472959 0.003369884278432157 -0.0132732819138127 0.0293513465841601 -0.026097857416683194 -0.04001615879565113 0.016093818034664958 0.003977874895049641
0.0021674849864861496 0.022564128679083882 -0.01358680979651507 0.02129001896939178 -0.0031273373490210373 0.009564926092618678 -0.00841008384243352 -0.01248273769367891
0.00537457759619136 -0.0015546313100034026 0.004747589436312568 0.0055504422858054 -0.005522671680875058 0.007116885515006482 -0.004475524946522047 0.011351115751878672
-0.010169289108060097 -0.015506747278651735 0.006236565364368749 0.0047876295514112654 -4.628330751063449e-05 0.00925769839930364 -0.006455355009370416 0.005789188194242461
-0.014647493065425593 0.03023045277367963 -0.021599255847084834 -0.041470836199219846 0.015101600598767704 -0.009504126106538748 0.0022175947532882476 0.022028953857966115
-0.013277396801662159 0.02972773242674799 -0.00870584712082833 0.017356507555623867 -0.011569588385728864 -0.02414210417756909 0.008342628183677788 -0.005939585016442793

biases f8 [10]
00000000: b348 a5ab 63a3 963f d4cc e98f 203c a3bf
00000010: f8a3 7527 b864 a43f 4cf8 fcf2 f8aa ad3f
00000020: f8c1 bff7 773f 8dbf a44c a7d1 81fe 87bf
00000030: 07a9 6635 248f 45bf 20c2 eabd 5816 9cbf
00000040: a884 7b3b c85d 7c3f fb24 a605 1400 a2bf
0.02210765586034631 -0.03756810909990241 0.039830927674138594 0.05794504133380993 -0.01428121304340467 -0.01171590252935168 -0.0006579329299729882 -0.02742899569665458
0.006925375135069668 -0.035156846704078114
