weights/weight_3_0.106.npz (npz, 109572 bytes, 3 tensors)

filter f8 [8, 3, 3]
00000000: acae 48dc 8b45 d33f 91fb a824 269f d93f
00000010: a36f 2510 b157 d43f 47dc e693 9d5d ca3f
00000020: 4b95 8fe4 9efc 9d3f 8461 2bc2 c6f4 d03f
00000030: 8ffb af56 353e d73f 8f2d e769 2892 d53f
00000040: c67b e5a5 c9ec c03f a866 f903 c2a9 d63f
00000050: d1b4 fc7a 8627 b03f e65b 6a17 5ffe c93f
00000060: 9683 79a5 b4b9 c73f 0523 30e2 2a8f a23f
00000070: c1b9 da2d fd05 72bf e6ef 433f 6e09 cf3f
00000080: f686 afdd 0b02 a83f 025b 088b 1fe3 c63f
00000090: ce06 d063 49d2 a3bf 1567 e72a 60ae c43f
000000a0: 645a 6590 5d77 763f 9d7f 4311 171f a13f
000000b0: 1b45 408a 111c a6bf ff8c 3177 57ca a6bf
000000c0: e111 e1ad 2ba0 873f ffea c093 4554 c93f
000000d0: 3cea be47 1e0d c03f 9c80 e204 83f5 c63f
000000e0: c01f 6578 3ff9 d43f 0d53 87d9 162a a63f
000000f0: 8a29 9141 15af 773f d63b 3517 2421 cd3f
00000100: d967 f558 41f6 c03f c938 b9f0 0660 bc3f
00000110: a4ed 0958 9041 c73f 123d f4e5 805b 22bf
00000120: 1174 63bc 48b4 5c3f 8f60 8910 c26e cd3f
00000130: db9a 2cd3 4c84 b23f 30f9 34af ae9b ac3f
00000140: 1207 e7e4 0a66 c3bf 4211 dc51 036a b53f
00000150: c2ac af04 d296 a93f cf8c 262a f3cd a83f
00000160: b2ff dce9 b8ec b6bf 5489 16ae 157a d33f
00000170: eefe 1024 6154 e13f 504b 3883 8b3f 903f
00000180: 05af 5442 80b6 d63f 4c53 398e 0be8 c23f
00000190: d9c4 f3ea 2985 b83f b846 9622 a38a c93f
000001a0: 7928 e0f9 5472 c33f 3fe6 be82 12e8 b53f
000001b0: 3e68 7616 a463 c23f 2697 1466 5956 c13f
000001c0: ec80 b5dd 645e c73f 1e9e 2484 6cd2 9c3f
000001d0: 4767 a8a3 6075 b9bf e8da 3089 ffda babf
000001e0: 0d0e 1f9f afae 933f b9df 8148 84af 56bf
000001f0: c9fa 610d e3ef c13f 1339 738f 703a b93f
00000200: e576 2abd 2453 d23f 1ff5 729f 0438 a23f
00000210: daa4 b133 d6ce b23f 5457 047e 6883 69bf
00000220: 2c1c b35e 0505 a1bf 4a0d fca7 f005 a1bf
00000230: a870 2535 d4ed bd3f d70c f0de 6478 aa3f
0.30111977111912824 0.40033868389212396 0.31785227371960384 0.20598191949622643 0.02928398389839985 0.26493996583806045 0.36317189660615495 0.33704576818555493
0.13222618675624015 0.354111198311879 0.06310310843101098 0.2030753006299328 0.18535478668038924 0.036248531447261846 -0.004400242787296838 0.24247530068521356
0.046890612422215414 0.17880625046446857 -0.0387137350408132 0.16157152266423994 0.00548492954688715 0.0334403236936389 -0.04318289578089659 -0.044512494373316606
0.011535969966765815 0.19788427080660395 0.12540033820353524 0.17936742533220673 0.3277128864033294 0.043289865545068286 0.0057822065655933706 0.22757388241959003
0.13251511424715437 0.11084025742568139 0.18168834971207304 -0.0001400561186319723 0.001751967459816987 0.2299425678963911 0.07233123927708666 0.05587526215321004
-0.1515515916526558 0.08364887951399161 0.04997879321293787 0.0484462727502205 -0.08954959592392589 0.3043264579847762 0.5415502266332319 0.015867404827143716
0.3548889777909923 0.1477064556553621 0.09578191743982546 0.19954337300128144 0.151926633843974 0.08557239238771162 0.14366580101779108 0.1354476688804251
0.1825681765140027 0.028146453442927315 -0.09944728847076788 -0.10490414714227436 0.019221061789506822 -0.0013846198872027162 0.14013326791242367 0.09854796888541655
0.28632467721204896 0.03558363386535234 0.07346857797678599 -0.003114418112214171 -0.03324143200875826 -0.03324844408600798 0.11691023156658054 0.05169978352935239

weights f8 [1352, 10]
00000000: f0bc 9f9b 4bd7 85bf 6102 8c77 8104 993f
00000010: e59d 22d3 591f 90bf 9551 4344 2490 90bf
00000020: c93b 2903 10f3 863f dcfb f2cd 24f0 83bf
00000030: e596 791a 7f30 68bf 9648 7b1d 77fc 813f
00000040: ebde c291 61a6 70bf cb4c 02d2 80d3 8f3f
00000050: 0f18 3913 1ce9 7dbf 02ba e40b cd1e 8d3f
00000060: 294f 4905 80b3 82bf ff6e 7087 3b60 85bf
00000070: 7179 efc3 49c1 7c3f 8f35 7f89 56f1 76bf
00000080: 699a 9757 fb1c 48bf af2c f6dd 6c33 773f
00000090: 507d 0d4e 04f4 62bf 2730 cfc9 26e9 853f
000000a0: 0cc2 b5d1 ce6a 50bf 52cd 81d0 0729 6d3f
000000b0: 4914 6cf4 fc62 4fbf 9705 2980 055f 5fbf
000000c0: a540 5bbd 86cc 6c3f 1738 dc9c 824b 60bf
000000d0: 8804 085e d60b 1abf 72ff 812c 6c2c 5b3f
000000e0: 6a99 d948 a067 51bf 0d1e a3b1 0516 653f
000000f0: d998 999a 5ce2 79bf 84c4 6890 2c29 883f
00000100: 76c0 89be ff8f 7dbf 7352 ddb6 214e 7fbf
00000110: 6878 170d 9552 743f b898 1f93 b03b 73bf
00000120: 18c5 71df 9020 52bf a311 7d24 37b4 703f
00000130: 37ca f056 ed8d 66bf 46c7 6ebf 643e 7d3f
00000140: 33f2 d0ed bd84 45bf ef08 1fba 791b 5f3f
00000150: 4d52 a49a 3234 51bf 110d 0994 d7db 59bf
00000160: e190 96dd 363c 623f d77a 0af1 995a 49bf
00000170: 2975 7520 e844 313f 5c3e b8a8 7f98 593f
00000180: a7ec 2663 8070 51bf 8202 0a7e d90c 1e3f
00000190: 2513 6fef 76db 80bf e487 7480 430c 943f
000001a0: b9ef 69b7 89b1 88bf d5a3 b376 7e54 89bf
000001b0: 85f0 066d f63d 823f 563f 6b92 f733 84bf
000001c0: fc7d 9583 6e91 5cbf d4f4 30e3 7d79 7d3f
000001d0: 564b a7fe 16a7 71bf a7aa 66bc 5aa6 893f
000001e0: 9bae 58bf 3282 55bf e264 ec1c ee12 743f
000001f0: 87c4 f902 3a0e 6cbf 726d 74b4 56e4 72bf
00000200: 0c68 89fb b70c 683f 6a8a e5c3 d30e 5fbf
00000210: 1be9 972d f43b 45bf d37b 12b7 1182 5d3f
00000220: cae7 47cd 83e7 4fbf 30a7 dcfa 72dc 613f
00000230: eac0 c299 b486 6bbf d086 3340 9921 7d3f
00000240: e309 6503 1065 76bf 2d4e 7474 7e66 6fbf
00000250: af36 5995 f6eb 683f a6f5 3eba defa 53bf
00000260: 2725 b13b 885f 22bf cebe 5709 b9ef 623f
00000270: 61ba 5234 3093 50bf a43d 6291 41da 723f
00000280: 3c8a 6a1c 803b 85bf 3b5d 0cb3 be93 983f
00000290: 9882 7392 dba4 8fbf 9fb1 d8c3 4062 91bf
000002a0: d9bf 1975 7943 863f 0645 aacc 91df 85bf
000002b0: ce17 5abc b4ae 34bf 0cb2 90b7 1dfb 813f
000002c0: d05b 7414 f643 70bf 6780 f4b2 618e 903f
000002d0: 6bf5 e8a6 4144 78bf dead fb4e 7344 8d3f
000002e0: b9ab cea2 1a82 84bf 0fce 1afe 70f6 84bf
000002f0: 1f58 9e9d 8496 793f 78d8 c6da 7291 7cbf
00000300: e300 af8c 1290 59bf 6bef 154a ad27 763f
00000310: cb41 3f1e 437a 66bf 47a7 9473 41c5 823f
00000320: f5c2 0fea a97a 60bf 1a00 20be a15b 633f
00000330: cb07 9ac7 d844 64bf 5f28 d4e1 fd9b 67bf
00000340: e8a9 1e62 0273 593f 8ad0 d5d9 d252 65bf
00000350: 30df b347 f866 17bf 3acd 687f 4ade 543f
00000360: fed2 e6a5 032d 5bbf dc48 ab28 d429 603f
00000370: ef81 3c1a 76c3 77bf c690 2cdf f6c3 8a3f
00000380: eaba f470 0221 80bf f582 ceb6 e51f 81bf
00000390: dfc3 4ff9 a5aa 753f b018 993e e689 73bf
000003a0: 9c76 ce6a 9a17 5dbf 236b 699e 5f31 763f
000003b0: 5ba9 9932 75a2 64bf 568a ee83 aa0a 813f
000003c0: 75de 8591 e92b 5cbf 58d6 df8c 24d1 633f
000003d0: ba11 ecb0 da33 44bf 7120 a0b9 232a 61bf
000003e0: 93ca 3f63 9d00 583f ceee 65aa 3003 5ebf
000003f0: 49b4 1da0 13fd 223f d2c6 fb24 f001 613f
00000400: 020c 93e0 3fab 57bf cc1a bdd1 44ca 1abf
00000410: 4595 c9b2 9066 81bf 8148 2bf7 9347 943f
00000420: 3994 f7ad 6e5b 88bf 07bf 03e2 8ef1 88bf
00000430: 2f11 9f16 2ad8 803f 3ff6 5f2a 1395 7fbf
00000440: bcab e62e 784f 55bf 611a ef46 fa22 803f
00000450: 29f2 4cd9 e9e5 69bf e17e beed f879 863f
00000460: 3adc f91a c6a2 62bf e624 79ba 7aa1 703f
00000470: 0bec b562 5cc5 6bbf ee2b 21db ed9d 6cbf
00000480: 6b7a 933a 0924 613f c154 9587 0a7b 62bf
00000490: ab50 f240 ef65 34bf 3596 fda2 a59e 533f
000004a0: 59a0 43c6 2806 5bbf fb65 276b 2a71 673f
000004b0: 0218 f26e e6a2 71bf 2c22 1dbf b681 7c3f
000004c0: 15ae f66a 4d9e 75bf da00 6a07 8e69 75bf
000004d0: d5a2 7135 173d 663f 9a4a 2a73 b36b 6dbf
000004e0: 2c64 0e0d 0965 3cbf b2db 0a39 c58f 6f3f
000004f0: de93 21d8 4121 53bf 5f92 4f1d 4aef 703f
00000500: da09 a3ba 8bb6 85bf 2c14 0b46 575c 993f
00000510: 054e 7305 3613 91bf f11c 67de e047 90bf
00000520: 538f 5d4c 2d46 853f 347e 58bc 3788 83bf
00000530: 1506 cbe0 0b6d 66bf c27e 081e bcfd 833f
00000540: 09cc 4039 75a0 6fbf 47a0 9e26 ce24 8e3f
00000550: cfa4 6c0e fea8 78bf 85ee 90ff 7523 8e3f
00000560: 7669 0ca6 aaf5 81bf ec42 d9c2 fef8 86bf
00000570: c924 d79f c61e 773f 96c8 26f4 2f97 79bf
00000580: 862d bb73 075a 313f 936d efa0 ad58 713f
00000590: 170d d4c6 67d0 6abf 796f 0788 a80e 833f
000005a0: d300 06c9 69ac 49bf 146c 1192 81c8 5b3f
000005b0: 7b8d 3356 992e 33bf 48bb b899 c150 46bf
000005c0: 7c7b 394f 6eeb 5a3f 60fa 78e2 256a 65bf
000005d0: 6bf4 5cc5 623e 31bf 6ecc fc46 582a 503f
000005e0: f362 d6ff f21a 40bf 864f 5405 60dd 663f
000005f0: a87a a96b 34b8 73bf f0db 852f e202 8a3f
00000600: 2af7 7a7f d425 7bbf bec1 84b4 3ac3 80bf
00000610: f89d 908e 1307 6d3f 423d e04a 594f 72bf
00000620: d094 1655 0e92 5abf 717a f77c e030 713f
00000630: af7c ece1 6505 6cbf b81a fa0b f728 7e3f
00000640: 11da dd6e 8b00 4bbf b582 4a76 bb2c 6f3f
00000650: 7476 46fb 6cc2 47bf cf69 7bff 0f3a 5bbf
00000660: 194b 85f0 9099 613f 4363 8fb2 07f5 46bf
00000670: d73b b494 ab3a 393f a4b3 04da 0b7c 603f
00000680: 6d9c de24 2257 42bf 3852 29fe 77d4 583f
00000690: 717d 1fe9 366c 83bf a49c 6266 401e 943f
000006a0: e760 f63a 3cb2 89bf f356 62f1 1df0 8abf
000006b0: 7b24 2a39 de3f 853f 871a 0f13 9ba2 7ebf
000006c0: 1417 f08a 8427 5ebf 84d3 d160 2048 7c3f
000006d0: ade0 60de 32d7 68bf d379 0c36 76c9 8a3f
000006e0: a9a6 c5cc 0e04 62bf 7d6e 7605 5c3a 713f
000006f0: 4b37 5f43 fd7d 64bf 3c09 c390 0cc6 65bf
00000700: 528f a42b ab25 613f eede 9d57 c5db 54bf
00000710: 4346 b88c c024 33bf 476d 05ce 583f 5a3f
00000720: eeff 8401 cd2b 4cbf e7e2 7bc1 7fb7 693f
00000730: f3d5 e0d4 3fea 6abf 8a5b 5e6b 1833 7a3f
00000740: 82e5 eb57 d148 74bf 2f40 11d7 aae5 77bf
00000750: 816d df4f b9ae 6d3f 740c 8cb6 0c7e 2dbf
00000760: 11bd 4804 8bad 57bf 8a50 0369 de14 683f
00000770: 6696 3869 3e64 42bf d879 fdfe ecd8 703f
00000780: f6e9 bd66 f3dd 87bf 00e6 8de1 4a86 983f
00000790: 5625 ce9f bbb5 82bf f159 6062 368a 90bf
000007a0: 1c18 de95 33ed 853f 505d 52b1 4fb4 8abf
000007b0: 0d57 3127 2cb8 66bf 1542 dc84 7f05 813f
000007c0: de7d 5aec 22e7 78bf af1e 9bc1 630d 8e3f
000007d0: 1b51 b6aa bdda 7bbf 85b8 5a70 31da 8b3f
000007e0: 844c 1256 8e51 75bf 7076 d330 52e0 84bf
000007f0: 9bd3 5a33 00b1 753f e484 6298 171d 7dbf
-0.01066454952885329 0.024431250497402583 -0.015744594108268024 -0.016174856821480416 0.01120579251906219 -0.009735381636685796 -0.00295281243215838 0.008782320582586583
-0.004064923410787217 0.015540129097905716 -0.0073023888285828195 0.014218904424152082 -0.00913143173344329 -0.010437455244804548 0.007020271440494206 -0.005601251636062967
-0.0007358767754198195 0.005664277326455621 -0.002313621910090248 0.010698607476932477 -0.0010020274847556436 0.003559603941590752 -0.0009578452234967418 -0.0019147447316217642
0.003515494502472976 -0.0019891310720430255 -9.935851949906445e-05 0.001658540380986975 -0.0010623040465361452 0.0025739775856867876 -0.006319390996941198 0.011797283322353865
-0.007217406273966378 -0.007642871567288811 0.0049615690527088155 -0.004695596451688093 -0.001106397130368036 0.004078116798897832 -0.002753222993783024 0.007139581247359866
-0.0006566932094141442 0.0018986405125223612 -0.001050042551075897 -0.001578293347976271 0.00222597804959622 -0.0007737399738124384 0.00026350657613767814 0.0015622374220391122
-0.001064420107111977 0.00011463239162346799 -0.008231095487539595 0.019578032222064126 -0.01205737677559414 -0.012368190762986156 0.008907246782534859 -0.009864744335032743
-0.0017436579931525689 0.007195941684640068 -0.004309739897922457 0.012524327158492566 -0.0013127799587761338 0.00490086567767742 -0.003424752525284239 -0.004612291995069172
0.0029357522401314336 -0.0018956249255885024 -0.0006480161929965118 0.0018010304450297623 -0.0009736436427936143 0.002180313654112441 -0.0033601310115828247 0.007112120281108594
-0.005467474510000933 -0.0038330526182422026 0.003042203529537733 -0.0012194800446957226 -0.00014017618181786618 0.0023115743631406454 -0.0010116549249620454 0.004602676510458013
-0.01036739432067179 0.0240011021406563 -0.015451159865223205 -0.016976367906112007 0.010870884786726197 -0.01068033128584257 -0.0003155890702618542 0.008779747166124195
-0.003971062898265168 0.016168142840911417 -0.00592446942624512 0.01429071507251128 -0.010013778775677428 -0.010235674624119033 0.006247060804431852 -0.006974648142593513
-0.0015602284572509499 0.005408932601650078 -0.0027438460256023803 0.009165297832243303 -0.0020116156233530532 0.0023630293881069632 -0.00247423496040342 -0.0028819998393645875
0.0015532992624495093 -0.0026029699499137736 -8.927240735434323e-05 0.0012737014309436982 -0.0016586814523240063 0.001973070500164471 -0.005801640832743689 0.013069084821445986
-0.007875460693495612 -0.008361620560948671 0.005289696059649323 -0.0047701829840375715 -0.0017756469708056005 0.005418179999277214 -0.0025188721672765708 0.008321125174750293
-0.0017194539014705721 0.0024190629837857296 -0.0006165330722472308 -0.002095289016327988 0.0014649903287106455 -0.001831815266625836 0.0001448713738300431 0.0020761194535844152
-0.001444637661095483 -0.0001021961692774062 -0.008496408897551997 0.01980429836368858 -0.011893143352560741 -0.012179485580844153 0.008224800887440679 -0.007710528245295444
-0.0013006852783330322 0.007879214563115857 -0.003161389099118024 0.010974831347823013 -0.0022748822446448077 0.004060248763900298 -0.0033900074392341265 -0.0034932752251157695
0.0020923786401987796 -0.002255936208408999 -0.00031125155596468484 0.0011974923654291096 -0.0016494177044084261 0.0028615787971204543 -0.004305744295498572 0.006959642270722582
-0.005277922070870318 -0.005227618027334036 0.0027146771713443076 -0.0035913948898465666 -0.0004332682702226666 0.0038527347572556376 -0.0011675971041082904 0.0041344542596318526
-0.010602084763722642 0.024766315126516655 -0.016674846728006915 -0.015899194311512713 0.010387758152951376 -0.009537158427575944 -0.00273754424992557 0.009761304537334484
-0.003860691978866186 0.014718637994363471 -0.006020538718794557 0.014716073858031873 -0.008769353096387471 -0.01121710807925199 0.005644584537955307 -0.006247699088293276
0.00026476556716367066 0.004234960781981728 -0.003273203553023084 0.009305302287365912 -0.0007834927110224272 0.0016957536065749278 -0.0002926945073353432 -0.0006810136141604884
0.0016430451622892741 -0.002614091866944876 -0.0002631178989423502 0.0009866582949598318 -0.0004914938469254545 0.0027911067396732573 -0.004814343231002972 0.012700812411578583
-0.006627874441333318 -0.008184870370855243 0.0035434133501615027 -0.0044702041614209116 -0.001621736523113971 0.004197003275719356 -0.0034205427067629172 0.007363286043647825
-0.0008240395379591222 0.00380550969778456 -0.0007250816475338887 -0.0016617923956149144 0.0021484213686248197 -0.0007005965791178976 0.00038496674524507224 0.00201227488300622
-0.0005597035139900515 0.0015155002407897366 -0.00948374651846848 0.019646650551888314 -0.012546988057508602 -0.013153299263915374 0.010375724906469088 -0.007479291686599005
-0.0018404764521177718 0.006904722668981903 -0.003032302239287152 0.013079570316730937 -0.0021992005405778348 0.004206046541550654 -0.0025014826341935074 -0.0026579137248471645
0.0020931571172172836 -0.001273100583118077 -0.00029210759086692825 0.0016020171388707192 -0.000859713650278591 0.0031392569761660052 -0.003285526915557163 0.006396384609522418
-0.004952256915879418 -0.005834262222450134 0.0036233538985308016 -0.00022500901402375576 -0.001445184477358034 0.002939638514456948 -0.0005612663976008569 0.004113126531449095
-0.011653806279118033 0.02394978524850977 -0.009135690512055799 -0.016152238611619244 0.010706332217306928 -0.013039229010515158 -0.0027733671536606165 0.008311268083645943
-0.006079803866355841 0.014673976274380022 -0.006800404440032072 0.013599764100345144 -0.005204730988356169 -0.01019348346238333 0.0052957542263144764 -0.007107822579343923

biases f8 [10]
00000000: 9968 52d8 2606 8f3f c4fb 7fcb 23bf 9ebf
00000010: 67ef df80 2142 993f f4c8 fd2d 670a 983f
00000020: 34b3 ade8 ff1f 7bbf 26c0 d6ca 9984 713f
00000030: 13bc 38f0 cdd3 64bf dab0 6f8e 9c20 80bf
00000040: 31e7 b220 55b0 44bf dbac cc19 5459 94bf
0.015148452259655708 -0.030026015563631395 0.024666331759348206 0.02347718446930798 -0.006622314113752737 0.004276848555875323 -0.0025424024804787753 -0.007874701592264822
-0.0006313720381492025 -0.019872011255910187
