weights/weight_41_0.014.npz (npz, 109572 bytes, 3 tensors)

filter f8 [8, 3, 3]
0	0x3fe47423d893493a	0.6391772489535363
1	0x3fdf18b042f9bed4	0.48588186779578035
2	0x3fb2b2da116444d4	0.07304156231500097
3	0x3fc354fe930ef9c5	0.1510313242014957
4	0xbfcc283f076a6b2d	-0.21997821676344512
5	0x3fb4df7cdd972036	0.08153515252991003
6	0x3fc6be00b2e44eb7	0.17767342314674803
7	0x3fd33019566612ea	0.2998107284295616
8	0x3fdfc39d5f451cd8	0.49631437591274397
9	0x3fe32ddf57f5bb1e	0.5993496625868351
10	0x3fc6e3aef3eed501	0.1788233462408826
11	0x3fbc7cf5784bad3e	0.11128172099022479
12	0x3fc07ae01bb2d55a	0.1287498603102602
13	0x3f38b067a21df872	0.00037672548398138335
14	0xbf95775e6cef53d9	-0.020963168524605755
15	0x3fa6e82a03b637ab	0.04474002166089915
16	0x3fbd01e0b1d44960	0.11330990163358967
17	0x3fdf9848e53307e5	0.493669723346214
18	0x3fa6e91d035b3968	0.04474726358386044
19	0x3fc931f3db7b0ef7	0.1968369313891498
20	0x3f8f861043033d5f	0.015392424626411381
21	0x3fb930010b72a700	0.09838873414505755
22	0xbfa2ab68365e765e	-0.03646398223575596
23	0xbfa59f9d23e41bca	-0.04223338187335164
24	0x3fab54da351cdaf3	0.05338174723003943
25	0x3fd0c39849136217	0.2619381631498369
26	0x3fc9133485415f4b	0.19589859491929426
27	0x3fd91d4245a52894	0.3924108200195715
28	0x3fda0a587a31ed16	0.4068814462004452
29	0xbfce297d85f53eff	-0.23564118424337008
30	0x3fa45866c300570e	0.03973694925677594
31	0x3fc49a6a9f18ec0e	0.16096241730142008
32	0x3fa47e252bfafb80	0.040024911516858275
33	0x3f978a48b9fa754a	0.02298844943162707
34	0x3fc823f17449ea95	0.1885968988243191
35	0x3fd1ea89967d8376	0.27994003006283863
36	0x3fa33188d8ddf476	0.037487293694518906
37	0x3fcaf02f2100b3b5	0.21045483695470826
38	0x3f38a0f6e17eccf9	0.00037580516208919574
39	0x3fa5f5adf1756a6a	0.04289001057141635
40	0xbfc696763fead411	-0.17646673317872844
41	0x3fc105363208a8c3	0.13297154849107615
42	0x3fab250f79f1f037	0.053017123828766825
43	0x3fb833e08283a150	0.09454158007031777
44	0x3fb3a7034490c62d	0.0767671625515269
45	0x3fe34337d2b23c9c	0.6019553294335256
46	0x3fe347572c3f54d0	0.6024585594374461
47	0xbfda2e05a4addef5	-0.4090589626498365
48	0x3fd61f8fcc15d747	0.3456763737698236
49	0x3fb29bab599c51b3	0.0726878255630428
50	0x3f912401ab38fe14	0.016738916469192303
51	0x3fb1ef545c43571f	0.07005812885776351
52	0x3fd34dd6cbd450cc	0.3016259184380601
53	0x3fe5a411e506e311	0.676278064077538
54	0x3fd223cdfdf0e734	0.2834353427784777
55	0x3fc334e43bfe7fc2	0.1500516217174646
56	0x3fc1503d9669fa66	0.13526124805862877
57	0x3fa766c1982e21e1	0.0457058428065158
58	0xbfb6d652ba28ff37	-0.0892078117840328
59	0xbf8371bf809175f8	-0.009494300948229104
60	0x3fa81809a99d73f8	0.047058393435442214
61	0x3fb8fba83b8952db	0.09758998349691288
62	0x3fd4a93ba1d91e0e	0.32282915883522
63	0x3fcffb5e613fb03c	0.2498586630675862
64	0x3fd80d119c6321f2	0.37579765579405866
65	0xbfac882ea660974c	-0.05572648793194776
66	0x3fbf50b6b170eeae	0.12232534248408442
67	0x3f973c06c98c4e98	0.022689920474546627
68	0xbfa23dab90a1d68f	-0.035626756100936345
69	0xbfa57d33af922e01	-0.041970839674004175
70	0x3fba999e6c668261	0.10390653749937818
71	0x3fc803a930888005	0.18761172170434307

weights f8 [1352, 10]
0	0xbf8c7dd5eac50773	-0.01391188738546465
1	0x3fa16c6354380f57	0.034030059843671516
2	0xbfa0ecd4739e3a2c	-0.03305686866143662
3	0xbfa968987f603675	-0.04962612681275128
4	0x3f93a81f8faf2f3a	0.01919602694014986
5	0xbf8759ae015ce7e5	-0.011401519219010179
6	0x3f79f7aca851f487	0.0063397163804640505
7	0x3f9b1b55b91e6d07	0.026471461700208667
8	0xbf8d376af3d94fc4	-0.01426585728328423
9	0x3fa2dda88bcc3f2d	0.0368473692561778
10	0xbf83e7956d81090a	-0.009719054607675765
11	0x3f947db82b54a86a	0.020010831494041183
12	0xbf9341f2380e982e	-0.01880625216622194
13	0xbf9f45bc5122cd4d	-0.03053945775236615
14	0x3f88ddab8411a061	0.012141551940843156
15	0xbf79856cdb97d23b	-0.006230759835933737
16	0x3f74bdd4756a108b	0.005063848415947213
17	0x3f91487b65c9113f	0.016878059470643022
18	0xbf862586c6e7345e	-0.010813763566057396
19	0x3f98ac5e2b146ade	0.02409503114641153
20	0xbf607e68eaa9e83b	-0.002013401904432247
21	0x3f7afe4bb036418e	0.006590171487360753
22	0xbf77d72a85fc1a8d	-0.0058204327649550415
23	0xbf830fd2ece21cec	-0.009307525495627599
24	0x3f7910bd78b69790	0.006119480250537893
25	0xbf575023c16bb925	-0.0014229153800289854
26	0x3f6382a75afc9cba	0.002381636491822184
27	0x3f7b7576d9736cd1	0.00670381951860151
28	0xbf798d727d8f3f76	-0.0062384102138394095
29	0x3f7ddbe450dfa0da	0.007289783343346035
30	0xbf823ea50c5e87a1	-0.008908547821025627
31	0x3f93907697526737	0.019105771051363987
32	0xbf921f5784e2a562	-0.01769768475120282
33	0xbf9d95dc10ccf270	-0.028891981625962904
34	0x3f872ba8b31562db	0.011313741650768197
35	0xbf608d4f59657214	-0.0020205068387169154
36	0x3f6f8e32fc125d1c	0.003851985530285552
37	0x3f911d53159eb469	0.01671342677552837
38	0xbf88c2c532bbd43f	-0.012090244875688437
39	0x3f91453e5d434bfa	0.016865705911936126
40	0xbf52af5d4141f580	-0.0011404429142481687
41	0x3f7bf9e56df786ac	0.0068301164714924915
42	0xbf74520d63928a2e	-0.004961063671688621
43	0xbf84f01224630368	-0.01022352384132015
44	0x3f74ad74983de826	0.005048232505823013
45	0xbefcca17795c7ac8	-2.745573109230284e-05
46	0x3f5ffbc129882d0b	0.0019521128034537007
47	0x3f7918bf4b38db3e	0.006127116433666311
48	0xbf7887980d5d853a	-0.005988687471331128
49	0x3f6b3ddf29bf67dd	0.003325401177773009
50	0xbf89d5e6c741385a	-0.012615015941403285
51	0x3f9f3d2d7302d17c	0.03050681127997866
52	0xbf9a8df5f773aab1	-0.02593216250253744
53	0xbfa6bc9cde85d4a0	-0.04440775123922802
54	0x3f922f4ca0664f7b	0.01775855759622356
55	0xbf70db0c9c2675fe	-0.004115151651061575
56	0x3f7952e7510cb5b0	0.0061825786404318545
57	0x3f9bdcb9641e0075	0.02720918344084607
58	0xbf950afef297115b	-0.020549758488202268
59	0x3f9a352b740ec618	0.0255934514604573
60	0xbf60924d85f81ec5	-0.0020228876235285098
61	0x3f86cc033dec649f	0.011131310775043977
62	0xbf83383f4ee57a65	-0.009384626956202522
63	0xbf91578801c4069f	-0.01693546782281052
64	0x3f8158dfa49885f0	0.008470294199528688
65	0xbf72d4d0dc4a1427	-0.004597488271092443
66	0x3f6d5fda5c8ed60a	0.0035857453226195756
67	0x3f805c5de3fad43b	0.007988675613299736
68	0xbf8076542151b4ba	-0.008038193957157314
69	0x3f81ed59bda273af	0.008753491496742287
70	0xbf73caa181c710c3	-0.0048319157471647415
71	0x3f8a6e5154918346	0.012905726807902373
72	0xbf870e904970c74a	-0.011258246651866383
73	0xbf8fd8481fe1971d	-0.015549243424355869
74	0x3f7c71937cf7ed01	0.006944252133958218
75	0x3f60bbb17b8e6ace	0.0020426241357659252
76	0x3f691b08623e4587	0.0030646480317463895
77	0x3f85e8789b5443b1	0.010697309723157607
78	0xbf83ae1ca160bdef	-0.009609435725081076
79	0x3f7f4190646f2fbe	0.007630886108881128
80	0xbf8be20a6b8fd4cf	-0.013614732177283177
81	0x3fa13401f1f83cc7	0.03359991148692525
82	0xbfa0c65e6ea9cbe6	-0.03276343441839184
83	0xbfa9d1a6bf2ae673	-0.050427637897382825
84	0x3f93505448a7713e	0.018861119207813852
85	0xbf89491b001430f4	-0.012346468868166906
86	0x3f82628074e48f12	0.0089769397423605
87	0x3f9b1aa9062921c3	0.026468888283746283
88	0xbf8d063535320e3e	-0.014171996770762193
89	0x3fa32ff930c5ec43	0.03747538299918365
90	0xbf8115283758f7a0	-0.008341135205338024
91	0x3f94908b4ce02250	0.020082642142400353
92	0xbf94293f86d14669	-0.019688599208456035
93	0xbf9f10d70c77fcc5	-0.03033767713168058
94	0x3f874848f0e90f93	0.011368341304780738
95	0xbf7f25892cdf755c	-0.007604156342464332
96	0x3f715d6f3d3143b0	0.004239496734116097
97	0x3f91058b80d101f8	0.016622714745837514
98	0xbf8707167af3a568	-0.011243987681569492
99	0x3f971a6b7ff7268c	0.022561721501722462
100	0xbf68c3ab6bdeca1b	-0.0030229900430296503
101	0x3f761798a7055ae8	0.0053935969338769554
102	0xbf7e0d374b3b9bfb	-0.007336822501861735
103	0xbf850af1b5520669	-0.010274780603370464
104	0x3f71073ab290a152	0.004157285010514338
105	0xbf60af621daf7526	-0.0020367542578997476
106	0x3f6397ce4baf3ddf	0.0023917226039669027
107	0x3f79e1ee6e2d2073	0.006318980568558274
108	0xbf7bfecb54d28db2	-0.006834787619627235
109	0x3f7b65cb8c63b669	0.006688876257823753
110	0xbf812f31cc2ffc29	-0.008390797656828113
111	0x3f94dddbbeb44d45	0.020377572550456042
112	0xbf92cbd8cdba92a0	-0.018355739170731966
113	0xbf9e52467e7cdf50	-0.02961073061962277
114	0x3f87d7b12931888f	0.011641868657708691
115	0xbf6129bab0587214	-0.002095093371066401
116	0x3f6a12ae36640470	0.003182735689847997
117	0x3f927c9d3419ca97	0.01805348997590758
118	0xbf8847e729a60c13	-0.011855894049182003
119	0x3f927afa6f5edf5a	0.018047249839326575
120	0xbf620c73edefadcc	-0.0022032036063046375
121	0x3f7e1b9945dfaf5a	0.0073505389427558025
122	0xbf728b7c1306f7fd	-0.004527554192859992
123	0xbf85ff202049e9f0	-0.010740519509671892
124	0x3f718f8082429284	0.004287244784937475
125	0xbf51c90c0fc62398	-0.0010855310239057166
126	0x3f5e0a29956e862b	0.001833477601146059
127	0x3f7b33977388aef6	0.006640998465211592
128	0xbf7a1647ecb88d0a	-0.006368905025314628
129	0x3f69772637412f09	0.0031085726168721445
130	0xbf8a61008a9bba74	-0.012880329351415677
131	0x3f9f787de9b99224	0.030733077421603153
132	0xbf9a62e872ba7cef	-0.025767929079504034
133	0xbfa6a3e0f959db6c	-0.044219046057086014
134	0x3f917c6675325fc5	0.017076111701129344
135	0xbf601061435fdaf1	-0.0019609355613242553
136	0x3f7b2364e6386a45	0.0066255513552513955
137	0x3f9c8fd70ec9506f	0.027892456319321853
138	0xbf93ddf66e16dce7	-0.019401407689397934
139	0x3f989efa8cbab036	0.02404395564978775
140	0xbf6873fa4145a395	-0.0029849899093971712
141	0x3f8513498cb2c4b3	0.010290693861266886
142	0xbf832607e6d48451	-0.009349881870152428
143	0xbf903230100b10ce	-0.015816451052857165
144	0x3f7f3d67e8b614cf	0.0076269205995959785
145	0xbf744ea12f1b5bd3	-0.004957799553912917
146	0x3f70110cbfeb4327	0.003922509959651411
147	0x3f7e3fe0c2f06f13	0.0073851375336990875
148	0xbf81d8a0fd45aa45	-0.00871396801877212
149	0x3f83528799b5236b	0.009434756639750316
150	0xbf77aa2da3d7c826	-0.0057775290310804524
151	0x3f8a1e60140650fa	0.01275324879751637
152	0xbf86ab2efd39996e	-0.011068694212735788
153	0xbf9159b7c33cc1df	-0.01694380883344759
154	0x3f7b1a23cd042315	0.006616725775764794
155	0xbf359494d3e32a89	-0.00032929070938495696
156	0x3f66b45fc4578b5f	0.002771555943341594
157	0x3f89107ba7410ae5	0.01223847011727259
158	0xbf83ffded5da992e	-0.009765377904227348
159	0x3f7d5698f05c8488	0.007162663858054981
160	0xbf8d82a235474b1f	-0.014409320116930467
161	0x3fa17edb7df68311	0.0341709700835563
162	0xbfa1bfaa810a1c8e	-0.03466542077244937
163	0xbfa9478c5b8838a1	-0.049373994992593546
164	0x3f92207ab03ece18	0.017702023512994186
165	0xbf87727ed239c5ef	-0.011448851385668283
166	0x3f84b76afa16db9b	0.01011546683990421
167	0x3f9af64133c4fe09	0.026330012116202926
168	0xbf8ce3e5015661d1	-0.01410654936152947
169	0x3fa26fa95643f36b	0.03600815942807042
170	0xbf830bd2647dd1b9	-0.009299892131573327
171	0x3f94b546d3f20089	0.020222765623203052
172	0xbf944a00ae0ce59a	-0.01981354772872166
173	0xbfa00f0334ccaba2	-0.03136453647160599
174	0x3f83a121247ce607	0.009584673810979728
175	0xbf7ddf7a56c03cf2	-0.007293203245367185
176	0x3f8888165263a441	0.01197831572467767
177	0x3f8c3af4cf1cd475	0.01378432519013926
178	0xbf883b2d8872de36	-0.011831622816642722
179	0x3f9736eff0b881f0	0.022670506541659863
180	0xbf626e383ccce7b9	-0.0022498224629119126
181	0x3f72ae0bcf03423e	0.004560514571679662
182	0xbf77e9846efbe90c	-0.005837933844072173
183	0xbf809908b5a60a98	-0.00810438923213512
184	0x3f6cc622f1b3b9fd	0.0035124475958732125
185	0xbf62b90a12512430	-0.0022854992589924836
186	0x3f767b8b8819bfcc	0.005488915486793599
187	0x3f74fa0ba5ea8137	0.00512127447169091
188	0xbf775aeb069c240c	-0.00570194060288377
189	0x3f7eaac92005b2bc	0.007487092633124245
190	0xbf7f55b6687e0c12	-0.007650101215292986
191	0x3f946d686e3957d5	0.019948608138598296
192	0xbf91c4620d55095a	-0.017350704253894157
193	0xbf9e2644a87ba056	-0.029442856582051334
194	0x3f83e635ed87f481	0.009716435729382635
195	0xbf5ece05ab8dc26f	-0.0018801741955166947
196	0x3f73055e0bad80d0	0.004643790593803668
197	0x3f90c22c37877d9a	0.016365710152852132
198	0xbf8a27352ee879c5	-0.012770095342656948
199	0x3f917e8e052bf7ba	0.017084330621393674
200	0xbf5642644f3b94f0	-0.0013586024842251986
201	0x3f81dcc49bd3724d	0.00872186279814815
202	0xbf7326b5014f92a7	-0.004675585795642568
203	0xbf851c8b746ae931	-0.010308351030620418
204	0x3f7436022eb32fa3	0.004934319043240184
205	0x3f002bdf4929ba44	3.084445156252951e-05
206	0x3f63335ebea5dcb0	0.002343831108358417
207	0x3f7a7f38e9cb4ab7	0.00646898490659236
208	0xbf7679b8e11930c4	-0.005487177071312913
209	0x3f735adf02318f10	0.004725333335134044
210	0xbf8e7f4f757e9a9b	-0.014891262791775708
211	0x3f9f04ce5f22afd2	0.030291771465883084
212	0xbf9c961cf45790e6	-0.027916386044936646
213	0xbfa72a2ee23c8332	-0.04524370681452296
214	0x3f927e1cb64f5ca7	0.018059204699821276
215	0xbf61df7761f4ce64	-0.002181752366277755
216	0x3f89a99e34a4b4d9	0.012530551892803764
217	0x3f99a11a723bc754	0.025028622839222095
218	0xbf93c9ac0fe5dfe7	-0.019324005575498317
219	0x3f9abe8d8feb92c6	0.026117526921455768
220	0xbf6e126b1ecaba85	-0.0036708919709192455
221	0x3f84de4e278ac261	0.010189638692595428
222	0xbf83f8c021e30cb7	-0.009751797708651073
223	0xbf8ec73b3e3b0c79	-0.015028441273335457
224	0x3f7a9ab074420d43	0.006495179437595869
225	0xbf71dd83d3c6bb23	-0.004361643743705543
226	0x3f832230504c283a	0.009342553568348778
227	0x3f79ee3fb5d12da1	0.006330727451380553
228	0xbf8052d51edff87f	-0.007970490460135203
229	0x3f83d438d3cbcf8a	0.009682125056748498
230	0xbf74bf5896c7991b	-0.005065294314112979
231	0x3f88c3d89d0173d9	0.012092296878273888
232	0xbf86e745ebc6ad23	-0.011183305986227915
233	0xbf91fd3318f3d422	-0.017567442319848088
234	0x3f7d290f6fd2ab87	0.007119236278564928
235	0x3f67b2e4ab606c5d	0.0028929201316834478
236	0x3f6f0fd7c7c5ef75	0.0037917341671213586
237	0x3f85fd1511bb1a6b	0.010736622432330386
238	0xbf82cbf4e05680ab	-0.009178078743218817
239	0x3f7d34abc56451d8	0.007130309086523977
240	0xbf8ff92bc89feafb	-0.015611974773482631
241	0x3f9e15bc28e47085	0.02937978744113014
242	0xbf956a1cad62aa70	-0.020912597735029015
243	0xbfa75c70bc61dd07	-0.04562713908756604
244	0x3f91a7431d171186	0.017239617014426688
245	0xbf92f54c3a284ed4	-0.01851386170353815
246	0x3f83738ab3f18e8c	0.009497722259943296
247	0x3f9903fc62d8a4c7	0.02442926743802756
248	0xbf916a345d1bf6c0	-0.017006700690209042
249	0x3fa265d2f82cfd07	0.03593310622681583
250	0xbf837d5d8436da16	-0.009516459081038636
251	0x3f90db2b343bf66c	0.01646106249153549
252	0xbf85e52b3d173b43	-0.010691011239854503
253	0xbf9b37adb489fb4c	-0.026579584259248265
254	0x3f839b857a9b1257	0.009573977283602248
255	0xbf8692d178557c52	-0.011022221073913627

biases f8 [10]
0	0x3f9768468c29009c	0.02285871725530396
1	0xbfa36707e9c7240c	-0.037895438468304204
2	0x3fa5e0936c563103	0.04272900292844108
3	0x3fb07b7327423ca6	0.06438369472947389
4	0xbf91e72f7c369b21	-0.0174834651531014
5	0xbf8178bf153158bf	-0.008531086763622018
6	0xbf7c4a7c3fb51494	-0.006906972262474959
7	0xbf9f2134cefcf9b9	-0.030400109418445818
8	0x3f88d0b679cc675e	0.012116838066095145
9	0xbfa4ed1142be5d45	-0.04087118091336576
