weights/weight_24_0.0.npz (npz, 109572 bytes, 3 tensors)

filter f8 [8, 3, 3]
00000000: b4ac 5fe9 5b73 e63f abb4 c0ca 97ee e33f
00000010: 0d39 ba4c d212 d43f 70fa 99e1 17fd ce3f
00000020: 3c6b 184c c5b9 c2bf 12bb a441 b6a9 b13f
00000030: a0ba 9db5 e37c c63f 4eac 4c5c 9d2e b93f
00000040: f142 2182 3489 bc3f 5c30 c082 66a8 e23f
00000050: f8a5 aa59 c179 ca3f 293b 30a8 cbe8 cc3f
00000060: fe1f 8dd9 1f3f c63f 2237 40b2 ac22 9ebf
00000070: 38fb 7e4f 4ae0 b7bf 4f15 0749 4286 b13f
00000080: cb50 7ff9 6d69 a5bf ee30 2174 1f4a cb3f
00000090: 2cb7 2181 01fc 6e3f 1e0b acfa 3c77 c73f
000000a0: caa1 f38c ca04 953f 673b f39d 6d6b ac3f
000000b0: 221e d49e d5b3 abbf fb52 d121 2516 afbf
000000c0: 5722 6c8a 9666 803f b941 b827 afdb c83f
000000d0: e909 c8d7 0bce bd3f 7d52 9b9f 20c4 db3f
000000e0: 41dc 5090 b547 df3f 2266 4898 561b 78bf
000000f0: d8e4 d8d4 27f4 b83f eef6 5fc7 ec8d c83f
00000100: 2109 f402 06e7 a23f 77e6 3c98 2417 b23f
00000110: 1f27 ce3d 1116 be3f cfa2 8baa ee5c a73f
00000120: c95b e6c2 f52f b33f ebf9 f3bd 7ccd d03f
00000130: af14 4da8 948b b13f 7106 82e3 9996 b63f
00000140: f960 87e2 c5ca c2bf cfd6 a5de a0d4 bc3f
00000150: b24b a05e 04ab b33f 339e ad5c b41e b33f
00000160: ff08 edd8 b98d 80bf 773e e6da a30d e53f
00000170: 6442 9e30 5697 e73f 8d16 cbbe 483c a9bf
00000180: 8e55 cd4b bcde da3f d7b7 e61b dffe ad3f
00000190: 043a 91f7 2635 773f 37ef 160d e299 b23f
000001a0: d5b5 02e7 3f34 ba3f cace 2577 aa87 d03f
000001b0: c325 7e80 c3ed d03f 440a 1a89 39b7 c73f
000001c0: ed40 927d d6ee c83f 2261 bb83 6df6 ab3f
000001d0: 9e2b 3df3 597a b8bf f6b0 101a 7920 b2bf
000001e0: 0813 9d87 a148 983f 2fc3 a23c 4693 9f3f
000001f0: 3b7d 7f5c a69e ca3f 0710 6001 f757 d03f
00000200: 1e4e 9f54 4486 d83f be63 94ef 5a68 963f
00000210: 1108 7b8c 94a4 c13f f4bd d967 2c3e 853f
00000220: 7edc e9b7 7eb4 adbf 5e69 6826 2ff1 9dbf
00000230: 8e32 621c a181 b63f 4410 5d2e 09fa b33f
0.7015819128113407 0.6228751144423276 0.3136487721721018 0.24209879413315916 -0.14629427161784203 0.0689958486807252 0.17568632476782842 0.0983675337162577
0.11146858384132564 0.5830566934323644 0.20684067610027035 0.22585435592960693 0.17380140421505524 -0.029429148082321117 -0.09326614800282307 0.06845487864400933
-0.041819988924233074 0.21319955034630972 0.0037822751410691215 0.18332636108251504 0.020526089528091686 0.05550711205579866 -0.05410640300584314 -0.060715828302511064
0.008008171176258445 0.19420422973099763 0.11642526643849006 0.43384566866487956 0.48875178426118643 -0.005885446797515155 0.09747551866975657 0.1918312047491137
0.03691881929445829 0.07066563336129571 0.11752422102850034 0.04563089210370707 0.07495056160256221 0.2625419478426056 0.06853608235276697 0.08823549084083894
-0.14681314049699504 0.11261945186364673 0.07682826338013518 0.0746872640862584 -0.008082820828012148 0.6579150462511753 0.7372237157415609 -0.04928805665035183
0.41984469797656565 0.0585851403769621 0.005665924277379112 0.07266056842393885 0.10235976591021452 0.2582803882171275 0.2645119433223863 0.18527907556934242
0.19478875285540856 0.054614469843445215 -0.09561693371249055 -0.07080799948079516 0.023714565183826003 0.030835244608797992 0.20796660915855533 0.2553689492635844
0.3831950022115239 0.021882458565503297 0.13783509120372675 0.010372492713229577 -0.05801769251859755 -0.029240357131223298 0.08791548674543945 0.07803399450227838

weights f8 [1352, 10]
00000000: 5fee 5ec8 fe20 89bf 0524 8f28 6741 a03f
00000010: ec5d 0b90 ad38 a0bf 9683 5dc7 9034 a7bf
00000020: bc84 c375 8ec3 863f 5e54 1b33 e100 73bf
00000030: ea8f b68f 490f 71bf 2825 0f82 b366 9e3f
00000040: 479c bd5a e347 78bf 1a10 a3b4 6e6c a03f
00000050: b0a5 4957 bd28 81bf 68b6 20a8 87e7 923f
00000060: 0cac dc3b 1a67 92bf 776c 684f f73d 9cbf
00000070: 775c acbe ee9a 7d3f e0f6 a50e aaa4 66bf
00000080: 9fab 6931 e639 5cbf 5323 d4be 45aa 923f
00000090: fa5f 34e5 23a2 70bf 246c cc7f e822 953f
000000a0: d394 6cc2 8ff1 54bf 8483 9a11 e02a 793f
000000b0: c4c0 3950 cc4f 74bf cc00 120d 437a 80bf
000000c0: d87c 6411 d191 703f ed08 9fb5 fe42 3cbf
000000d0: c0b1 4233 d25d 3ebf 6901 282e 341a 7a3f
000000e0: 40d3 92f1 6f20 67bf 7529 e8ce 4d6e 773f
000000f0: 88e8 13c9 71b3 7ebf 9bf4 0364 7c32 913f
00000100: 8ea4 ac1e 2136 91bf 5f0d ec6e f3d0 9abf
00000110: cbff 2fe8 2e77 763f 4643 c878 d874 4b3f
00000120: 34c5 5713 d168 67bf 7105 4c3a efe6 923f
00000130: 3543 c9c0 12b6 75bf 3f53 61b2 835d 8f3f
00000140: 369d 3d42 f036 43bf 6661 eea4 3f68 753f
00000150: c2b8 a7d5 6750 72bf 4990 1aa8 b998 81bf
00000160: 9ffc e25b 9361 643f fc86 5943 7cc3 513f
00000170: f88f fb02 417e 46bf 4baf afd4 6a99 7c3f
00000180: da9f 1f7f 1c36 68bf bbee bbc9 9417 643f
00000190: e77e 5f02 86c4 84bf caf6 a76d 03ab 9b3f
000001a0: 508b f900 97f5 99bf db2e 5f36 9057 a4bf
000001b0: d187 ec6f 2f15 823f a2bd 0b56 aa75 52bf
000001c0: 09db 8e30 2296 72bf 77fc c230 415a 9e3f
000001d0: a701 d55f 1a83 81bf 7cda 0d08 c224 983f
000001e0: 2239 eb14 1bb6 56bf 5461 2822 4ad3 823f
000001f0: d010 809b b8b6 80bf 43ea d281 8272 8dbf
00000200: f395 955e 5c6e 723f 4812 c0f3 05e5 60bf
00000210: a7ed b5d6 3b82 51bf 65cd 5d5d f914 823f
00000220: d69b 8012 1468 6abf bfd6 d34a 197c 7b3f
00000230: 94f5 2f9f af3a 6fbf 6b74 0540 1450 863f
00000240: 5fb0 3a1c de73 85bf cd5e b9b2 a8f6 8bbf
00000250: b242 2378 5c9b 6a3f 26b4 6b70 d904 633f
00000260: 67ba c733 ca8f 54bf 7c32 fb2f a490 863f
00000270: 7790 4e2a 4d11 70bf 9187 6369 a26d 7f3f
00000280: bbbb 2949 3385 88bf 7151 4fc6 0509 a03f
00000290: 9def 168b 3712 a0bf 9433 2807 9f9d a7bf
000002a0: ac08 b4e7 f713 863f 7fe6 8930 bbdf 76bf
000002b0: 3298 fd38 d507 59bf e4d9 19cf 0666 9e3f
000002c0: 3719 6fdd 77e5 77bf 16bd 9c59 bfbe a03f
000002d0: a028 4342 a0ac 7cbf 4e30 acc9 5afa 923f
000002e0: 505a 9f8a 674e 93bf ff9b bd0a 1209 9cbf
000002f0: f93a 5b98 2970 7a3f 7c9e 9a58 71f2 70bf
00000300: 6a6f 2689 bddd 64bf 0414 dcd9 5567 923f
00000310: 3c42 4d4d 4365 72bf d127 afd4 f590 933f
00000320: 332c 6b62 0abe 62bf f49c 6908 2d44 743f
00000330: 2742 7915 d985 7abf 3aea 81d5 6175 82bf
00000340: b40d 7d96 9c10 613f edf2 5a27 601f 51bf
00000350: 7aa8 adad 9ab4 3dbf 09b5 e1c2 ab86 783f
00000360: e26f 19a0 2103 6cbf e43e 6c0a 35f8 743f
00000370: a8d1 b648 8b94 7cbf a3da 658b e17f 923f
00000380: de91 8467 a2e2 91bf 3bfa 9bdc 5d8d 9bbf
00000390: 454b 68d4 3fcf 773f 5643 fc1c 2b03 493f
000003a0: f71d 06d9 55e4 6cbf ba1b c758 3946 943f
000003b0: c9b2 9dae 56c0 74bf f93c 4ceb 7de4 903f
000003c0: 2d34 bcbb 0205 5bbf 628a d67c f389 773f
000003d0: 6826 1c85 d689 70bf cd76 01a4 c7a7 82bf
000003e0: a7a2 d85f 564b 5c3f d162 355e 2466 fb3e
000003f0: 9add 2e2b 7061 4abf 0683 fffc 42b4 7e3f
00000400: 62af d53d 7c53 6bbf ddb5 3dd7 db50 623f
00000410: 0901 bac5 9f4f 85bf 68b7 5ee4 53e6 9b3f
00000420: 8e5d 407c 89ca 99bf a735 3351 d43e a4bf
00000430: 73a8 8419 63af 803f 1264 ce93 c5d5 503f
00000440: 7726 639b a4c5 70bf 784c 6edb 5e0d 9f3f
00000450: 2231 a9ad 1252 7ebf 8ac4 b920 918e 963f
00000460: 7621 c345 ba3c 63bf 71c1 ee70 901a 813f
00000470: b41a 6f33 81a4 80bf 89fe 609e d227 8bbf
00000480: 0c3e 35fc 09f4 6d3f e0a1 6299 a6d8 63bf
00000490: 881a 4d20 7bfb 47bf b230 dbda 8bd8 803f
000004a0: 1472 5082 47f1 6fbf 1736 f902 7546 7e3f
000004b0: 42b2 a8f1 e37c 73bf 2542 7aff 2200 863f
000004c0: 8382 03d0 7c10 85bf ac4b 5119 d0d1 8ebf
000004d0: caae 3b18 7dec 673f 08f0 c667 a95a 0abf
000004e0: b92e 956f 1b5d 59bf 9ef9 e73b a7b8 893f
000004f0: d846 4293 d1b4 70bf 3ddc 50f5 aa82 7d3f
00000500: 23bd e5d6 c539 89bf eab3 0123 e261 a03f
00000510: a002 2b85 48ca a0bf 33ae e2dd 9b11 a7bf
00000520: 34e6 f1a5 2b4f 843f 4b0e 0ad0 5a8b 72bf
00000530: 8910 c1bd bbc7 66bf b5d3 304a 1a1d 9f3f
00000540: ff28 96c8 478a 77bf 8004 35b8 21ff 9f3f
00000550: f041 eb99 362a 7ebf 9866 d2d5 fa41 933f
00000560: 0d59 9d43 e4ab 92bf d1aa 3669 2211 9dbf
00000570: 7128 4c0a a3b4 743f 984d dedc 577c 6dbf
00000580: d32b cea2 aea6 603f e7c6 fe8d be8a 903f
00000590: 1a04 0f86 fbb4 74bf 75ef 8a79 8db0 933f
000005a0: 38ee 5ecb e44e 54bf 379e c7aa 2e18 713f
000005b0: 5319 f64c 7123 73bf 46ba ae38 d2fc 7bbf
000005c0: 092f 055b 8571 5a3f f145 628a a86f 53bf
000005d0: 7c93 e9f5 a358 543f 53be a7c9 cc7c 753f
000005e0: 223e 7cd2 a3a6 62bf 171e 1c89 0e43 783f
000005f0: 3a5d 96ca 9c95 78bf 06c9 6459 4c1e 923f
00000600: 2a32 fa81 7f9a 90bf ed18 9541 6d5f 9bbf
00000610: c586 9fcb 348f 703f 6232 404b e053 513f
00000620: e5df bdbb 8525 6bbf 9847 225c 0b02 933f
00000630: 6df1 5c0e 5372 78bf b58d 3fcd 78d2 8f3f
00000640: 8228 3ac8 bdb2 48bf 0221 84f1 be37 7d3f
00000650: bdca ee72 73fb 70bf 95a2 2267 81c4 81bf
00000660: ff53 3760 ecbe 633f e4c8 3461 45f6 523f
00000670: 90bb e874 f484 42bf 42c7 7bd7 5071 7e3f
00000680: 905d d6d6 a413 64bf f616 1368 6891 6f3f
00000690: 3b90 5962 7bd6 87bf 70b1 3e0f d4a0 9b3f
000006a0: fc00 a369 b60a 9bbf 3197 2583 ccc1 a4bf
000006b0: f71e 592e ffbb 833f 9a1a 05c2 fefc 513f
000006c0: fb15 185a f5ce 62bf 837b db15 3e82 9d3f
000006d0: 2e46 3d34 e7df 7dbf 4ca0 3db3 28b2 983f
000006e0: 7596 0285 3bf7 64bf 238f d3ac 6b1a 813f
000006f0: 58ea 7b85 c13b 80bf 85f0 4550 3682 89bf
00000700: f6b8 1874 762a 673f e0f5 0ae3 5cd2 5abf
00000710: d820 9a5f 870d 623f d42d 02e5 b244 803f
00000720: 2ae6 8d74 0bb8 69bf ef3d bab3 f253 7f3f
00000730: 5c52 9e6f 9356 6fbf 87ab fac4 50bf 843f
00000740: e74a dcd3 86c6 84bf 4bd7 323b 6e0a 90bf
00000750: d20f ca5e 1035 6d3f 6c40 8f41 74a9 6a3f
00000760: eecf b296 be6e 5bbf 2c12 2c01 6c6a 873f
00000770: de9f d64a 0588 6cbf 8ffd 62f4 6065 7d3f
00000780: 01b0 976a 3edd 8bbf e5d4 0ea2 2268 9d3f
00000790: 4e6f 2cc6 c6bc 96bf eb48 ad2e fecf a5bf
000007a0: 5c82 2a39 df3b 833f 650a 98d3 2ccd 85bf
000007b0: ff69 3495 fdde 50bf 1af5 ab59 fbef 9c3f
000007c0: 5c1a fbac 20b7 81bf 96ef 8bab bdec 9f3f
000007d0: 5233 593b cd8d 80bf 011b 1a6b c8a5 903f
000007e0: fc6d 01a4 935c 89bf 199c 09d8 a987 99bf
000007f0: 3513 b920 d857 733f cd98 73d4 a6c9 7abf
-0.01226996468528013 0.03174898500544291 -0.031682418664498474 -0.04532291825922312 0.011115181893219243 -0.004639510809018336 -0.004164969777239217 0.029688648999386974
-0.005927932837813072 0.032077273893747996 -0.008378485895451288 0.018461341511445545 -0.017971429732977426 -0.027580131742166416 0.007227833363479089 -0.002764064925201079
-0.0017227886179635788 0.018227662822968792 -0.004060878959784015 0.020640976715281437 -0.0012782958890025689 0.006144404667481566 -0.004958913897653076 -0.008045696102499632
0.0040453116146459064 -0.00043123930447221023 -0.0004633558448954543 0.006372646168984233 -0.0028230844878528727 0.005720428408049085 -0.007495350336507063 0.016794150928934753
-0.0168080496761474 -0.02618770946993487 0.005484755735778844 0.0008379036895026302 -0.0028575976855270916 0.018459070141948645 -0.005300591711219484 0.015315083390456173
-0.0005863831652107912 0.005226372347259511 -0.004471212009305061 -0.008592081492061381 0.002487933931746136 0.0010842050081908963 -0.0006864373626425104 0.006982247646174343
-0.0029554897855525843 0.0024526506439296026 -0.010140463778895504 0.027019551818731093 -0.025350913462158176 -0.03973055518835419 0.008829470255992707 -0.001126686424125591
-0.004537709763943417 0.0296411691676863 -0.008550840425073881 0.023577720395645305 -0.0013861908407082975 0.009192065398608541 -0.008161012883654811 -0.014378566347990623
0.004499779527895142 -0.00206233179597096 -0.0010686478006779272 0.008829067384545206 -0.0032234565769786267 0.006710146711375208 -0.0038121633638172423 0.010894926265502222
-0.010474906193245368 -0.013654058412768144 0.003247910121992292 0.002321648298098572 -0.0012549852973468224 0.011018068994780743 -0.003922749926378192 0.007672914906125331
-0.011972809477098658 0.03131883664869662 -0.03138898442145364 -0.04612442934385466 0.010780274160883195 -0.005584460458175066 -0.001527746415342712 0.02968607558292459
-0.005834072325291032 0.03270528763675366 -0.007000566493113564 0.018533152159804715 -0.01885377677521155 -0.0273783511214809 0.006454622727416697 -0.004137461431731656
-0.002547140299794683 0.017972318098163256 -0.004491103075296151 0.019107667070592364 -0.0022878840275999623 0.004947830113997787 -0.00647530363455976 -0.009012951210242471
0.002083116374622407 -0.001045078182342947 -0.00045326973275073396 0.005987807218940996 -0.0034194618936407165 0.0051195213225267745 -0.006977600172309563 0.018065952428026787
-0.01746610409567661 -0.026906458463594723 0.005812882742719354 0.0007633171571531465 -0.0035268475259646564 0.019799133342327947 -0.0050662408847130325 0.0164966273178466
-0.001649143857267231 0.00574679481852289 -0.004037702530476396 -0.009109077160413115 0.0017269462108605944 2.6129715377495533e-05 -0.0008050725649501489 0.007496129677719626
-0.003335707339536074 0.002235822083028734 -0.01040577718890791 0.02724581796035555 -0.02518668003912477 -0.03954185000621218 0.008147024360898513 0.0010275296656117078
-0.004094737049123879 0.03032444204616211 -0.007402489626269467 0.0220282245849757 -0.002348293126576968 0.008351448484831466 -0.008126267797604704 -0.013259549578037226
0.0036564059279624635 -0.0024226430787914616 -0.0007318831636461002 0.008225529304944555 -0.0038992306385934403 0.00739141185438321 -0.0047577766477329714 0.01074244825511623
-0.010285353754114773 -0.015048623821859973 0.0029203837637988605 -5.026654705228567e-05 -0.0015480773857516185 0.012559229388895695 -0.004078692105524438 0.007204692655299158
-0.012317224140785904 0.03199679066970147 -0.032793298965321016 -0.04505621989786981 0.00991663074659064 -0.004527430283477306 -0.002780787164768543 0.030384455469363043
-0.005747108845193915 0.03124668776331818 -0.007364476476781054 0.018806380558635455 -0.018233839632864113 -0.028385675117230506 0.005055081249120006 -0.00359933052727408
0.002032605253082556 0.016154267708492844 -0.0050554108756282416 0.01922818235719555 -0.0012395128555756762 0.004173452657120039 -0.0046724725538126064 -0.006832905938536421
0.0016139795589706371 -0.0011862893966604305 0.0012418366601647237 0.0052459716339253335 -0.0022767257359033325 0.0059233253284740805 -0.006002056566465181 0.017693703609617216
-0.0162143633920541 -0.02673121178420328 0.004042822105448434 0.0010575952883328456 -0.0033137905101589976 0.01856248617020348 -0.0059684032801751 0.0155381620060727
-0.00075372950273446 0.007133241532081282 -0.0041460523342943785 -0.008675585708560344 0.0024103752818782627 0.0011573483978506932 -0.0005651658664812421 0.007432285106675542
-0.002450773192957896 0.0038535155477771267 -0.011639560641192861 0.026980698996042773 -0.02640805263286071 -0.04054106808579972 0.009635919191296234 0.0010979163999579656
-0.002295951083172152 0.028817148288790683 -0.007293608799800162 0.024117122592912474 -0.0025592958919158867 0.008351174556487323 -0.007926475416288145 -0.0124553912398755
0.0028278649849858796 -0.0016370684717651393 0.00220371666074835 0.007943532575402402 -0.003139517186750114 0.0076484184788934 -0.0038254623040734747 0.010130530368163594
-0.010144284573049457 -0.01566478954619947 0.0035653419238901108 0.0032546301485823406 -0.0016743527619782444 0.011433452401896714 -0.0034828284612622292 0.007176760415119956
-0.013605582836099474 0.02871755708811898 -0.022204500051074043 -0.04260248489176085 0.009391540462560126 -0.010645246703466069 -0.0010297275919756153 0.028259208057524444
-0.00865006950278973 0.03117653235948089 -0.008082965253515848 0.016257411515222312 -0.012383607332757222 -0.024931577502140898 0.004722446679413396 -0.006539966277364151

biases f8 [10]
00000000: 97ba d53f 997f 943f 90ed 284e 7132 a2bf
00000010: 00a0 da7a ba3e a43f f4d9 377a 034f ad3f
00000020: 5b8e 444c 5edb 7fbf 00aa f68c 3b10 82bf
00000030: e188 6d20 f1c1 603f 44fa 9fc0 9f8f a0bf
00000040: e920 aa70 8633 583f c35c fa1e ba59 a2bf
0.02001800014607599 -0.0355410964879993 0.039541079994990014 0.05724345080300344 -0.007777565337423543 -0.00882002376495894 0.0020456037049579744 -0.032345764411719574
0.0014771283046304767 -0.03584081295155663
