weights/weight_47_2.465.npz (npz, 109572 bytes, 3 tensors)

filter f8 [8, 3, 3]
0	0x3fe30e50604850a3	0.5954973106877514
1	0x3fd664be752d3b72	0.34989892428432434
2	0xbfc5b2ccd5be0100	-0.16951904713278765
3	0x3fbeb6da00aa1d44	0.1199775935766541
4	0xbfd24009b299e408	-0.28515856210248147
5	0xbf86b92671560645	-0.01109533341764569
6	0x3fd09693e9ab725b	0.2591905385905073
7	0x3fdd5f80a1c495bb	0.45895400807998116
8	0x3fe8187df64c5543	0.7529897509108782
9	0x3fe259c116bd8ad4	0.5734563297413282
10	0x3fb67ae0466d693a	0.0878124401037085
11	0xbfa9254e87459689	-0.04911275292651591
12	0x3fb3e4a7eb1ca2ca	0.07770776262317294
13	0xbfafed6a7984a7bf	-0.062358214696657914
14	0xbfb729e98402f195	-0.09048327897011739
15	0x3fae432c9f80e2ac	0.05910624930442529
16	0x3fc7a8b0952f2b77	0.18483550342929408
17	0x3fe45c99a29f6c69	0.6363037277436777
18	0x3fb9622ec722a3da	0.09915439950658769
19	0x3fccbb68d2770573	0.22446928288085707
20	0x3f9427214ac0ccbb	0.019680519282883262
21	0x3fc35aac20db2819	0.15120460132885752
22	0xbf859bd1fef81558	-0.010551109880007445
23	0xbfa08a3b306abac8	-0.03230462041880383
24	0x3fbc3d44556b45fd	0.11030985913682652
25	0x3fd499efe1c5b589	0.32189557121349616
26	0x3fd04b9ad00fdf1c	0.2546145469527674
27	0x3fd789a3abfcc830	0.3677758388104193
28	0x3fd59c8ca0d1ec72	0.3376800127513838
29	0xbfda51e59f060078	-0.41124859361298816
30	0x3f3aaf729541afa4	0.00040718600690214436
31	0x3fbcbd3e90ab770a	0.11226264030434777
32	0xbfa40e55c30a82d9	-0.039171867426608116
33	0x3fa0c52f822de9e5	0.03275440658667942
34	0x3fce1ee54ec3a770	0.2353178629485302
35	0x3fd9aabda115bfe6	0.4010461876960093
36	0xbf65cd753178b19e	-0.0026614464693663483
37	0x3fc3c3c225844312	0.15441157180659865
38	0xbfb10b53fbef9359	-0.06657910252358813
39	0x3f7aa59122676f07	0.006505553179944951
40	0xbfcb35714c56b9b1	-0.21256843783835458
41	0x3fbbe83f4d3db5f2	0.10901256213920599
42	0x3fa3b6091e11eea0	0.03849819652620323
43	0x3fb9a133901aaafd	0.10011598842781307
44	0x3fbd98269841697e	0.11560288636375124
45	0x3fde97cb06ea1bc4	0.4780147140049247
46	0x3fdb469c113acdab	0.4261846702822491
47	0xbfe663c4df3260cd	-0.6996788367569252
48	0x3fcd9a86f4adf4cb	0.23127829501382843
49	0xbf9485a8ae631f63	-0.02004111828207956
50	0xbfb5d045caf15817	-0.0852092380967807
51	0x3fae022ccaa00a10	0.05861034367992002
52	0x3fd8c898495ed6cd	0.3872433392055939
53	0x3febbcfd90af693e	0.8668201280482106
54	0x3fd1599e06735ac4	0.2710948050493409
55	0x3fbadf860df434e0	0.10497320023224033
56	0x3facbd186cc2532c	0.05613018348336704
57	0x3f9c6051c42635e4	0.027711179348946305
58	0xbfb967bd55d54d66	-0.0992391905359021
59	0xbf876e6b721b9cb3	-0.011441077632709051
60	0x3fb257cf35ec8dcf	0.07165236536507467
61	0x3fc316190b283058	0.149111872146366
62	0x3fda63dc684e310e	0.41234502969815956
63	0x3fcda0ba46c113aa	0.23146751837535123
64	0x3fd54b982608f758	0.33273891176565007
65	0xbfc3483a59820b89	-0.1506417214441991
66	0x3fbaee1837bc95e7	0.10519553528555257
67	0x3f526c413896200d	0.0011244427608705393
68	0xbfb1c1b7dbfb54ef	-0.06936215515755227
69	0xbfa09a91a083f402	-0.032429266781015556
70	0x3fbe9ccb56663e2e	0.11957999095306412
71	0x3fd0449fa6724118	0.25418845419427916

weights f8 [1352, 10]
0	0xbf8edd6eac7e63b1	-0.015070786131944876
1	0x3fa69f04d36b0d74	0.04418196755207307
2	0xbfa27d007e94b43a	-0.036109939052359555
3	0xbfaab76dcf690bfe	-0.0521807017981004
4	0x3f96d8608d9cbc91	0.022309788363767572
5	0xbf8b6b683577194e	-0.013388456470136003
6	0x3f84ee6e6b75fb65	0.010220396665997897
7	0x3f983744d8c61e84	0.023648334246472405
8	0xbf91ed0ea202157f	-0.017505863798324747
9	0x3fa1ac4ba47a4b63	0.03451763518127995
10	0xbf857497188df30a	-0.010476284443706092
11	0x3f9c11a6cf48c4ae	0.027411085511805204
12	0xbf95b26e93cc2158	-0.021188476343952573
13	0xbfa0c14d7e553927	-0.0327247826304407
14	0x3f8e80bf1f182a43	0.014894002090860009
15	0xbf7bd9d30e364aa4	-0.006799530444726063
16	0x3f7f090a8495c655	0.007576981626117159
17	0x3f8e8d8cb29e540b	0.014918421936991796
18	0xbf8c714147514d36	-0.013887891758861497
19	0x3f96e49febf451a8	0.02235650899554434
20	0xbf6922d7112a12ac	-0.003068370869473055
21	0x3f85dc4605b86b34	0.010674044656345673
22	0xbf815cd8a2b38409	-0.008477871384856799
23	0xbf85d339621ec093	-0.010656784350288972
24	0x3f7d663d1e674ea1	0.007177580590411432
25	0xbf5980db32302e6d	-0.0015566006266024793
26	0x3f7276ce77ee7c7a	0.004507833974371706
27	0x3f7aec226fba9b9e	0.006572851674412043
28	0xbf7ed08e39706aea	-0.007523112834884252
29	0x3f7b2ad244738acc	0.006632634503349787
30	0xbf82d60d6d0a833c	-0.009197335138482303
31	0x3f999448b56b6f0a	0.024979721138932688
32	0xbf940202343dce4c	-0.019538912237705028
33	0xbf9ee705f346c750	-0.03017815873472013
34	0x3f8bfed325952643	0.013669633469038383
35	0xbf62651c60c7e0af	-0.00224547903621549
36	0x3f760a927bd93469	0.00538117618777987
37	0x3f8feee7b234610e	0.015592393995163902
38	0xbf8dc2b074d1f3d2	-0.014531496586863844
39	0x3f8d4ea00e3a7c5f	0.014310121950357578
40	0xbf53564028ea4900	-0.0011802317200460544
41	0x3f827860db093216	0.009018665966459099
42	0xbf74b1320c213a6c	-0.005051799295030617
43	0xbf85fef21c5986ed	-0.010740176668324131
44	0x3f77d17273a47d18	0.005814978673043279
45	0xbf4774eb32300306	-0.0007158420961560226
46	0x3f630d3d2157b25c	0.0023256486845098356
47	0x3f75baa453b9ab20	0.005304948713823504
48	0xbf7b22e2bed921dd	-0.006625066494571699
49	0x3f66dc7aea8360ec	0.00279067999882098
50	0xbf8b55f57950e699	-0.013347547306796147
51	0x3fa4bb86642d39a5	0.04049320195064191
52	0xbf9dbee0560dc349	-0.029048447849564316
53	0xbfa7e60ad3ca9449	-0.046676958421166655
54	0x3f96fbb329b9c683	0.022444533750280115
55	0xbf71b1c581298043	-0.004319926740748828
56	0x3f815597c5dfa811	0.0084640366803406
57	0x3f99f1b827ab453e	0.025336148663716467
58	0xbf99b0158fbce5a8	-0.025085770509780808
59	0x3f95e2673bbbc812	0.021371472378582786
60	0xbf65e70dc250bc89	-0.0026736515742623074
61	0x3f906fa45c7e5a37	0.01605088057075418
62	0xbf86fb6b1873db27	-0.011221729930623049
63	0xbf934816c32799d3	-0.01882968488816934
64	0x3f858537f0cf8a9a	0.01050800040861093
65	0xbf76725700a7e267	-0.005480136731869401
66	0x3f77073b7fa4608e	0.005622131744779447
67	0x3f7b615fdc0e3ea8	0.006684660388500831
68	0xbf83b9f134f82228	-0.009632000378602859
69	0x3f80399c44e15c5b	0.007922383167324456
70	0xbf759e20a7cf012a	-0.005277755318218428
71	0x3f920a717f242394	0.017617963204461143
72	0xbf8a2ba8bd6f5b92	-0.012778585702035081
73	0xbf914acbd4806c37	-0.01688688740260266
74	0x3f820f4f3270c421	0.008818262793370892
75	0x3f61a079d7ba71ed	0.0021517162075055303
76	0x3f70dc758685bf6a	0.004116496166133613
77	0x3f851da4c2d459ba	0.010310446925854023
78	0xbf882b7712f72a87	-0.011801653162270455
79	0x3f779eb85a0bb5bd	0.005766601680745107
80	0xbf8e41a32d49310f	-0.014773630923763407
81	0x3fa666a3712b3ae4	0.04375181919532681
82	0xbfa2568a79a045fa	-0.03581650480931482
83	0xbfab207c0f33bbfc	-0.052982212882731944
84	0x3f9680954694fe95	0.021974880631431565
85	0xbf8d5ad5342e6260	-0.014333406119292735
86	0x3f8a55188c319031	0.012857620027894342
87	0x3f98369825d0d340	0.02364576083001002
88	0xbf91d473c2ae74bd	-0.017412003285802714
89	0x3fa1fe9c4973f87a	0.0351456489242858
90	0xbf82a229e265e1b0	-0.009098365041368378
91	0x3f9c2479f0d43e94	0.027482896160164375
92	0xbf9699bbe28ecf86	-0.02207082338618662
93	0xbfa0a6dadbffd0e3	-0.03252300200975513
94	0x3f8ceb5c8bef9940	0.014120791454797499
95	0xbf80bcf7afbef6f3	-0.008172926951256687
96	0x3f7ba8a54c5cf97d	0.006752629944286046
97	0x3f8e07ace8ae3575	0.014663077212186274
98	0xbf8d52d0fb5dbe48	-0.014318115874373608
99	0x3f9552ad40d70d5a	0.020823199350855283
100	0xbf70b40cc92f7a42	-0.004077959008070455
101	0x3f8368ec811ff7c4	0.009477470102861825
102	0xbf8477df055344b7	-0.009994261121763477
103	0xbf87ce582a8eaa11	-0.011624039458031839
104	0x3f755cba58415828	0.005215385350387826
105	0xbf61c7bdd611afde	-0.00217043950447325
106	0x3f728161f047cd0c	0.004517920086516424
107	0x3f79589a04744f44	0.006188012724368811
108	0xbf80a0f38859dca2	-0.008119490240672104
109	0x3f78b4b97ff7a05c	0.006031727417827506
110	0xbf81c69a2cdbf7e6	-0.008679584974284848
111	0x3f9ae1addccd5518	0.026251522638024744
112	0xbf94ae837d15bb88	-0.020196966657234167
113	0xbf9fa37060f6b427	-0.030896907728379965
114	0x3f8caadb9bb14bf9	0.013997760475978881
115	0xbf630187b7bae0ac	-0.0023200655685649742
116	0x3f734cd01902081c	0.004711926347342323
117	0x3f9156bdf79546c1	0.016932457195543153
118	0xbf8d47d26bbc2baa	-0.014297145760357417
119	0x3f8fba183271a313	0.015491665877748006
120	0xbf625fe561c3d7b7	-0.002242992412102542
121	0x3f83893ac6fd466c	0.009539088437722408
122	0xbf72eaa0bb95a83a	-0.004618289816201987
123	0xbf870e0018406d75	-0.011257172336675872
124	0x3f74b37e5da92776	0.005053990952157741
125	0xbf5d10594af8b317	-0.001773917388969431
126	0x3f621471574adeef	0.002207013482202195
127	0x3f77d57c7c097ed8	0.005818830745368785
128	0xbf7cb1929e3429a9	-0.007005284048555196
129	0x3f6515c1f8052818	0.0025738514379201154
130	0xbf8be10f3cab68b1	-0.013612860716808535
131	0x3fa4d92e9f8899fb	0.04071946809226642
132	0xbf9d93d2d1549583	-0.028884214426530896
133	0xbfa7cd4eee9e9b15	-0.04648825323902465
134	0x3f9648ccfe85d6cd	0.021762087855185897
135	0xbf61bdd30d65ef74	-0.0021657106510115046
136	0x3f823dd690758254	0.008907009395160127
137	0x3f9aa4d5d2569538	0.02601942154219225
138	0xbf98830d0b3cb134	-0.023937419710976474
139	0x3f944c365467b232	0.019821976567913242
140	0xbf6dc8ba7d9e4185	-0.003635753860130988
141	0x3f8f268f07c3148a	0.015210263656977103
142	0xbf86e933b062e511	-0.011186984844572952
143	0xbf9222bed16ea3ff	-0.017710668118215974
144	0x3f83cb0c40920f12	0.00966462680867822
145	0xbf77ec2753792a0c	-0.005840448014689869
146	0x3f78685b114838b4	0.005958896381811286
147	0x3f78e884d7090534	0.006081122308900167
148	0xbf851c3e10ec17aa	-0.01030777444021765
149	0x3f819eca20f40c17	0.008603648310332486
150	0xbf797dacc9dfb88c	-0.006223368602134138
151	0x3f91e278dede8a68	0.01746548519407512
152	0xbf89c84771382db6	-0.012589033262904486
153	0xbf92b85f87cc6286	-0.018281452811694375
154	0x3f8163975a76df27	0.00849073643517746
155	0xbf2cdca3e505e21c	-0.00022019863764534485
156	0x3f6f52426f24c4bd	0.0038234040777288245
157	0x3f8845a7cec120ec	0.011851607319969003
158	0xbf887d39477105c5	-0.011957595341416724
159	0x3f75b3c0e5f90a83	0.005298379429918956
160	0xbf90204d5b0c527d	-0.015748223001610818
161	0x3fa69e6645b7b2a6	0.04417724228901436
162	0xbfa2f6460bd448f9	-0.03703516859435924
163	0xbfaa949f39e163bb	-0.0519151456980533
164	0x3f94fcace4541e5f	0.020495130001135894
165	0xbf8bac2a7d4ce4fc	-0.013511974285949517
166	0x3f90ce91c6bf2a9f	0.016412999873674946
167	0x3f95a1f976c2e061	0.021125696061716662
168	0xbf91c555492e3286	-0.01735432871969291
169	0x3fa13e04067d42b6	0.0336762674256809
170	0xbf84efe22ba940d9	-0.010223166425163676
171	0x3f9c275fff82176d	0.027493953676205708
172	0xbf962f24716a5b9d	-0.021664208814936015
173	0xbfa12bdbbba4e435	-0.03353773751809578
174	0x3f88a9fa5360e3e9	0.01204295699072762
175	0xbf803f50aa0df66c	-0.007933263959553481
176	0x3f912563a770defd	0.016744191260129593
177	0x3f83dc7c4794de81	0.009697886404509195
178	0xbf8e8aad0ea97597	-0.014912940988490315
179	0x3f956eb42a5130f2	0.02093011387141614
180	0xbf6b9c31e8dadc4a	-0.003370377998034556
181	0x3f81998f12ee7d46	0.00859367157482772
182	0xbf80d1b21860940e	-0.008212462777075682
183	0xbf8359ecf54dbc7e	-0.009448863254617242
184	0x3f723e34357edf38	0.00445385355117605
185	0xbf640c58347319a0	-0.0024472925902927073
186	0x3f8142304e06f43b	0.008427026158523634
187	0x3f710552ad4683d6	0.004155466991876152
188	0xbf7ca0fd2a712454	-0.006989468506682323
189	0x3f7bf8d63d3864a6	0.00682910620846503
190	0xbf80763b3a6c9c26	-0.008038008423296782
191	0x3f9a5c90887b55ce	0.02574373085993447
192	0xbf9347ad4ecc535f	-0.01882811349340174
193	0xbf9f757bb47009f0	-0.03072160042575861
194	0x3f885d2e5dbf5af7	0.011896478877969836
195	0xbf61972eb83a5075	-0.002147284745499129
196	0x3f7eb0ded9a7aa8b	0.007492895611430082
197	0x3f8c946228cf970a	0.013954893942308217
198	0xbf8f295dce86b26d	-0.015215618958643174
199	0x3f8dc0a17e1eee58	0.014527570401575193
200	0xbf575c47233149d8	-0.0014258093549598307
201	0x3f864c5cb3f35bdb	0.010887836686761012
202	0xbf730b2485b032b3	-0.004649298348351638
203	0xbf862a575d8a4af5	-0.010822947065468361
204	0x3f7726cbea339bfa	0.005652233641035837
205	0xbf45ee28b4677546	-0.0006692599061427849
206	0x3f692db39e37f807	0.0030735500492928866
207	0x3f75a44ab6e37d32	0.005283634045752538
208	0xbf791643606877c6	-0.006124747457333107
209	0x3f7129d0399b693d	0.004190266970648002
210	0xbf903b32e2961a80	-0.015850825385792522
211	0x3fa4881988708ea7	0.040100858597978566
212	0xbf9efd5262b0a5f4	-0.030263221047936953
213	0xbfa85171e6bfc318	-0.04749637548218838
214	0x3f96e114a2256070	0.02234298934612905
215	0xbf6458fe1d02927e	-0.002483841242865658
216	0x3f92440ea1b633b8	0.017837742443180565
217	0x3f94bf101701d72a	0.020260096935508155
218	0xbf987153679ac252	-0.023869803617971926
219	0x3f966b1a947a357b	0.02189294368013382
220	0xbf72242e16577c3e	-0.004429035213859454
221	0x3f8ec5fa26fb84ab	0.015026048960353163
222	0xbf8703f9330169c9	-0.01123804747492309
223	0xbf915221eaa2b674	-0.016914873071689887
224	0x3f8115a0f8a4b994	0.008342034900661578
225	0xbf75ab7a029f2af3	-0.005290485956673352
226	0x3f8a44d32b2925f7	0.01282658553567993
227	0x3f6deeac96cde222	0.00365384777836321
228	0xbf8398de31a99962	-0.0095689162164489
229	0x3f821fd806072031	0.00884979980845921
230	0xbf76d673a3a50bac	-0.005575610843439199
231	0x3f9127cd6ea32673	0.016753396871342873
232	0xbf898e18fe263520	-0.01247806096651033
233	0xbf935a9ad6ce9415	-0.01890031753614004
234	0x3f822efb6a23c7ce	0.008878673721913002
235	0x3f685dc82ede0744	0.002974406225747213
236	0x3f7767bec10e4e82	0.005714173444079431
237	0x3f837a0d66f01a80	0.009510140136638201
238	0xbf874ac4e78a8976	-0.011373079601359786
239	0x3f75910ace812b47	0.0052652761588188384
240	0xbf914af76b5b16c6	-0.01688753693340208
241	0x3fa332dc3ccf5318	0.03749740831668741
242	0xbf8f164983576dcd	-0.015179228134846756
243	0xbfa7d606288fcaca	-0.046554748965623796
244	0x3f949fbbc83286cd	0.020140585035398218
245	0xbf96494389283bda	-0.021763854261788264
246	0x3f80b9e480432937	0.00816706196237203
247	0x3f948e7ff8fc57fd	0.02007484395206659
248	0xbf94c33837a6fa44	-0.02027595367121139
249	0x3fa132880ab9647d	0.03358864909086721
250	0xbf8523b4f7f85d63	-0.010322011773537814
251	0x3f96f5f61cd6830b	0.022422643194320673
252	0xbf7c15a59e2fc657	-0.0068565816354620645
253	0xbf9c21fffbddb756	-0.027473449466405363
254	0x3f890f3c31e4cf8a	0.01223608996642846
255	0xbf89bf0debf768fb	-0.012571438563942374

biases f8 [10]
0	0x3f9988b0ce7974e4	0.0249354959508893
1	0xbfa82ca32bcf26cc	-0.04721555623798465
2	0x3fa90b623ffad9b3	0.04891497641567657
3	0x3fb1a728ef3186e0	0.06895690765079676
4	0xbf965fc8c4dee083	-0.021849762931851046
5	0xbf842418d03b7a9e	-0.009834474425074288
6	0xbf863d22eff9667f	-0.010858796070510877
7	0xbf9e3cbbd1d93346	-0.029528555567867508
8	0x3f90e8bc47bd6ac8	0.016512815359741834
9	0xbfa47f364240eeaf	-0.040033050143816744
