weights/weight_42_0.154.npz (npz, 109572 bytes, 3 tensors)

filter f8 [8, 3, 3]
0	0x3fe434606b33e648	0.6313936322978373
1	0x3fddda44c602aea1	0.46644706093750626
2	0x3f9eca3ba1a53063	0.030068332425159727
3	0x3fc18a35cdf1e444	0.13703033977415846
4	0xbfcf0e9a6aa1818a	-0.242633153978215
5	0x3fab83bdb1007898	0.053739478928251205
6	0x3fc659e666ec7eb7	0.17461853051735485
7	0x3fd3d9903d623830	0.31015401834963807
8	0x3fe0da26e9f2723e	0.5266298836973602
9	0x3fe2e85d138d5833	0.5908646947743875
10	0x3fc4baa2d3d6567b	0.16194568008056706
11	0x3fb491ccb496b6b3	0.08034972580818582
12	0x3fbd0971f64d0d0e	0.11342537177283793
13	0xbf918323c3b1903b	-0.01710182077330578
14	0xbfa3e29b617ba37b	-0.038838248872543134
15	0x3fa39634a8540c4f	0.03825535349644637
16	0x3fbdb9e5f916d2ba	0.11611783343580387
17	0x3fe05f4920fd4ca1	0.5116315502476888
18	0x3faae2b97d987200	0.052511021214943554
19	0x3fc9cc01ddd5580e	0.20153830844600445
20	0x3f90dc794dcdf927	0.01646604096776474
21	0x3fba84b0d069c35d	0.10358719909869536
22	0xbfa20067ba79df44	-0.03515934134787682
23	0xbfa67a60a17f416c	-0.04390241595649766
24	0x3fad9768331dc3da	0.05779576896646406
25	0x3fd110ef002fcd72	0.26665854471430983
26	0x3fc994a1ca595cbf	0.19984838848424677
27	0x3fd899cec34d1688	0.38438767502189153
28	0x3fd9412786bc4d29	0.3946017089630965
29	0xbfd119094f98feaa	-0.2671530988045371
30	0x3f9a229ecf2aace1	0.02552269114918893
31	0x3fc2b38b50aac72e	0.146104254139169
32	0x3f96f174835c7fd3	0.0224054532219496
33	0x3f9074c13b731175	0.016070384267338384
34	0x3fc867e669d7f9fb	0.1906707779707658
35	0x3fd300db202f5de2	0.2969272436434648
36	0x3f9ecc6ab08b3a0c	0.030076663041478865
37	0x3fc9fc048c042da7	0.20300347172483876
38	0xbf8593831f793220	-0.010535263441078746
39	0x3fa1a66c65476d85	0.03447283493343448
40	0xbfc797f410f58886	-0.18432474926072845
41	0x3fc03575ab351010	0.12663145885210314
42	0x3fa88238f5c92a9a	0.04786851883234995
43	0x3fb7b41c718f8b85	0.09259202740171986
44	0x3fb4c8bbb12f84b1	0.08118794513531459
45	0x3fe269298c1cf678	0.5753371941170391
46	0x3fe22581fc7ea653	0.5670785838639837
47	0xbfddea11044e8da9	-0.4674112836894105
48	0x3fd3e9215c6c1775	0.31110414529427227
49	0x3fa4682655fbf41f	0.03985709952937832
50	0xbf931a61021a0af0	-0.018655315163878805
51	0x3fa96976830f9054	0.049632743357307746
52	0x3fd2e843eda34777	0.2954263516122561
53	0x3fe61f61f2072221	0.6913308837038735
54	0x3fd1bdde7887984a	0.2772136857078108
55	0x3fc1d42db9072fb5	0.13928767714093984
56	0x3fbdf9e2c14d880a	0.11709420413311036
57	0x3fa2d345b779ce51	0.036768129965733316
58	0xbfb948a9f82650df	-0.09876501377431478
59	0xbf9378c5d9044f25	-0.019015399332672395
60	0x3fa5b32c65ffc029	0.04238260979752823
61	0x3fb86500c3c7dbc0	0.09529118327905817
62	0x3fd502a60e9315ed	0.3282866613702414
63	0x3fcf63e832413acf	0.24523642019126732
64	0x3fd799188f84ba28	0.36871923461413525
65	0xbfb1f543746e4edd	-0.07014867394019171
66	0x3fbd8bac84f85952	0.11541250463810585
67	0x3f8fea936c2d428a	0.015584136713785019
68	0xbfa5e4cf57fd84dc	-0.04276130627727934
69	0xbfa8c7604d64cde0	-0.04839611954448819
70	0x3fb9fc4871b7c4d3	0.10150578285517335
71	0x3fc8f86d2c16640e	0.19508137371738637

weights f8 [1352, 10]
0	0xbf8b6202bea20cf2	-0.013370534365327622
1	0x3fa3c03db59a2593	0.03857605783293674
2	0xbfa0ba9c7f9e5728	-0.032673731401855755
3	0xbfa99a7d0def2310	-0.050006778670257046
4	0x3f9894def4ef7635	0.024005397510214094
5	0xbf8803c38e607221	-0.011725929052823382
6	0x3f72521c2a4ee36f	0.004472837467738396
7	0x3f96e39d8254ca6c	0.022352658347879403
8	0xbf8cc5f763055314	-0.014049465855956046
9	0x3fa0eadcf1816730	0.03304186294617606
10	0xbf82ff546a6393bc	-0.009276065346463962
11	0x3f9802700ef4f3d4	0.023446799195187953
12	0xbf92fcf33b85a39c	-0.018543053157745612
13	0xbf9fa09b4896e0a2	-0.030886102967742197
14	0x3f9022ed5420a9c4	0.01575823617910445
15	0xbf7a1212570aa825	-0.0063648907095430795
16	0x3f6e14bb64e4fb39	0.003671995166910771
17	0x3f8c483c6a933af5	0.013809654238142491
18	0xbf86141f51f87b9d	-0.010780567826314253
19	0x3f95c0feb45b5bca	0.02124402976809473
20	0xbf5e23db18274f6d	-0.0018396033852825192
21	0x3f80bb983a41b711	0.008170308378079779
22	0xbf77d1e3c84413d0	-0.0058154008622794545
23	0xbf8334ccc533017b	-0.009378051536601309
24	0x3f8032b5f112e7b6	0.007909223002901072
25	0xbf5a00e20ee91b1a	-0.0015871245956462
26	0x3f5c5dd14874502b	0.0017313522128619234
27	0x3f758e1a431e09d2	0.005262472712163251
28	0xbf7923098f2d4173	-0.006136929837183269
29	0x3f786fc2fd75d697	0.005965959243771877
30	0xbf8191651252b5b0	-0.008578099843670056
31	0x3f9640582c0b4611	0.02172982949088548
32	0xbf91dd55c93889d6	-0.017445888906999794
33	0xbf9dc96f55e9d3cb	-0.029088725680100496
34	0x3f8ce36e2c6cac2b	0.014105663996437276
35	0xbf6059dd50add943	-0.001995975738675744
36	0x3f65b7b298b8a2c6	0.0026510704244809584
37	0x3f8da7ed971eb1d1	0.014480453657449129
38	0xbf88c825f9d59cf6	-0.012100502669183371
39	0x3f8da9b42278525c	0.01448384027666199
40	0xbf51007ca320051c	-0.0010377137336948289
41	0x3f802ac564e9c9c6	0.007894079343917403
42	0xbf73f1c532170809	-0.0048692419963476475
43	0xbf853606d03f3311	-0.01035695384043714
44	0x3f789b672211330a	0.006007578719686499
45	0xbf0c74f8def117dc	-5.42772721634913e-05
46	0x3f5965489f6da306	0.0015500268179612932
47	0x3f7579256ac1c78a	0.0052424871065443
48	0xbf7853762f0673e2	-0.005938970236823745
49	0x3f6484ed599fcfc6	0.002504790853885527
50	0xbf88dde8768ead3b	-0.012142006033022503
51	0x3fa20e93a19353f1	0.035267461274692276
52	0xbf9a1d94e3bf49ae	-0.025503469849192655
53	0xbfa6fbc04c72142d	-0.044889458972683684
54	0x3f975abf8906636f	0.022807114351596377
55	0xbf70b49f0307d784	-0.004078503742212084
56	0x3f70ffb06aff4df7	0.004150094158791521
57	0x3f97ba39f5ad3b71	0.023171334857859664
58	0xbf952e0d243ee60a	-0.020683484399091547
59	0x3f960c654e6a003b	0.021531660948767444
60	0xbf5db66d80e10038	-0.0018135136956658592
61	0x3f8b329dc9ce8792	0.013280136796143958
62	0xbf82ef92ae90a0a5	-0.009246011688518083
63	0xbf9198ff01c4d647	-0.01718519638344265
64	0x3f85c7cfe247cb59	0.010635017483741004
65	0xbf7353e6af155ad9	-0.004718686207829414
66	0x3f6721bbf3bc6483	0.00282370290177575
67	0x3f78fe133286e542	0.006101679792146543
68	0xbf8065684eb7ec12	-0.008005919363304446
69	0x3f7cff8b3c278363	0.007079643141396061
70	0xbf72f961dcc05324	-0.004632360720297855
71	0x3f8e7b463062a396	0.014883564330675541
72	0xbf86a41ebe6c1a32	-0.011055221735216756
73	0xbf9026c089939daa	-0.015772827527056478
74	0x3f8271feb13c7ba0	0.009006490501233533
75	0x3f61815c84b66d5f	0.002136879634873231
76	0x3f61d71f2575ffc8	0.002177773316077467
77	0x3f82a34c0e262f59	0.009100526983068557
78	0xbf83cefb42d7836a	-0.009672129609443043
79	0x3f7804c169e0ead0	0.005863910219029392
80	0xbf8ac6373f6cda4c	-0.013073379157146146
81	0x3fa387dc535a5303	0.038145909476190475
82	0xbfa094267aa9e8e2	-0.03238029715881098
83	0xbfaa038b4db9d30e	-0.05080828975488859
84	0x3f983d13ade7b839	0.023670489777878088
85	0xbf89f3308d17bb33	-0.012670878701980115
86	0x3f7d1f706bc60cfa	0.007110060829634829
87	0x3f96e2f0cf5f7f28	0.02235008493141702
88	0xbf8c94c1a45e1194	-0.01395560534343402
89	0x3fa13d2d967b144a	0.033669876689181935
90	0xbf802ce7343b8259	-0.007898145944126233
91	0x3f98154330806dba	0.023518609843547124
92	0xbf93e4408a4851d7	-0.019425400199979705
93	0xbf9f6bb603ec1016	-0.030684322347056613
94	0x3f8eb0781518c2b3	0.014985025543042018
95	0xbf7fb22ea8524b4b	-0.007738287216073679
96	0x3f6753f0f473617e	0.002847643485079653
97	0x3f8bc25ca0a31c65	0.01355430951333698
98	0xbf86f5af0604eca7	-0.011210791941826349
99	0x3f942f0c093e177a	0.01971072012340567
100	0xbf6757300d488993	-0.002849191523879921
101	0x3f7c907d6b52875a	0.006973733824595952
102	0xbf7e07f08d83953e	-0.007331790599186148
103	0xbf852feb8da2eaf9	-0.010345306644344176
104	0x3f785be91bffd92e	0.005947027762877517
105	0xbf6207c1446e262e	-0.002200963473516968
106	0x3f5c881f29d99273	0.0017414383250066417
107	0x3f73fa91d7d7bd72	0.004877633762120014
108	0xbf7b946266708fb3	-0.006733307242971098
109	0x3f75f9aa38f9ec27	0.005365052158249595
110	0xbf8081f1d2242a3a	-0.008060349679472546
111	0x3f978dbd536d2c1f	0.023001630989977536
112	0xbf9289d712107711	-0.01810394332652893
113	0xbf9e85d9c399c0ad	-0.02980747467376037
114	0x3f8d8f76a288d1df	0.01443379100337777
115	0xbf60f648a7a0d943	-0.0020705622710252294
116	0x3f603c2dd30a4a23	0.0019818205840434074
117	0x3f903340ea0a6f1b	0.015820516857828353
118	0xbf884d47f0bfd4ca	-0.011866151842676937
119	0x3f900a962357bc99	0.015665384204052477
120	0xbf6135039edeb5a2	-0.002100474425751301
121	0x3f813b9f50ddde1d	0.008414501815180714
122	0xbf722b33e18b75d7	-0.004435732517519018
123	0xbf864514cc261999	-0.010873949508788882
124	0x3f757d730c15dd68	0.005246590998800961
125	0xbf52398b78d83a6c	-0.0011123525649769051
126	0x3f5773b10b53fc22	0.0014313916156536506
127	0x3f7793fd93119b42	0.0057563691380895805
128	0xbf79e2260e617bb2	-0.006319187790807245
129	0x3f62be34672196f4	0.0022879622929846636
130	0xbf89690239e92f53	-0.012407319443034892
131	0x3fa22c3bdceeb447	0.03549372741631678
132	0xbf99f2875f061bec	-0.025339236426159248
133	0xbfa6e30467461af9	-0.04470075379054168
134	0x3f96a7d95dd273b9	0.02212466845650216
135	0xbf5f870c22453bdb	-0.0019242876524747574
136	0x3f72d02e002b0285	0.004593066873611056
137	0x3f986d57a0588b6b	0.023854607736335447
138	0xbf9401049fbeb196	-0.019535133600287212
139	0x3f9476346715ea59	0.019982165138097894
140	0xbf66bce37bbe04fd	-0.002775615981534528
141	0x3f8979e41894e7ac	0.012439519882366877
142	0xbf82dd5b467faa91	-0.00921126660246799
143	0xbf9073a7100be073	-0.016066179613489284
144	0x3f840da4320a4fcf	0.009791643883808291
145	0xbf74cdb701e6a27e	-0.005078997490649882
146	0x3f69e3fb170414cb	0.003160467538807587
147	0x3f7685382d81abdb	0.005498141712545891
148	0xbf81c7b52aabe194	-0.008681693424919236
149	0x3f7fc9e6f44ce2e1	0.007760908284404095
150	0xbf76d8edfed10a86	-0.005577974004213565
151	0x3f8e2b54efd7714e	0.014731086320289546
152	0xbf8640bd7234ec56	-0.01086566929608616
153	0xbf9194543cdf93f6	-0.017167392936148183
154	0x3f81c646d94296aa	0.008678964143040108
155	0xbf2ece7915462bac	-0.00023503521027764868
156	0x3f5ee0ed0f1e8b42	0.001884681227672672
157	0x3f85cb4f1a12f68f	0.010641687377183543
158	0xbf8420bd77515ea8	-0.009828071788589313
159	0x3f7619c9f5ce3f96	0.005395687968203241
160	0xbf8c81950325a67a	-0.013919033201733589
161	0x3fa3d190c7f1b302	0.038708233268016215
162	0xbfa1989102be0192	-0.034367114624731646
163	0xbfa979672f1b8f00	-0.049754356861539506
164	0x3f96f4f78311c001	0.022418849348866846
165	0xbf882b16ee46765f	-0.011800936838706364
166	0x3f81a4d26afdb43c	0.008615154161555443
167	0x3f96a4063f857458	0.022110078455956333
168	0xbf8c72d0c44a43cc	-0.013890868177698489
169	0x3fa07cd841444ff8	0.032202489821571534
170	0xbf823e31bf391e34	-0.008907688759008804
171	0x3f9837b8f057969c	0.02365006415302294
172	0xbf941bbe28adca23	-0.019637080414620322
173	0xbfa03c6a3125534a	-0.03171092843937247
174	0x3f8ad90fba834852	0.013109324340266824
175	0xbf7e88f288de3103	-0.007454821968974071
176	0x3f866eb6e1cb6800	0.010953358426764481
177	0x3f85bd7f6da591ad	0.010615344556477913
178	0xbf882a24d4bb2751	-0.01179913305476857
179	0x3f944b85c5b2f610	0.01981934565696092
180	0xbf612bce34063cb3	-0.002096083393730541
181	0x3f79235224b91558	0.006137200234268413
182	0xbf78053514e560ab	-0.005864341116044762
183	0xbf80bdf35d5aaad4	-0.008174802099650526
184	0x3f7591a0d26b6091	0.005265835009332546
185	0xbf642836491d6cb1	-0.002460580851147386
186	0x3f7466b65beaf582	0.004980766620687917
187	0x3f6dd20ebfff269e	0.003640202339714473
188	0xbf76f0cd16c619d9	-0.005600739601851556
189	0x3f793e95ff5790df	0.006163202216587587
190	0xbf7e194ace90b891	-0.007348339285313214
191	0x3f971c00559fb057	0.022567754007397713
192	0xbf918ecc3277ab7d	-0.01714629228619512
193	0xbf9e59cbe83df16d	-0.02963942151062453
194	0x3f8982b9dc328331	0.012456371338261359
195	0xbf5ea867b23d0e2c	-0.0018712055834421244
196	0x3f6de384d9811648	0.0036485285491234844
197	0x3f8cd3d70b11bd3f	0.01407592775851063
198	0xbf8a2ccb86f9ac0e	-0.012780752236002637
199	0x3f8e1c47160ec09e	0.014702372894902557
200	0xbf54b4e91e0d3125	-0.001263835576725
201	0x3f8409e23a37aa8b	0.009784476663260896
202	0xbf72d3b6150ce9cf	-0.004596434839920296
203	0xbf85627b4323658f	-0.010441744791409828
204	0x3f7814d3104ec396	0.00587923475988896
205	0xbe930e5fb3cb45a8	-2.8395873012424e-07
206	0x3f605ecef931dc25	0.001998333210902386
207	0x3f76cf16422aa368	0.005568587252732772
208	0xbf7645b4ab7f40c6	-0.005437570325696755
209	0x3f6ffcbe2b0437ac	0.0039046968669315864
210	0xbf8dabbcb158c785	-0.014487718736834196
211	0x3fa1f0d7961fbb85	0.0350406046635419
212	0xbf9c446784e7a084	-0.027604691969742592
213	0xbfa769473d1dbb6f	-0.04572508450552603
214	0x3f97888f6e43f1a9	0.022981873612467094
215	0xbf61e16daa5a9b6f	-0.002182687940904974
216	0x3f86863f4d30b51a	0.01099824384990682
217	0x3f955a8aed2b22bb	0.020853205419174552
218	0xbf93ecfb01a9e3de	-0.019458696342983355
219	0x3f9695b8a2b52f1a	0.02205551617707533
220	0xbf6ca13d22cb19a4	-0.003494853406979819
221	0x3f8941f1c3829cee	0.01233281019115259
222	0xbf83cdd1acde59f8	-0.00966991242220859
223	0xbf8f4a19f3383193	-0.015278055891962327
224	0x3f819c9c4efdd1e9	0.008599492226246635
225	0xbf726f7765da0b2d	-0.004500833890804396
226	0x3f8210cc8bb1dee0	0.008821104062220753
227	0x3f71ee5de54c224f	0.00437771490101875
228	0xbf804227658cce6c	-0.007938678537903608
229	0x3f806696a08300a1	0.008008171819142542
230	0xbf74024e7aa6d340	-0.004885012206092665
231	0x3f8ccf165a305228	0.014066862704603514
232	0xbf868dbb6febc472	-0.011012520173127014
233	0xbf9237c89ae40b2b	-0.017790922597679042
234	0x3f82bb6cd0448284	0.009146547418425806
235	0x3f6862ab30ea550b	0.002976736409730512
236	0x3f68ee7a498c467c	0.0030434025214923204
237	0x3f82a3e5bbf79f49	0.009101671980672814
238	0xbf82ecf76b9f779c	-0.009241040202990373
239	0x3f75f7cc4cab4512	0.005363271756054349
240	0xbf8eeeb92334b91b	-0.01510376585664779
241	0x3fa158dba7cb2fa0	0.03388105796110996
242	0xbf94e2376ee635f5	-0.02039419760108348
243	0xbfa778a281613e0c	-0.04584224538177403
244	0x3f96842b7068ab12	0.02198856233205066
245	0xbf9378e6e964a444	-0.019015892024217843
246	0x3f7f988630fa449a	0.007713817772711762
247	0x3f94bb12a319bd52	0.020244876103274585
248	0xbf9131d630957168	-0.016791674342458235
249	0x3fa072e8bfa90a00	0.03212668742755298
250	0xbf829c5cb0bde765	-0.0090872994839974
251	0x3f94571f33dda3f8	0.019863593617092307
252	0xbf8517265a1774b3	-0.010298061012628734
253	0xbf9b6d9fd2ce7cd7	-0.026785371057141596
254	0x3f8af6615ccbf2fa	0.01316524567072851
255	0xbf872452152a0472	-0.011299744864347459

biases f8 [10]
0	0x3f9701d1c330da3f	0.022467877901556795
1	0xbfa58954e05bbb6e	-0.04206338156460886
2	0x3fa5cb5dab33f56f	0.04256718363647393
3	0x3fb096fc5a07909d	0.06480385969149656
4	0xbf96a8fb7ecd4803	-0.022128991712925494
5	0xbf80fab5632d22f1	-0.008290688599701808
6	0xbf75bb5ef7842da1	-0.0053056440012925485
7	0xbf9b4d809dc9566a	-0.02666283572246756
8	0x3f886a0f46ff526c	0.011921042780081957
9	0xbfa31a16ec387f69	-0.03730842240861316
