weights/weight_13_0.004.npz (npz, 109572 bytes, 3 tensors)

filter f8 [8, 3, 3]
000000 5f 63 4d 24 c6 ed df 3f 7e 51 e7 85 f3 ff e0 3f
       0.4988875727190613 0.5312440505318106
000010 5d 29 90 a5 91 71 d7 3f 05 27 e6 b0 1d a4 c6 3f
       0.3663066975429013 0.17688342225692835
000020 84 52 b8 63 1e 58 ba bf 2e f2 91 32 e2 f4 c0 3f
       -0.10290708479471716 0.1324732539104771
000030 c5 57 e5 81 15 ec ca 3f 12 32 4c 0d 8f 93 c1 3f
       0.21032971232005884 0.13731563710497646
000040 24 91 c8 7c 93 3d ac 3f 28 9d c6 1a 9f 92 de 3f
       0.05515728853450444 0.4776990663035172
000050 ae 10 f0 18 1a 31 c4 3f f4 11 39 6f 53 fc cf 3f
       0.1577484723822002 0.24988787585074557
000060 7a 50 96 f4 2d 01 c5 3f 35 81 1f 10 85 f3 95 bf
       0.16409849589092912 -0.021436766728471574
000070 6f 7b 6c 13 8f 27 b3 bf ca 2d 9b 62 61 b7 c1 3f
       -0.07482237076008656 0.1384088260150363
000080 a8 3a 22 6d a6 21 a2 bf 61 80 aa d4 a9 63 c2 3f
       -0.03541297990988329 0.14366648563464238
000090 8e 76 a9 47 db 31 93 bf b1 b9 cd 16 55 52 c6 3f
       -0.01874487519159245 0.17438758481462238
0000a0 2f f3 97 6f f3 2a 95 3f 4f 65 08 8d de 48 a1 3f
       0.020671657262926132 0.033759073940198385
0000b0 3f 2e b3 c2 70 44 ac bf 6c 5a 1d b7 0b fa ab bf
       -0.05520965935428678 -0.054642072775710954
0000c0 5c a2 06 a5 fd 74 64 bf fa d6 04 73 e6 8e c7 3f
       -0.00249719181029588 0.18404846779019818
0000d0 6c 65 78 9d ad 48 bc 3f 03 6b 55 a9 0b 7a d5 3f
       0.11048398107995688 0.33557406937113415
0000e0 f5 5d 17 af d6 53 dc 3f 03 17 f4 70 9a 52 b3 3f
       0.442617102611137 0.07547917611745096
0000f0 17 dc 8e 9a 16 e6 a6 3f e0 af bd d1 21 a2 c9 3f
       0.04472418438620467 0.2002603792310529
000100 62 cf 26 b8 fc 27 b4 3f 0d a8 93 4e 91 61 b5 3f
       0.0787351560200569 0.0835200135076379
000110 73 a5 2e 85 6b 3b bf 3f e7 c3 9d 72 35 54 84 bf
       0.12200042726057862 -0.00992624050170039
000120 54 50 31 64 6d 17 a4 3f c0 be 22 55 fc 09 d0 3f
       0.0392412361913165 0.25060947717700444
000130 f2 84 32 6d 8a 76 b5 3f 06 b6 9b 04 06 b4 b2 3f
       0.08384003797484121 0.07305944073205958
000140 c7 44 56 af 60 7c c2 bf 5b 50 f5 dd 83 f3 b9 3f
       -0.14442070542694393 0.101371995629337
000150 b9 95 a1 de f4 19 b1 3f 1a d6 a8 6f e4 35 b1 3f
       0.06680231509525116 0.06722858167707849
000160 48 20 76 45 c9 00 aa bf e6 0c cd 44 c4 64 e0 3f
       -0.05078724835317466 0.5123006194848159
000170 dd cc 35 73 04 06 e6 3f be 0f d3 65 44 5d b1 3f
       0.6882345438192733 0.06782939420651155
000180 0a 66 d2 2c e5 4b d7 3f ab 3e c5 f4 17 67 b4 3f
       0.36400727631698315 0.07969808317033748
000190 25 d4 38 70 5b 8e a6 3f bf eb 23 2d fd ed b8 3f
       0.04405484909913352 0.09738142349298949
0001a0 01 df 17 95 6e b5 b1 3f 4f e6 7f c5 27 48 c0 3f
       0.06917468204471434 0.12720200675521418
0001b0 c2 61 b4 a1 e1 81 c9 3f 53 eb 80 d7 e0 6a c5 3f
       0.19927616496785389 0.16732416651378887
0001c0 8b 7e cb f4 cd fe c9 3f ab f5 e3 cd f4 c4 a2 3f
       0.203088516739616 0.036658907063592615
0001d0 f8 5c 0f c3 df 55 b8 bf e9 9f d4 25 48 11 b6 bf
       -0.09506033432204564 -0.08620119975660114
0001e0 8c eb a7 48 c0 df 98 3f 87 7e 1b b4 95 6a 93 3f
       0.02429104274231579 0.018961276166804566
0001f0 d3 0a cb 66 6a 42 c6 3f 1c b1 7c 0f 7d 71 c7 3f
       0.17390184420772545 0.18315089470105128
000200 f5 a3 b1 fa 42 13 d6 3f c8 ba a3 ec ed 3c ab 3f
       0.3449256370718666 0.05319922937075244
000210 13 e8 e6 dd 3c d8 b9 3f 2d f6 e8 40 b2 9c 4a 3f
       0.10095577638176705 0.0008121366861996764
000220 1b 33 59 c3 88 f3 a6 bf 3d e8 ca 39 82 59 a0 bf
       -0.04482676872848953 -0.0319328971431365
000230 83 58 a3 17 3a d4 b8 3f 5a 64 cf 11 1a da ab 3f
       0.09698832585431387 0.05439835994156601

weights f8 [1352, 10]
000000 e2 c7 37 25 9c 15 85 bf 2c e8 ae 65 84 85 9d 3f
       -0.010295123945045451 0.028829640108348695
000010 fe 99 1e a2 60 71 98 bf 27 0c 11 d2 56 80 a3 bf
       -0.023870000739089285 -0.03808852495469522
000020 91 4e 50 b5 23 75 79 3f ec 7a 7f 8c fd 87 75 bf
       0.0062152285436415525 -0.005256643700674895
000030 ac d8 da d3 7d 55 28 3f c7 e0 90 d8 50 26 9b 3f
       0.00018565331440862276 0.026513350694785467
000040 a1 02 c1 63 6c 66 81 bf f4 98 91 a3 6f 7b 99 3f
       -0.008496138376473285 0.024884933813518154
000050 4c 5e 5d 4f da c7 7c bf 1a da 96 db 5b e9 90 3f
       -0.0070265319571585876 0.01651519325033677
000060 65 fe 2f 9a 74 cd 8b bf 59 17 dc 70 4c 7b 97 bf
       -0.013575468974521951 -0.022931284321223575
000070 e1 93 00 35 42 eb 70 3f 81 e9 2b 5c 42 97 69 bf
       0.00413061010479951 -0.0031238838286046793
000080 da 21 c6 20 3b 9d 50 3f c9 62 68 2b c1 3e 90 3f
       0.0010140492841817978 0.015864389681243183
000090 c1 f6 82 d7 ea d7 74 bf 95 e4 2f ce 63 b1 90 3f
       -0.005088727332063393 0.01630168863264155
0000a0 f5 50 97 27 f5 74 4a bf 85 f3 38 d8 5b ca 74 3f
       -0.0008073994678690343 0.0050757968597822155
0000b0 6c 8b 3b 1f 24 be 69 bf 2d 04 a0 53 f4 8b 79 bf
       -0.003142424155031012 -0.006236986542718132
0000c0 bd 19 0b 91 39 9e 67 3f 92 ac fb 50 35 74 50 bf
       0.0028830646845989503 -0.0010042687098870445
0000d0 ae 87 a7 23 9d a3 41 3f a0 c7 0e 33 71 3d 75 3f
       0.000538303115998886 0.005185548959092318
0000e0 4a fd df d3 a3 8f 65 bf 56 23 dc 8b 5e 1d 72 3f
       -0.00263196942887559 0.004422540017693452
0000f0 49 ef c4 c2 b8 34 78 bf e0 6c 17 4b ea 72 8d 3f
       -0.005909654352134038 0.014379339615450737
000100 b9 4b 68 71 f3 d0 87 bf b5 56 86 88 9f 22 95 bf
       -0.011629011057299953 -0.02063988943844804
000110 70 1c b9 aa 48 d0 5f 3f 75 e8 85 57 b0 e7 50 bf
       0.0019417485845154812 -0.0010318014229526971
000120 b0 9f 65 6b 6f a2 13 3f 81 29 a4 8b 1b 56 8f 3f
       7.489972162988304e-05 0.015300955962193498
000130 c5 62 af 48 a8 26 79 bf cc 39 e6 8d a5 5c 88 3f
       -0.006140382155501005 0.011895459549830976
000140 27 e8 cd 3a 11 69 28 bf f1 93 8d a1 35 b7 6d 3f
       -0.00018623671840228945 0.003627400158097143
000150 6c 54 9d d0 17 25 64 bf 18 49 d7 f8 71 8a 79 bf
       -0.0024590935835627128 -0.0062355472595803305
000160 aa f7 1f aa 17 a8 57 3f 02 11 07 63 e7 44 30 3f
       0.0014438849543689605 0.0002482476147884911
000170 4e d7 6a 25 51 51 41 3f 6d 5c ad f6 fa 64 76 3f
       0.0005284925672046443 0.005467396093840821
000180 ca aa f5 78 73 28 68 bf 2f 83 35 a7 e7 db 57 3f
       -0.0029489760706174805 0.0014562380063908966
000190 51 bc 5c c2 8e de 7f bf 36 f1 e9 e7 2d 1b 98 3f
       -0.007780606892807533 0.023541180877587574
0001a0 5a 14 ef 5c 8a a4 92 bf 14 7c 8e 0e 49 70 a0 bf
       -0.01820579712127244 -0.03210666945164334
0001b0 ee 43 79 73 9a a9 70 3f ab 8f ed 06 5b 22 71 bf
       0.004067996334542008 -0.004183154653990255
0001c0 85 12 17 ea 09 c4 19 bf e0 34 19 f6 15 3b 99 3f
       -9.828863632949977e-05 0.024639456887872835
0001d0 0c 51 d8 13 32 61 83 bf 79 dd 6b 13 3d ae 93 3f
       -0.009462729673977786 0.019219354925522823
0001e0 98 77 22 5e 64 89 47 bf 7d 09 40 01 f1 03 7d 3f
       -0.0007182827069020957 0.007083836961103149
0001f0 33 07 c0 a9 10 53 76 bf 7f 7d e2 0a 81 ac 86 bf
       -0.005450310793095703 -0.011071212906528015
000200 5d 23 9e f2 58 76 63 3f 43 bf 8f 8a dc a4 59 bf
       0.0023757684002174 -0.0015651849482729164
000210 6c c6 f8 7c 85 fa 17 3f ab 52 ca 97 6e dd 7c 3f
       9.147109744203082e-05 0.007047111514698538
000220 78 f0 28 33 68 cc 6a bf 8a 9b fb 0e 18 24 72 3f
       -0.0032712969926063616 0.004428953150386836
000230 fb 77 bb 47 1d 6b 68 bf 36 c1 5e ab d4 7e 82 3f
       -0.002980763614558233 0.009030972938348297
000240 27 59 6c 22 66 06 7f bf 28 53 02 1c d3 9b 85 bf
       -0.007574461901432883 -0.010551118175763444
000250 6f e7 39 7d e9 9f 58 3f a1 7d 83 79 ed 58 48 3f
       0.0015029697578072506 0.0007430228752375764
000260 26 a2 30 11 1e 3e 41 3f c9 79 94 5d 92 4b 81 3f
       0.0005262038051841486 0.008444922905764056
000270 8c 2e e2 e6 74 00 6e bf 98 17 20 a8 b4 db 7a 3f
       -0.003662327121736036 0.0065571839240926785
000280 3e 95 02 a6 d0 79 84 bf 0a 43 2f a1 c1 14 9d 3f
       -0.009997968736863979 0.028399491751602425
000290 5e bd 35 98 74 24 98 bf 25 bc db 11 65 e9 a3 bf
       -0.023576566496044442 -0.03889003603932676
0002a0 8f 56 31 99 f6 15 78 3f 48 0d ee 89 d7 66 79 bf
       0.00588032081130553 -0.006201593349831676
0002b0 7c 01 2c 60 00 20 67 3f 81 95 9b 25 a4 25 9b 3f
       0.002822876676305151 0.026510777278323076
0002c0 13 c1 19 a5 36 35 81 bf e8 f2 84 ed 10 20 9a 3f
       -0.008402277863951235 0.025512947556523807
0002d0 94 3b 0d e3 ff 22 77 bf 04 54 22 fd 2e fc 90 3f
       -0.005648612554820871 0.016587003898695954
0002e0 f9 5a b5 37 0f 9c 8d bf e1 46 31 2c 67 46 97 bf
       -0.014457816016756097 -0.02272950370053806
0002f0 de e4 5e 1d fa 80 6b 3f b6 97 5d 7f bd 6b 72 bf
       0.0033573994687371286 -0.004497280335135237
000300 c3 72 17 ff 31 dd 28 3f f2 a6 e0 8c a2 f7 8f 3f
       0.0001896976023506772 0.015609044956437643
000310 ef d8 9b 3f 0a 9b 76 bf 6f 40 25 46 e2 3e 8e 3f
       -0.005518951447575512 0.014768378987952439
000320 31 6c 35 96 ff c4 5d bf de 19 10 9e 51 c7 6f 3f
       -0.0018169876064664354 0.003879222306298432
000330 0b 47 dd d4 1e 15 73 bf 09 d7 7f e4 31 82 7d bf
       -0.004658813891937684 -0.007204241650460971
000340 24 b8 fc 12 d0 2c 4e 3f 90 dd ee ca d5 82 5a bf
       0.0009208694445754823 -0.0016181075877577979
000350 56 0c 72 e6 38 f8 41 3f 32 7b c8 c7 e8 a9 73 3f
       0.0005483892281436069 0.0048007100090490685
000360 fc 99 66 82 55 72 6a bf 7d 71 c0 8e 8b 4e 6f 3f
       -0.003228346834663441 0.003821632932171136
000370 71 d8 67 42 d2 15 76 bf 6f 9c ed 4c da 06 90 3f
       -0.005391904187936545 0.01565114111454274
000380 6f 26 18 03 f6 29 89 bf 91 43 36 f6 09 df 95 bf
       -0.0122870654768292 -0.021358638432107894
000390 35 25 cd 2d 46 98 62 3f 69 e8 6b 05 87 20 52 bf
       0.002269875591455995 -0.00110638795530218
0003a0 4c af 4c 29 c5 79 43 bf 25 2b 4d e4 57 0a 91 3f
       -0.0005943501188076876 0.016641019162572896
0003b0 55 d2 83 36 ec 30 78 bf 84 60 1d b2 1d c8 8a 3f
       -0.00590603132899455 0.013077003477221412
0003c0 6f 22 f7 c1 ac 76 54 bf f3 f2 ae a8 4e fd 70 3f
       -0.0012489974104587206 0.00414782262936052
0003d0 bb 2f 86 2f f5 97 60 bf 08 16 a5 f0 8d a8 7b bf
       -0.0020255841047340495 -0.006752542927932044
0003e0 16 42 65 a4 8e 60 46 3f 70 da 3d b2 53 89 4a bf
       0.0006828972334834173 -0.0008098276780249113
0003f0 7e 13 6f fa 43 dc 3a 3f 2f 30 fd 1e d3 7f 78 3f
       0.0004098573648970079 0.00598127812538611
000400 7c ba ab 37 d3 45 6b bf 5d 11 39 c2 75 4e 54 3f
       -0.0033291936246009884 0.001239409445490023
000410 49 e0 88 24 61 7a 80 bf d2 b1 a0 5e 7e 56 98 3f
       -0.008045920302819936 0.023767447019212025
000420 9a e6 35 d8 7c 79 92 bf e2 82 62 29 8d 57 a0 bf
       -0.01804156369823904 -0.031917964269501345
000430 59 0a 53 8d 03 bc 6b 3f 8d 0e ee 18 fe 9e 60 bf
       0.0033855504394478095 -0.0020289385642529635
000440 82 84 35 d8 d6 96 36 3f de 84 c4 a0 33 ee 99 3f
       0.00034468407849003885 0.025322729766348633
000450 ed e7 d7 0a 21 07 81 bf 9f c7 17 2c 0c 18 92 3f
       -0.008314378875173356 0.0176698591148533
000460 7c 45 ac a5 0b 88 5b bf 91 c9 cc 9e 7d 92 79 3f
       -0.0016803849927707606 0.0062432200473260405
000470 f7 1a 9e d9 a1 2e 76 bf bb 91 70 27 d1 61 84 bf
       -0.005415565707045592 -0.0099521961365746
000480 94 6b 50 63 54 1b 59 3f 7d de d4 d5 1d 8c 5f bf
       0.001532394800284752 -0.0019254962310934203
000490 24 b3 7b 79 9a 10 3c 3f 53 19 c5 92 93 64 7a 3f
       0.0004282357344738577 0.006443573435097899
0004a0 54 63 7c d1 cd 2a 70 bf ef fa 20 c7 73 ee 74 3f
       -0.003947071054221169 0.005110218293394849
0004b0 91 73 ee c5 1a 15 70 bf f0 8e d3 6a e3 2e 82 3f
       -0.003926376898473986 0.008878494927962305
0004c0 5d fd fd 89 a3 3f 7e bf 16 40 9a 82 fa 76 88 bf
       -0.007384909462302272 -0.011945683584855298
0004d0 bd bf 6a bd 2a 42 53 3f c8 e0 53 6f 11 b0 5a bf
       0.0011754433996138257 -0.0016288919699132699
0004e0 1e e6 56 66 ee 8d 2e 3f e4 40 81 69 95 73 84 3f
       0.0002331117167793531 0.009986083299878996
0004f0 4e 9b c9 b8 7d 47 6f bf 53 6c 0d 34 bd f0 78 3f
       -0.0038182693008822826 0.006088961673266518
000500 e9 b3 bb 73 46 0a 85 bf 98 88 d9 e1 11 ca 9d 3f
       -0.010273504645249747 0.029091147813581658
000510 82 44 a6 b3 74 6d 99 bf 87 cc 19 fa 98 5c a3 bf
       -0.024831603493627792 -0.037815838365440384
000520 b8 d4 69 04 10 08 75 3f df f4 0f 0c b5 ed 74 bf
       0.005134642188399478 -0.005109507766062309
000530 a3 53 8a c7 c3 85 51 3f fd b8 72 20 59 f8 9b 3f
       0.0010694896610960812 0.027314560513951303
000540 b0 c8 fc 94 e5 06 81 bf b6 7f 4e fb 68 a2 98 3f
       -0.008313935860858684 0.024057045305766876
000550 de be 51 ed 70 d6 77 bf 8f c7 06 5e a8 4d 91 3f
       -0.005819741364674972 0.016897803057595303
000560 a7 37 8c 9f fd 62 8b bf c7 de 79 21 86 49 98 bf
       -0.013372403556356561 -0.02371797160455349
000570 c4 d1 bc 03 04 bc 62 3f e5 b8 02 c1 e8 9d 6f bf
       0.0022869184885172273 -0.0038594766593497026
000580 09 68 42 72 82 13 6b 3f 09 69 2f 80 34 e0 8c 3f
       0.0033052013187218105 0.014099512254621265
000590 1b fa ca 7a 76 e6 78 bf 6f 53 c7 74 5f 82 8e 3f
       -0.006079161463900219 0.014897104026127398
0005a0 8b b1 6b f7 2e 1e 45 bf 66 87 a1 be 33 a2 69 3f
       -0.0006444672897863308 0.003129101814054391
0005b0 a4 0e d7 e9 9d 16 65 bf 4d 54 3b f8 0a 86 74 bf
       -0.002574261116679315 -0.005010645723548879
0005c0 c6 d6 e7 53 b0 be 45 3f da dd d4 55 08 c3 5b bf
       0.00066360101464965 -0.0016944486045086166
0005d0 3e 0c 12 e2 77 75 55 3f bf 00 eb f9 ff 76 71 3f
       0.0013097449048309474 0.004263877780147306
0005e0 fb c5 68 f6 1a 10 61 bf 7a 95 f4 0d fd f7 72 3f
       -0.002082874928668541 0.004631031507675737
0005f0 ef 16 8e 89 a1 0a 72 bf 97 74 34 29 35 4c 8f 3f
       -0.004404669766591359 0.015282073326085928
000600 74 a4 2d 4d 7a 91 86 bf 07 46 8e da e4 b0 95 bf
       -0.011019664268774522 -0.021182609405121535
000610 25 e7 2a 8b c9 1f 41 3f 10 f8 53 25 7a 70 4a bf
       0.0005225881671641937 -0.0008068653502559826
000620 ac 61 34 00 dc ea 3d bf cd cc 23 67 4d 94 8f 3f
       -0.00045650359261764184 0.01541958304412674
000630 25 94 0b df a9 e2 7b bf 68 bb e0 d4 d4 d1 88 3f
       -0.006807960090303521 0.012118971582905494
000640 c8 c3 80 9f 23 2c 37 bf 39 49 64 1d 1a ab 76 3f
       -0.000353583046947267 0.005534269343359371
000650 ef c8 1c c2 99 7b 61 bf 3e e0 b3 13 00 e2 79 bf
       -0.00213413268002071 -0.006319046307218966
000660 22 6c fd cf cb 62 56 3f 58 40 fd df 0b 10 35 3f
       0.001366328273397562 0.00032139100948303445
000670 a5 3a 8a df 32 4c 45 3f 91 a6 81 f9 e0 3c 78 3f
       0.0006499527363120384 0.0059174335548079085
000680 78 db 99 d0 fb 05 64 bf 98 1a bf 06 c9 67 67 3f
       -0.002444259477495544 0.002857105855557162
000690 1f 73 55 03 a4 9a 82 bf 7a 37 d8 a7 26 1b 98 3f
       -0.009084016181697017 0.0235410728401386
0006a0 52 04 41 0e b8 41 93 bf ad ec aa 94 23 d8 a0 bf
       -0.018805385465615672 -0.03289900960722867
0006b0 3a 8d c0 73 ae 59 75 3f 82 f5 e0 5b 3a 6b 5e bf
       0.005212480024087635 -0.0018566198264261262
0006c0 07 a3 22 40 1e 1b 46 3f 6c 54 5e 30 6d b3 98 3f
       0.0006746194560679216 0.024121957852532835
0006d0 92 64 60 c8 e4 cb 80 bf cf 76 3f 9e c3 3d 94 3f
       -0.008201396336561726 0.019766861470876414
0006e0 aa 10 aa 9f 7f 88 5b bf 85 96 8a 2c b4 bc 79 3f
       -0.0016804930043301893 0.006283477596900182
0006f0 fa a4 b4 73 9e 49 73 bf a1 47 1a 4c e2 b0 82 bf
       -0.004708880379703512 -0.009126441905468687
000700 28 2e e1 e7 e5 6e 51 3f c4 5d aa a6 86 e0 50 bf
       0.0010640378163938678 -0.0010300936652692808
000710 16 f6 dc b4 45 cf 5c 3f f7 6a 73 e8 36 a3 7a 3f
       0.0017584019401079057 0.006503309711855413
000720 b2 d8 f2 10 d6 12 6a bf ed a4 fa 09 9e 05 76 3f
       -0.003182809923227025 0.005376450862663901
000730 31 9b e1 00 77 03 68 bf 6c f8 91 8f 6c f4 80 3f
       -0.002931339672659482 0.008278701907553386
000740 8d c8 8a 14 5e 16 7d bf fc 29 f7 b1 af b6 89 bf
       -0.0071014094361762205 -0.012555477732253621
000750 0b 25 24 b9 a2 91 5f 3f e2 5d ec b9 85 fa 5b 3f
       0.0019268120855165406 0.001707678405812867
000760 9e ed 8d df 0a 9a 37 bf 92 a2 77 84 63 5a 82 3f
       -0.0003601337953608954 0.00896146533973877
000770 00 81 a2 22 09 63 6a bf 03 b4 ce 2c 4e d6 78 3f
       -0.00322105201946965 0.0060637525283882025
000780 d2 08 f2 3e f5 67 87 bf 0b 05 27 b1 fb be 9a 3f
       -0.011428752883379554 0.02611916798355644
000790 1b 13 0a 1f 79 74 8d bf 93 7d f9 3b 80 58 a2 bf
       -0.014382311115022575 -0.03583145839797477
0007a0 9c 48 22 cf 84 d0 73 3f 9b d3 0e cb cb 08 86 bf
       0.004837530885327148 -0.010758964666686846
0007b0 26 01 2a 3e ab b2 60 3f 07 61 fe f5 19 09 9a 3f
       0.002038320978783886 0.025425344123136486
0007c0 07 19 ce cb 3f f3 86 bf 86 8f 18 81 03 92 98 3f
       -0.01120614853585923 0.023994498018637532
0007d0 7a f5 0f 61 b4 1c 7b bf 69 4f 26 fb 01 f1 8d 3f
       -0.006619171720556033 0.014619842030505219
0007e0 8a ce 5b be 40 a5 80 bf 85 9c 6d e5 c9 70 95 bf
       -0.008127694901737276 -0.02093806708162706
0007f0 9e e4 f0 d2 d7 c9 5d 3f d4 80 de 4e b5 d3 79 bf
       0.0018181426674018018 -0.006305416331002973

biases f8 [10]
000000 ea 9c 72 0a a6 fe 90 3f 43 4c f1 2b 8b d2 a0 bf
       0.016596407306363505 -0.03285632048996281
000010 e5 61 0a 6f 21 bd 9f 3f 5f 9b ce 1c d9 fc a7 3f
       0.030994913484933568 0.04685095287941609
000020 ca 4e 81 21 21 83 61 bf dd 86 e0 04 4b 0e 6d bf
       -0.002137722691296283 -0.0035468545165863023
000030 32 b2 77 3c f0 e8 6c bf 68 f9 87 3d da 4c 9b bf
       -0.0035290424454983644 -0.026660356526912038
000040 91 a6 fb 6e 53 8f 6d 3f c1 e7 33 ff 27 06 9e bf
       0.0036083821831781123 -0.02932035918363574
